bench_model.pth (torch, 36336 bytes, 5 tensors)

model.0.weight f4 [160, 19]
00000000: a4e5 8c3d 9fc2 533c 6b93 473d e397 a4be
00000010: 8aad 723e f98a 0d3d fc55 723e 213f e53d
00000020: 1a05 b4be 4dab 8b3d 5ff8 2b3d 0e00 0f3e
00000030: 45f4 973e 65de 28be f206 aa3e dddb 4c3e
00000040: e696 55be cba5 583e d17e 5dbe 5553 813e
00000050: 5609 383c 3e6d 7f3e 251e 2c3d 17b6 f3bc
00000060: b1b1 1bbd 562a 0a3d 157f 34bc d28d f03e
00000070: c797 07be 4640 7f3c 803c 87be 5167 3abf
00000080: bdae d8bd 4ef7 1a3d 1d61 843d 46fc 4c3b
00000090: 6a45 5d3d 9530 29be f156 943e 48b5 02bf
000000a0: a655 073e 5e82 b9bd 3cb5 83be 3edc dc3c
000000b0: eeb5 a4be 2e9a 9abe df48 413e c88b acbe
000000c0: 0b87 93be b432 6abe 31ff 71be f35b 713e
000000d0: d4db 4bbe 3139 3b3d 2171 43be 588f 42bd
000000e0: eebe 943c 0909 263e 4b54 763e 8aa2 12be
000000f0: 5794 e5bc 868a 9bbd 770b 05be b7cb 633e
00000100: e660 f23e 3d33 1d3e c4fc 0abe 4480 44be
00000110: e781 a83d 0bf9 37bf fdc6 8dba 4ca1 78be
00000120: 02d4 713d e929 8d3e 6a2c 14be 6ade 6f3d
00000130: 8c17 e83c 652a 22be 22f3 c33b 7f53 80bf
00000140: 3729 62be 571c 05be b22f a4bd 2797 d63d
00000150: 45e5 12be 6fdd b23d 9731 b8bc 746e bc3c
00000160: f29e 9f3d 7239 14bd 1e4e a23d 7fd0 073d
00000170: 6039 ae3e b54a b23c 98e0 66be e78c 4dbe
00000180: 6949 5cbe d275 313e 1461 223e 627c 01be
00000190: 3ad7 79be 3373 873e d384 a73b e423 b9bc
000001a0: 8b11 c1be 8162 85be 382a e6bd ba5e 973d
000001b0: 888e ac3d 6ba9 543e 8838 22be f70c a93e
000001c0: a2cc 1f3d 77e3 813d ef80 17be 40e4 55be
000001d0: f7bd 05be e552 1e3e 620f 1d3f d366 05be
000001e0: 9abf 563e 0233 363e 9548 cd3d bae1 9a3e
000001f0: a36c 823e f838 823d 6e61 ca3d 5c4e a7bc
00000200: 8ea6 31bc b667 a0bd 786c fb3d cb7d 7e3e
00000210: 3d10 e9be 6d39 a6bb d23d f1bb a65f 38be
00000220: f079 333e c891 353c 7cac 213e 33fd 093e
00000230: 01fb b13d 01e7 0dbf cfa8 3f3c 4dd4 693e
00000240: f936 19bd e534 b93d b1c1 cbbd dc2e 11be
00000250: f78e 6cbc 3a55 083f fdce 46be be36 61be
00000260: 08b4 57be 7463 b13e 09f6 123d 8f81 3d3e
00000270: 6637 dbbd 7b4e 95bd e362 08be da04 9e3c
00000280: 1cff cc3e 1db2 df3d 49b6 e23d f3ed 6b3e
00000290: e824 24bf 3525 3cbd 891b 07be d409 d4bd
000002a0: 6beb d83d c6c0 24be 224b cebd 5e75 bfbd
000002b0: 2e47 45bd 8920 1d3e 0fc5 073e 2ec0 ce3d
000002c0: 1162 4fbc 2a64 80be 30ad 6cbd c532 aabd
000002d0: 31cf 39be ff8d 303e 3c32 e7bc 53da da3e
000002e0: 147f 63be 2a9b 933e 4f93 12bd 4c10 bb3d
000002f0: 9cf5 d53d 769d c3bd abcf 9abe e033 b2be
00000300: f988 0ebe 5f96 d43d 1495 52bd 0767 503e
00000310: ca7c 663e d776 923d 47d8 663e 9f05 80be
00000320: c6fc aebe 4462 06bf 91c6 873e 3b71 e0bd
00000330: 7bb8 1f3e 3bd2 acbd 076c 52be 3435 2ebd
00000340: 0abc f9bd ad74 50ba 659d 05bc 325a 133d
00000350: 249c a3ba cbda d83a 6355 5aba 5833 a23b
00000360: 880d c8bb e95f 71bc 598a 01bb d848 dcba
00000370: 5877 4bbf 4cab 9dbe df79 01bb 1c71 f9b9
00000380: 7f06 93ba 7b7d 1fbc 1ad2 7f3b 69b5 a73b
00000390: 9278 3ebd 8798 85be fca4 15be 7f3b 7abd
000003a0: 8cf1 803e a749 003e a301 d0bd dd2a aebd
000003b0: 2983 acbd 32b7 283c e3d7 983c 0a41 12bd
000003c0: d8d4 be3d d461 4d3f e307 6a3d 6450 cebd
000003d0: f8cb d7bd dc86 12bc 00a6 5dbe 49fa 773d
000003e0: 5814 a1bd f4b1 b23d 36b8 cebd 4951 b83d
000003f0: 45c6 09bd 396e 31be 6467 ac3d 02ce 38bf
0.06879738 0.012924819 0.048724573 -0.3214713 0.23699012 0.034556363 0.23665613 0.111936815
-0.35160142 0.068197824 0.041984912 0.13964865 0.2967855 -0.16491087 0.33208424 0.20005746
-0.20858344 0.21156995 -0.21630408 0.2525889 0.011232695 0.24944016 0.042020936 -0.029749913
-0.038011257 0.03373178 -0.011016627 0.469832 -0.13241492 0.015579289 -0.26413345 -0.728139
-0.10580204 0.037833504 0.064638354 0.0031278296 0.054021277 -0.16522439 0.2897258 -0.51057863
0.13216266 -0.09058069 -0.25724208 0.026960488 -0.3217005 -0.30195755 0.18875454 -0.33700395
-0.28813967 -0.22870904 -0.23632504 0.23570232 -0.19908077 0.04570884 -0.19086124 -0.047499985
0.018157449 0.16214384 0.24055593 -0.14319816 -0.028024836 -0.075947806 -0.12992655 0.2224568
0.47339553 0.15351577 -0.13572985 -0.19189554 0.08227902 -0.71864384 -0.001081675 -0.2428028
0.059040077 0.27571037 -0.14470068 0.05856172 0.02833154 -0.15836485 0.0059799114 -1.0025481
-0.22086035 -0.12999092 -0.0801691 0.10478049 -0.14345272 0.08733641 -0.022484584 0.023001887
0.07793988 -0.036187597 0.07925056 0.03315782 0.3402815 0.021764139 -0.22546613 -0.20073281
-0.21512379 0.17330101 0.15857345 -0.12645105 -0.24398509 0.26455078 0.0051122694 -0.022600122
-0.37708697 -0.26051715 -0.11238521 0.073911145 0.08425623 0.20767753 -0.15841877 0.33017704
0.039013512 0.063422136 -0.14795278 -0.20887852 -0.13060747 0.15461309 0.613516 -0.13027506
0.20971528 0.17792895 0.100236095 0.3025034 0.25473508 0.06358522 0.098818645 -0.020423107
-0.010842932 -0.07832281 0.12276548 0.24852674 -0.455202 -0.0050727637 -0.007362106 -0.18005237
0.17526984 0.01108212 0.15788454 0.13475494 0.08690453 -0.5543061 0.011697962 0.22834893
-0.03740594 0.09043292 -0.09949053 -0.14178032 -0.014438382 0.53255045 -0.19414897 -0.21993539
-0.2106477 0.3464619 0.03587917 0.18506454 -0.10703926 -0.072903596 -0.13318972 0.019289423
0.40038383 0.10922644 0.110699244 0.23039989 -0.64118814 -0.04593392 -0.13194098 -0.10353437
0.105917774 -0.16089162 -0.10072924 -0.09348558 -0.048163585 0.15344442 0.13258766 0.10095249
-0.012657658 -0.2507642 -0.057782352 -0.08310465 -0.18145443 0.17241667 -0.028222196 0.42744693
-0.22216445 0.28829318 -0.035785016 0.09133968 0.10447237 -0.09551518 -0.30236563 -0.34805202
-0.13919438 0.103802435 -0.051411703 0.20351802 0.22508541 0.07151573 0.22543441 -0.2500429
-0.34177226 -0.5249369 0.26518682 -0.10959097 0.15597717 -0.08438536 -0.20549022 -0.042531207
-0.12194069 -0.00079519564 -0.008155202 0.03597469 -0.0012482447 0.0016544698 -0.00083287637 0.0049499683
-0.0061051287 -0.014732339 -0.00197663 -0.0016806377 -0.7947898 -0.30794752 -0.0019756479 -0.00047577254
-0.0011217146 -0.009734507 0.0039035142 0.0051180613 -0.046501704 -0.26092932 -0.14613718 -0.061091896
0.25184286 0.12528096 -0.10156562 -0.08504269 -0.08423454 0.010297583 0.01865763 -0.035706557
0.093179405 0.802274 0.057136428 -0.10073927 -0.10536951 -0.008943286 -0.21645355 0.060541425
-0.078652084 0.08725348 -0.10093729 0.08999879 -0.03363635 -0.17327203 0.08418158 -0.7218934

model.0.bias f4 [160]
00000000: fed8 a8bd 9fcc cabd 587a 59be 7a10 90bd
00000010: 8713 fbbe 5d6a e6be 6d0e 2abf 2060 46be
00000020: dfd3 7cbe f31f 06bf 6dce c9be 6f22 3ebf
00000030: c865 04bb d355 72bd f394 d8be 98a2 2dbf
00000040: fb09 e8be 3f41 5bbf d972 643c 0e0d 1fbf
00000050: 95be ac3c c1ab 43be b771 73be 86b1 063e
00000060: b3f0 61be 0345 7ebe 8111 05bf e29b 61bd
00000070: 7a1a 09be 32a0 97be cfa9 f7be 39eb acbd
00000080: d469 1ebf 0763 66be f793 c2be 56d3 10bf
00000090: fb2e d8be cc5e 89be a4b2 1bbf ca81 10bf
000000a0: 365f 0dbf 2f05 01be f9a0 89be f6c8 74bd
000000b0: 36d6 02bf 3d9d f63c 9415 95bc 7803 a2be
000000c0: b431 eebe c52a ba3b e41c 1bbf c435 4dbe
000000d0: d92c 80bf c805 65bf 566c 04bf f735 09be
000000e0: 7df8 acbd 6276 37bf 75ea a03d 46eb 523d
000000f0: 727c aabe a5ae 14be d2d2 f9be 2bef 4bbf
00000100: 70c0 6fbf d1ad b33c 7f24 b9be 2196 18bf
00000110: d00a e1be bdf2 67be 81c4 153e f0b3 983d
00000120: 5bde 4dbe bbef b6bd e34b e2bd b6f8 01bf
00000130: d0e0 a9be d0f6 173c 6ab7 a63d 6686 42be
00000140: 5e99 99bc 58ca 4bbf a4ee 34bf 8c59 93be
00000150: 7b1c 87be d1ae bebd 2a53 e9bc 1ae7 3cbe
00000160: 61f1 3abe 4c51 5abd b6a4 cfbe c130 07bf
00000170: c6a9 f6be db4f a6be 9078 813c 1aa9 2cbd
00000180: 2973 a9be bb96 fabd 558c 21bf bc1e 1fbc
00000190: 3d5e 53be 8cf4 553c 2e78 b3be a805 67be
000001a0: 2acf 88bf 4c65 783d 4ed3 b1be 62ab 6dbe
000001b0: cfd0 15bd 2873 df3d 951b 15bd c555 6ebe
000001c0: 5eb9 ecbe 9154 72bf 49d6 a7be 36e2 afbe
000001d0: 66f2 13be 3e1e b3bd 6447 2ebe 0a5f aebe
000001e0: 67af efbe 44d8 d8be eeaa 01bf 1101 77bc
000001f0: ebad d9be 86e0 21bf e9f5 82be c20f 2cbe
00000200: c290 92be 0c3c 11bf da85 d2bb 9872 ddbe
00000210: 4eb1 6fbd 2a18 fbbd 6ec6 7bbd abfb fabe
00000220: 8c79 debe 2d1a d1bb 6656 42bf 2ae8 453d
00000230: eaae 88be 1aa4 cb3b c7bd 06bf 4e9b f43c
00000240: 43ec 26bf 89b3 f5be 0a65 ddbd 9549 e9ba
00000250: 8415 293d 3e82 05bf 0113 01bf dd8b 23bf
00000260: 758e 113e e1ca e9be 19e6 2fbe f649 24be
00000270: fea9 ccbe 5f68 e2be bfce 3c3e 0456 18be
-0.08244513 -0.099023096 -0.21238077 -0.07034393 -0.49038336 -0.45003024 -0.6642826 -0.19372606
-0.24690197 -0.523925 -0.39415303 -0.7427129 -0.0020202268 -0.05916388 -0.4230114 -0.67826223
-0.45320114 -0.8564643 0.013943397 -0.62129295 0.02108697 -0.19108488 -0.23773848 0.13153657
-0.22064476 -0.24831013 -0.51979834 -0.055080302 -0.13389006 -0.29614407 -0.4837174 -0.08443303
-0.6188023 -0.22498713 -0.38003513 -0.56572473 -0.42223343 -0.26830137 -0.6081946 -0.5644804
-0.55223405 -0.12599634 -0.26880625 -0.059761964 -0.5110811 0.030104274 -0.018198766 -0.3164327
-0.46522295 0.005681368 -0.6059096 -0.20040041 -1.0013686 -0.89461946 -0.5172781 -0.13399492
-0.08445833 -0.7166501 0.07857219 0.051493905 -0.3329807 -0.14519747 -0.48793656 -0.79661816
-0.9365301 0.021933468 -0.36160657 -0.5960408 -0.43953562 -0.22651191 0.14625742 0.07456195
-0.20104353 -0.08932444 -0.110496305 -0.5077013 -0.3317933 0.009275153 0.08140452 -0.18996581
-0.018749889 -0.7960563 -0.70676637 -0.28779256 -0.26388916 -0.09310687 -0.028482039 -0.18447533
-0.18256141 -0.053300187 -0.40555352 -0.5280877 -0.48176402 -0.324828 0.015804559 -0.042153455
-0.33095673 -0.12235781 -0.63104755 -0.0097119175 -0.20641418 0.013058793 -0.35052627 -0.22560751
-1.0688221 0.06064348 -0.34731525 -0.23209909 -0.03657609 0.10910636 -0.036403257 -0.23274906
-0.46235174 -0.9466029 -0.32780674 -0.34352273 -0.14447936 -0.087460026 -0.17019421 -0.34056884
-0.4681351 -0.42352498 -0.50651443 -0.015075938 -0.425155 -0.6323322 -0.2557824 -0.16802886
-0.28626066 -0.5673225 -0.0064246478 -0.4325149 -0.0585187 -0.12260468 -0.061468534 -0.49020132
-0.43452108 -0.006381294 -0.75913084 0.048317112 -0.2669595 0.006214631 -0.5263333 0.029859211
-0.65204257 -0.47988537 -0.10810287 -0.0017798418 0.041280285 -0.5215186 -0.5041962 -0.6388529
0.142145 -0.45662597 -0.17177619 -0.16043839 -0.39973444 -0.44220254 0.18438242 -0.14876562

model.3.weight f4 [32, 160]
00000000: e906 26bd c417 8c3c e74e 20bc 96e4 5dbd
00000010: 7825 b0be 8c75 9abd e089 39bc 4572 8dbb
00000020: 2637 a73c 1c2e 483c da43 b0bd a6e2 0140
00000030: b914 933c a8f9 66be ca5c b93d cc0b bb3d
00000040: d22f bebc 402d b0bf 2053 16bd 4ceb 7b3e
00000050: 9310 d93c f1f5 843d a5c1 98bd 4188 c2bb
00000060: 6a38 d13c 71cd 373c 992f 983d 595e 0b3e
00000070: 9b59 8a3d fc22 393d a7c6 3cbd d39a 8e3d
00000080: 05fc 763d 8ec0 b6bb 3066 02be 898f bcbe
00000090: 2239 ce3d 0c58 353a 4bc1 f8bd 176d c63d
000000a0: e1e8 71bd 008b ffbd 8aa3 76bc 6bc4 36be
000000b0: 37fd 3a3d ab26 fe3c 31a9 df3c 1f96 97bb
000000c0: 8b74 febc fe36 733d 72d8 e5be 7289 ae3d
000000d0: 0ced aabe 042a 19be 5426 503e fd1f 893d
000000e0: 5416 9d3b ba7d 883f caac 06be d6f7 113d
000000f0: 904c 2abb 2584 953d 75b6 293e ff52 c63d
00000100: b13d 133e 172c 1c3b 36b4 693d fdef 183d
00000110: a164 1b3d 3207 8fbd ef30 433d 9451 12bc
00000120: dba0 0c3e b1c1 9c3d b08b 06bc 75b4 d7bc
00000130: b72c 38bd 464a 0f3b d0b7 85bc f5da 9c3d
00000140: b263 a33c e3d9 febd 3057 613e aec1 103e
00000150: 60b0 ae3c 4e13 6e3c c653 9c3d 16e4 37be
00000160: e97a dfbc a689 373d b33e 13bc 572c 27bb
00000170: 2233 083e 035a 29be 5979 243d a675 9fbd
00000180: bcd4 6e3d d4f9 cdbc c5ad 153d 705c ae3b
00000190: cba7 b1bb 324c 0f3d 8845 3637 4acc efbc
000001a0: 5394 cfbe 4706 e73b 478d 103e 8832 dd3d
000001b0: 60f5 1c3d 32ac 77bb 767a e8bd 6c8f 663c
000001c0: c364 7c3d c8de a640 c127 3ebd 2207 da3d
000001d0: d540 58bc 4c60 b93d a0b9 dd3c 44cf 41be
000001e0: e946 38be b409 24bd 49e6 013e dbe3 603d
000001f0: 1840 783d 247a d23d ed3b eabc b64b 373d
00000200: b2b2 ee3c 7a35 cf3d 4a08 a6bd 4aed 3a3d
00000210: 2d60 f4bc 11d1 173c 652b 98bd 514b 0e3d
00000220: 056b 51bd bfc4 2a3c d2c6 053f e06f ef3d
00000230: 6e73 d23d 02ab 963d 36b4 db3b 8f16 67bd
00000240: de58 893d e562 3cbd d2da 8b3d bb43 55bd
00000250: 4624 103c 9542 073e 0382 2ebe 7d70 ffbd
00000260: 33ff 2abb 7df3 15bd 506b 743d 0ab1 0c3e
00000270: 6482 393d a113 32be 15e0 283d c7ba e13d
00000280: 371f aabd f52f dc3d 8df3 b33d 09db 6d3d
00000290: bba3 323e f430 0f3e 215f 3f3d 82cb 593e
000002a0: bbcc 5c3e 4208 6fbd 952b 2c3e 0223 eb3f
000002b0: 0259 d6bd af4d ecbd 781e 803d 67c6 80bc
000002c0: 089a acbc 231d bf3e c2a9 8d3d b483 083e
000002d0: 018c 8abc ead0 9dbd 9b36 00be 946a 1ebe
000002e0: 8fe6 1d3e 7ccb 09bd 729d 68be 3933 833d
000002f0: 0d15 fb3d cdc2 3cbd 5214 db3d a512 ea3d
00000300: 9276 7abd ddca 033e a873 5dbd 8b08 d53d
00000310: d5ff fcbd 5e4e 91bd 07ab 91be 81bf 38be
00000320: 404d 103e 36ac 4e3a 75ac 373d 8d9a 11be
00000330: 91b4 393d abca 4b3d 0d1b 1dbe 938e 883c
00000340: 76b9 023e 3f86 4ebd 872d 10bf 9e05 b5bc
00000350: fbac c9be 8e2f cabd 8dd3 403e 3ba9 e13c
00000360: 546b e1bd c239 7b3f 48e1 773d c112 cb3c
00000370: 1096 d53d 26b3 55bd cec5 6bbc 1477 7b3e
00000380: 167f 803f b537 e4bc 9498 f0bd fd97 303e
00000390: e938 a23c f484 abbd e679 dc3d 8218 edbc
000003a0: e674 003d b945 2cbd 615e 093c e0fa 4e3d
000003b0: 16d8 3bbd d30b 4c3d 1b86 fb3d 756c d0bd
000003c0: 4ad0 0e3e 423a e03d 583f ad3e d0db 8fbc
000003d0: f938 6abd 646c c83c e933 b63c 9a4a 00be
000003e0: 57d6 f7bc 089f 683d 06ef edbc ff73 d0be
000003f0: 7d95 b93d a503 3b3e 3377 a73d 248e 49bd
-0.040533934 0.017101176 -0.009784437 -0.054173075 -0.34403586 -0.075419515 -0.011324376 -0.0043166005
0.020412039 0.012218025 -0.08606692 2.0294585 0.017954217 -0.22556174 0.09050901 0.091331095
-0.023216162 -1.3763809 -0.036700368 0.24601477 0.026497161 0.06492222 -0.0745881 -0.005936653
0.025539596 0.011218415 0.074309535 0.1361021 0.06755372 0.04519938 -0.046087887 0.06963124
0.06029894 -0.0055771535 -0.12734294 -0.3682826 0.10069491 0.0006917722 -0.12146243 0.09688776
-0.05905998 -0.12477684 -0.015053639 -0.17848365 0.04565164 0.031024298 0.027302356 -0.00462605
-0.031061431 0.059378617 -0.44891697 0.08522309 -0.33383977 -0.14957434 0.20327121 0.066955544
0.0047939215 1.0663369 -0.13151851 0.035636745 -0.0025985576 0.07300595 0.16573508 0.09683799
0.14379002 0.002382999 0.05705663 0.037338246 0.037937764 -0.06983794 0.04765409 -0.008930583
0.13733236 0.07654131 -0.008212015 -0.026331166 -0.04496452 0.0021864339 -0.016323 0.0765895
0.019945 -0.12443902 0.22005916 0.14136383 0.021324337 0.01453097 0.07633166 -0.17958102
-0.027280288 0.044809006 -0.008987117 -0.0025508606 0.13300756 -0.16538243 0.04015479 -0.077861115
0.058308348 -0.025143541 0.036542673 0.005321078 -0.005421614 0.034984775 1.0864234e-05 -0.029272217
-0.4054285 0.007050309 0.14116393 0.10800654 0.038319945 -0.0037791845 -0.113514826 0.01407228
0.06161953 5.214695 -0.04642463 0.10645892 -0.013199051 0.0905157 0.027066052 -0.18926722
-0.179958 -0.040048316 0.12685503 0.0549048 0.060608 0.10277203 -0.028593028 0.044749938
0.029137943 0.10117622 -0.0810705 0.045636453 -0.029831016 0.009266154 -0.07430152 0.034739796
-0.051127452 0.0104228845 0.522565 0.1169126 0.10275923 0.07356836 0.0067048324 -0.056417998
0.06706403 -0.04599275 0.06828846 -0.052066546 0.008797711 0.13208993 -0.17041783 -0.12472627
-0.0026092052 -0.03660916 0.059672654 0.1373941 0.045290366 -0.173903 0.041229326 0.11021953
-0.08306735 0.107513346 0.08786688 0.058070216 0.1744527 0.13983518 0.04672158 0.21269038
0.21562473 -0.058357485 0.168135 1.8370059 -0.10466196 -0.115382545 0.062558115 -0.015719606
-0.021069542 0.37326917 0.06917144 0.13331491 -0.016912462 -0.07705863 -0.1252083 -0.15470344
0.15419982 -0.033641323 -0.2271631 0.06406254 0.122598745 -0.046084214 0.10697235 0.114293374
-0.061148234 0.12870355 -0.054065377 0.1040202 -0.123534836 -0.070950255 -0.28450796 -0.18041803
0.14091969 0.0007883938 0.044842202 -0.14219113 0.045338217 0.049753826 -0.1534235 0.016669547
0.1276606 -0.050420996 -0.5631947 -0.022097405 -0.39389786 -0.098723516 0.188307 0.027546516
-0.11006799 0.98135006 0.06051758 0.024789216 0.10429013 -0.052172802 -0.014390422 0.24557143
1.0038784 -0.027858594 -0.11747852 0.17245479 0.019802528 -0.08374968 0.10765438 -0.02894235
0.031361483 -0.04205868 0.008384318 0.05053222 -0.045860372 0.049815964 0.12281438 -0.101769365
0.13946643 0.10948612 0.3383739 -0.01756087 -0.05718324 0.024465747 0.02224155 -0.12528458
-0.030253572 0.05679229 -0.02904464 -0.40713498 0.09061716 0.18263109 0.08177032 -0.04920782

model.3.bias f4 [32]
00000000: 5e8d 2c3e 9b72 a73c ce23 a33e 56bb 483d
00000010: 8188 673e 0b04 443e d53d 163e 083e a7bd
00000020: 1d53 65bf 2de1 7c3e bc36 b93e 9bd4 bf3c
00000030: f1c4 c33e 4df8 b03e 7280 c93e 003c c03e
00000040: 146b d03e 8213 c23e 2ddb 953e bca1 a03e
00000050: b98f dd3e 173d 533e 8286 bf3e 4a36 9b3e
00000060: 216e 223e 4911 843e 1f96 d73e 8967 653e
00000070: 14a5 1b3e 0a6b 853e 430a ad3e 5289 e7bd
0.16850802 0.02044039 0.31863254 0.049006782 0.22610666 0.19142167 0.14672025 -0.081661284
-0.89579946 0.24695273 0.36174572 0.023416808 0.38236192 0.34564438 0.39355808 0.37545776
0.40706694 0.37905508 0.2926878 0.31373394 0.43273714 0.20628773 0.3740731 0.30314857
0.15862323 0.25794438 0.4210672 0.22402777 0.15199691 0.26058227 0.33796892 -0.11305489

model.6.weight f4 [1, 32]
00000000: 4148 993e ed68 a63e 6127 693e c8fc 853f
00000010: 2133 27bf 9438 633e 5096 0abf 85da 98bf
00000020: 0af6 08c0 0d25 8e3e d786 923e 93fd 3d3f
00000030: daed a63e a947 d73e f6d0 11bf 023c 963e
00000040: a4a5 56bf 8728 733e 0974 49bf e0fe 0bbf
00000050: dccc 47bf d818 2a3f a1c4 8a3e 6711 043f
00000060: bb54 35bf 7ed7 9ebf 81d2 663e e776 503e
00000070: 9362 59bf dbf9 9b3e 32be 9c3e cdac 75bf
0.29937938 0.32501927 0.22768928 1.0467768 -0.6531239 0.22189552 -0.5413561 -1.1941687
-2.140017 0.27762643 0.286185 0.7421505 0.3260334 0.4204686 -0.56959474 0.29342657
-0.838465 0.23745929 -0.7869268 -0.54685783 -0.78046966 0.6644416 0.2710314 0.51589054
-0.70832413 -1.2409513 0.22541238 0.20357858 -0.8491604 0.30464062 0.30613858 -0.959668
