bench_model.pth (torch, 152324 bytes, 25 tensors)

model.0.weight f4 [160, 19]
000000 40 2e a1 3f 31 72 3a 3f 16 26 2b bf 6b 86 f5 be
       1.2592239 0.7283049 -0.6685499 -0.47954115
000010 d0 88 39 be 0c 3c 0e 3f 09 34 87 3f 18 99 8b be
       -0.18118596 0.55560374 1.0562755 -0.2726524
000020 c6 29 bb 3d c6 8d fb be d7 62 a2 3e b0 f8 29 3f
       0.09138827 -0.49131602 0.31716034 0.6639509
000030 46 4c 47 c0 9c 1f a4 3f db e0 11 bf 92 8b d0 3d
       -3.1140304 1.2822146 -0.5698373 0.10182871
000040 73 b8 eb 3e 7a 63 9f bf 89 cb 6d bf 64 d6 23 c0
       0.4603916 -1.2452233 -0.92888695 -2.5599604
000050 48 7b 8f bf ec 3a c1 bd 64 0a f1 3c af 52 bc 3f
       -1.1209497 -0.094350666 0.0294239 1.4712733
000060 76 90 92 3f 89 c7 85 3c 55 75 95 3e e1 86 53 be
       1.1450336 0.016330497 0.2919108 -0.20656921
000070 5f d4 f4 3e fe 3b 3e 3e 47 7d 43 bf e0 c8 a5 3f
       0.47818276 0.18577573 -0.76363033 1.2951927
000080 63 99 89 3f 46 9d e3 3d 04 68 27 3f c7 dc 92 bf
       1.0749935 0.11113982 0.6539309 -1.1473626
000090 ee 00 ac 3f f4 3c 98 3f fe 2b 6d 3f cc 51 4f bf
       1.3437784 1.1893601 0.9264525 -0.8098419
0000a0 82 19 0c 3f 14 b3 4b 3f 74 4c 3c 3f fd 5c 41 bf
       0.5472642 0.79570127 0.7355416 -0.75532514
0000b0 ef 6c 1b 3f 15 6d 24 bf 8e de d6 be 1c f3 80 3e
       0.60713094 -0.64228946 -0.4196667 0.25185478
0000c0 ee 32 10 3f 41 fd e2 3e 35 e9 e0 3f a2 38 8c bc
       0.5632771 0.44333842 1.7571169 -0.017116848
0000d0 b1 a9 3e bf 01 ab 13 3f 1f 31 0a 3f 1a 0e 99 3e
       -0.7447768 0.57682806 0.539812 0.2989357
0000e0 46 5c e3 bf c1 82 b4 3e 5d 80 35 c0 54 42 04 3d
       -1.7762535 0.35256007 -2.8359597 0.032289818
0000f0 a0 a7 40 3f 69 ea b6 3d 75 25 d8 bd f9 5c d1 3d
       0.75255775 0.08931429 -0.10554019 0.10222811
000100 04 ec c5 be cf 00 5d bf 22 cb 34 3f 23 0d a9 be
       -0.38656628 -0.8632936 0.70622456 -0.33017835
000110 c7 0e e6 be 76 63 04 40 a0 42 09 bd 6d c8 49 be
       -0.4493315 2.0685706 -0.033510804 -0.19705363
000120 cf 04 c1 be 83 19 d1 be e9 5b 10 3f 00 51 64 bf
       -0.3769898 -0.40839776 0.56390244 -0.89186096
000130 5f a4 16 be a1 4c a4 be d2 59 1f bd 79 b8 a4 bf
       -0.1471114 -0.32089713 -0.03890402 -1.2868797
000140 5e 13 be 3d ed 23 d2 3e 43 41 af be f4 4f 58 bf
       0.09281038 0.41043034 -0.34229478 -0.84497
000150 fe 82 11 be 00 75 71 3f c7 5e db be 98 bb cb 3f
       -0.14210126 0.9431915 -0.42845747 1.5916624
000160 1d 52 34 3f db 75 cf be 82 93 5e 3f 78 cc 18 3f
       0.70437795 -0.40519604 0.8694383 0.59686995
000170 2e 98 25 bf 00 5f 3b 3f 40 70 21 c0 f4 18 a5 3f
       -0.6468533 0.73191833 -2.5224762 1.289824
000180 5e 46 82 3e f6 94 bf 3e da 79 21 3f d2 df 3e 3d
       0.2544431 0.37418336 0.63076556 0.04660017
000190 0e c5 79 bc 30 32 86 bf 59 78 5a 3f 1e c1 f4 3d
       -0.015244735 -1.0484066 0.85339886 0.11950897
0001a0 70 5e a3 be b7 86 0e 3f d4 4b 33 3d b2 dc 82 3f
       -0.31907988 0.5567431 0.043773487 1.0223601
0001b0 33 48 4b bf 02 34 b3 3f 23 4e 5d bf d5 02 6f 3e
       -0.7940704 1.4000247 -0.8644735 0.23340924
0001c0 eb d1 e9 be c1 8d 1a c0 89 cb 9f 3d f8 4e 75 3c
       -0.45667967 -2.414902 0.07802493 0.014972441
0001d0 2c 19 15 bf 28 3b 04 bd fb 4a c6 bc d6 3a ab bc
       -0.58241534 -0.03228298 -0.024205675 -0.020902079
0001e0 29 b8 f5 3b ea b4 3f bc 70 4c 2f 3e f7 d8 d8 bc
       0.0074987602 -0.011700848 0.17119002 -0.026470644
0001f0 30 9c 5d 3c 76 40 d9 c0 41 1c 16 c0 e0 bc de 3d
       0.0135260075 -6.789119 -2.3454745 0.10875869
000200 37 e7 b6 3c b6 7f 02 bd 9f f9 9d 3e 72 d9 39 bb
       0.022327049 -0.031860076 0.30854508 -0.0028358367
000210 91 71 16 3b 07 aa d2 be b2 a0 92 be 8c 30 b3 be
       0.0022955874 -0.41145346 -0.28638226 -0.34997976
000220 d9 01 6f c0 04 f2 9d be 81 c9 b1 be 9a 5f 0f be
       -3.7344878 -0.30848706 -0.34724048 -0.14001313
000230 1c 54 15 3d cc 03 b3 3e 9d d9 11 3e ac 6a e8 bd
       0.036457166 0.34963834 0.14243169 -0.11348471
000240 06 12 7e bc 75 b0 dd 3e 6f ac 61 40 71 db 89 3e
       -0.015507227 0.4329869 3.5261495 0.26925233
000250 62 13 be 3e fa f1 b7 bf 89 3e 05 bf 86 52 cf be
       0.37124163 -1.437072 -0.52048546 -0.40492648
000260 b0 d4 a9 3f 7e a3 ab bf b7 42 fc 3e b5 11 49 3e
       1.3268032 -1.3409269 0.4926965 0.19635661
000270 5a 55 6f 3f d7 6a b4 be 42 15 0b bf f3 1d 12 be
       0.9348961 -0.35237762 -0.5432931 -0.14269237
000280 87 3a 01 3f c6 0b a9 3c 07 07 6b be cd c7 43 3f
       0.5047993 0.020635497 -0.229519 0.76476747
000290 6b b3 02 3f 16 49 e8 3f 70 c0 01 3f 00 1d f1 3c
       0.5105502 1.8147304 0.5068426 0.029432774
0002a0 e2 97 ac 3e 2b 2e bb 3e 7e 21 25 c0 e1 cc 92 be
       0.33709627 0.3655866 -2.5801692 -0.28671935
0002b0 ff 52 10 bf a7 95 9e 3e 59 30 38 be 3f 92 c6 3f
       -0.5637664 0.3097355 -0.17987193 1.5513381
0002c0 f2 e0 24 3d 72 cc 73 3e 08 53 60 be 56 58 85 be
       0.040253587 0.23808458 -0.21906674 -0.26043957
0002d0 39 c4 b0 3e 65 c7 1f 3f 7c ee 07 3f 5c 7e 6a 3f
       0.34524706 0.62413627 0.53098273 0.9159906
0002e0 d4 86 6d be 85 5c 00 bf fc 99 c8 be 2a 6a 8b 3e
       -0.23195964 -0.50141174 -0.3917998 0.27229434
0002f0 90 b5 1f 3f 1f 5a 57 c0 52 26 31 40 8d 0e 5d bf
       0.6238642 -3.3648756 2.767964 -0.8635033
000300 71 1e 24 3e c0 b7 40 3e d4 d2 f8 be dc b0 21 3c
       0.16027237 0.18820095 -0.4859835 0.009868827
000310 a4 cb 0d 3e 56 54 f2 3d 97 51 51 be 8a c8 96 be
       0.13847214 0.11832492 -0.2044128 -0.29449874
000320 2b 72 9b 3e e9 4d c2 be 1b 9f bc 3f fb f8 42 3e
       0.3036054 -0.37950066 1.4736055 0.19040291
000330 79 50 62 3f 69 1f b1 bd 31 89 f8 be c2 a9 49 be
       0.8840404 -0.08648569 -0.4854217 -0.19693664
000340 8b 07 30 40 15 8c 97 bf 5e dd fb bd 59 ec ae be
       2.7504604 -1.1839625 -0.12298082 -0.34164694
000350 af 41 0b c0 4e f4 86 be d1 cb ee be dc 71 33 3d
       -2.175884 -0.26358265 -0.46639875 0.043809757
000360 05 d8 dd 3e 1d e7 c3 bf ee d4 9a 3f b2 71 8c 3f
       0.43328872 -1.5304905 1.2096231 1.0972197
000370 11 7b 02 be 4e 5e af 3e 7f 90 4b bf 12 44 88 be
       -0.12742259 0.34251636 -0.7951736 -0.26614434
000380 28 c3 69 3e 04 f0 f3 3e 4b 15 9d 3e b2 39 08 c0
       0.22828352 0.47644055 0.30680308 -2.1285214
000390 c8 d5 fd 3d 90 2f 4c c0 af 0c ab 3e 63 72 2f 3e
       0.12394291 -3.190403 0.33408114 0.17133479
0003a0 9f 02 30 be 0b 1e 20 be d4 67 0a be b2 7d cd 3c
       -0.171885 -0.1563646 -0.1351617 0.02508435
0003b0 86 de df be c7 51 db 3e 7e 39 04 be d2 0f 81 3e
       -0.4372446 0.4283583 -0.12912557 0.25207382
0003c0 55 9c bd 3f 3e 0e 05 bf e8 1c 13 3f 60 9d 84 3f
       1.4813334 -0.51974857 0.5746598 1.0360527
0003d0 42 fd ab 3e 50 e4 3e 3f 19 d9 b9 bf 50 e4 c9 39
       0.33591658 0.7456713 -1.4519378 0.00038507814
0003e0 87 94 43 3d c2 58 25 3b 5e 91 94 c0 e9 62 22 bf
       0.04774907 0.0025229906 -4.642745 -0.63432175
0003f0 f1 a7 c4 bd 5c 09 f6 bd 71 aa dd be d2 b4 06 bf
       -0.09602345 -0.12013504 -0.432941 -0.5261966

model.0.bias f4 [160]
000000 53 86 b8 b7 a9 45 0f b9 0e 20 4f b7 e6 86 9b 37
       -2.1997059e-05 -0.00013663493 -1.2345625e-05 1.8540257e-05
000010 7b 01 e7 b7 e4 c3 18 b8 d0 8b c0 3a ba 0c 08 ba
       -2.7538035e-05 -3.642206e-05 0.0014690105 -0.00051898847
000020 04 30 26 38 e2 0a 68 b8 05 35 b5 38 a7 f7 d2 b8
       3.9622202e-05 -5.5323246e-05 8.640628e-05 -0.00010059709
000030 58 2b c0 b6 21 a8 04 b9 99 90 a5 b8 be 5d 2b b9
       -5.727092e-06 -0.00012651134 -7.8947465e-05 -0.00016342752
000040 ca cb b6 38 02 39 61 38 da 93 d1 b8 a8 8d c1 b7
       8.716395e-05 5.3697273e-05 -9.993436e-05 -2.3073357e-05
000050 16 24 fb b7 d6 19 f1 b8 dc a9 be b7 d4 6a 81 37
       -2.9938336e-05 -0.00011496588 -2.2728862e-05 1.5427744e-05
000060 4c bd 83 36 47 27 05 b8 08 13 8f b7 52 83 a1 b8
       3.9261413e-06 -3.174625e-05 -1.705579e-05 -7.7015386e-05
000070 7a 4a 8d 39 00 24 ca b8 74 10 bc b8 8b 51 91 b7
       0.00026949105 -9.638816e-05 -8.967603e-05 -1.7323318e-05
000080 6b 6d 42 b8 20 f0 0b b8 46 11 24 39 4a 02 39 b9
       -4.6355108e-05 -3.3363816e-05 0.00015646694 -0.00017643828
000090 60 41 02 b8 b8 70 7c 38 66 12 15 39 2e 5f 06 0b
       -3.10553e-05 6.018646e-05 0.00014216601 2.5879066e-32
0000a0 ec db d7 39 b8 6c d1 37 d8 4b a3 b5 5f 91 31 b9
       0.0004117185 2.4965368e-05 -1.216652e-06 -0.0001693419
0000b0 0b df 1b b9 68 f7 a6 39 ff 5f 93 b7 cd 24 29 b8
       -0.00014865042 0.0003184632 -1.7568467e-05 -4.0327013e-05
0000c0 d0 7d a0 37 ed a7 e2 38 e7 c1 fe 38 d9 72 56 b8
       1.9132072e-05 0.000108077984 0.00012147781 -5.1128536e-05
0000d0 b7 f5 8e b7 c8 09 99 b9 a8 4a f2 b6 12 7a 90 37
       -1.7042139e-05 -0.00029189722 -7.220853e-06 1.7222981e-05
0000e0 db 7e b5 37 d8 fe 01 b8 d0 27 3f b6 46 a2 87 39
       2.1635953e-05 -3.099334e-05 -2.8484392e-06 0.0002587011
0000f0 75 af 2c ba 54 3c a4 38 65 d7 cb 38 4b 14 fc 38
       -0.00065874244 7.8313664e-05 9.719915e-05 0.00012020076
000100 5e b8 57 b9 27 d6 df 38 98 9f d9 b8 b4 d0 20 38
       -0.0002057268 0.000106733576 -0.00010377093 3.8341343e-05
000110 68 40 02 37 d3 99 c6 b8 31 b1 9b b8 a0 a3 2f 38
       7.7636e-06 -9.470028e-05 -7.4239804e-05 4.187564e-05
000120 42 7f 6b 38 14 20 a8 b7 4c 4a 41 b7 4f 5c a4 b8
       5.6146884e-05 -2.0042098e-05 -1.1520995e-05 -7.837323e-05
000130 9a 95 4a 38 94 1b 3d 39 e6 fe d1 b8 58 c8 dc 36
       4.829988e-05 0.00018034718 -0.00010013375 6.579834e-06
000140 1b 73 9d 37 72 9d ba 37 22 53 77 b9 c6 a2 19 b8
       1.8769459e-05 2.2246244e-05 -0.00023586725 -3.6629637e-05
000150 30 d2 b1 36 d0 6f 87 b8 26 5c c5 b8 3a 75 be b8
       5.29948e-06 -6.458128e-05 -9.410856e-05 -9.081741e-05
000160 aa af f6 b8 58 3f e4 34 47 1d 76 ba 12 98 40 39
       -0.00011762914 4.2514398e-07 -0.0009388518 0.00018367197
000170 a2 20 bb 38 5a bf 0f b8 3b 0f a2 37 eb 40 89 b8
       8.922933e-05 -3.4272067e-05 1.9318997e-05 -6.544761e-05
000180 dc 19 79 38 bc bb 9e 38 fc d5 08 b8 78 b5 1a b8
       5.939031e-05 7.568995e-05 -3.2624215e-05 -3.6885467e-05
000190 d5 f0 4a b8 23 d8 1d b9 a0 c8 3c b6 c0 95 6e b5
       -4.8384845e-05 -0.00015053204 -2.8130962e-06 -8.8879824e-07
0001a0 76 02 57 39 f4 3d 43 b8 3a 55 d6 b6 02 58 3b 39
       0.00020504915 -4.654932e-05 -6.3876187e-06 0.00017866495
0001b0 ab b7 03 b9 ec 7c 00 b9 3e c2 fb b8 7c a9 08 38
       -0.00012561555 -0.00012253568 -0.00012004793 3.258277e-05
0001c0 94 26 60 b9 04 2d 88 b7 de 91 01 b8 bc 54 92 b8
       -0.00021376676 -1.6233425e-05 -3.0891846e-05 -6.9776055e-05
0001d0 54 58 1b 38 6d a9 84 39 e0 c6 3d b6 75 82 81 39
       3.703714e-05 0.00025303234 -2.8278955e-06 0.00024701995
0001e0 97 af e5 b7 09 c4 04 38 de ad a4 38 f5 a9 e1 37
       -2.7380693e-05 3.1653824e-05 7.852515e-05 2.6901233e-05
0001f0 dc 93 94 38 ce 1e 33 39 fa 43 f2 37 c6 8f cb b8
       7.084731e-05 0.00017082246 2.8880302e-05 -9.706574e-05
000200 8c 69 07 b9 24 19 ae b8 30 79 e2 b6 5f e7 02 b8
       -0.00012913923 -8.301649e-05 -6.749433e-06 -3.1209896e-05
000210 68 a7 a7 b8 89 e3 92 b8 16 b2 8d 38 36 80 43 b8
       -7.9943624e-05 -7.004204e-05 6.756575e-05 -4.661103e-05
000220 64 45 34 b6 dc 45 c3 b8 a0 73 b7 b7 d0 f6 d6 b8
       -2.686248e-06 -9.311337e-05 -2.1869142e-05 -0.000102502876
000230 6e c1 4a 38 5e 9b aa 37 40 a0 c9 38 a9 2f 07 39
       4.83407e-05 2.0337928e-05 9.614276e-05 0.00012892358
000240 f4 da 3d 38 52 7c 37 b7 6a 12 ff b4 71 15 17 b7
       4.5265027e-05 -1.0936596e-05 -4.751085e-07 -9.005294e-06
000250 ff fb 8c 38 86 f2 4f 38 b6 d9 b3 38 60 50 13 38
       6.722658e-05 4.9578513e-05 8.575937e-05 3.5122386e-05
000260 fe 15 81 b8 47 ec ec 38 e4 e7 70 b8 2e 1e b8 b8
       -6.155296e-05 0.00011297367 -5.7436424e-05 -8.779425e-05
000270 65 29 96 38 da 9e 76 39 a8 89 b7 35 8a fc 08 b8
       7.160268e-05 0.00023519565 1.3674626e-06 -3.2660122e-05

model.1.weight f4 [160]
000000 12 2e eb 3f e8 05 df 3f ce d7 11 3f f4 25 98 3f
       1.8373435 1.7423677 0.56969917 1.1886582
000010 15 21 26 3f e5 f8 3f 3f da e4 17 40 0e 2f 09 40
       0.6489423 0.7498916 2.373343 2.143497
000020 ce ab 18 3f 3b 9c 27 3f 44 03 65 3f 52 09 6b 3f
       0.59637153 0.65472764 0.8945811 0.91811097
000030 e8 ff 9b 3f c5 1c 96 3f 2b 3c b0 3e ac e1 c5 3f
       1.2187471 1.172753 0.34420905 1.5459495
000040 8d 4b 7a 3f 20 c1 f8 3e 38 cf 2e 3f b1 69 84 3f
       0.9777153 0.48584843 0.6828494 1.0344754
000050 91 f5 94 3f e8 93 c4 3f 4a 47 d5 3e eb bb 85 3f
       1.1637441 1.5357637 0.41655952 1.0447973
000060 ec 85 3d 3f cf fe 41 3f 8a 36 b0 3f 6f 2e 19 3f
       0.74032474 0.7577943 1.3766644 0.5983648
000070 2b 30 d7 3f ea 5f 62 3f ce a4 b2 3f 5c ab 72 3f
       1.6811575 0.88427603 1.3956544 0.94792724
000080 16 71 c1 3f d7 57 b6 3f 58 83 e4 3f df 72 44 3f
       1.5112636 1.4245557 1.7852583 0.7673778
000090 78 03 ad 3f 56 e6 0c 3f df cd 94 3f b4 40 c5 8a
       1.3516684 0.55038965 1.1625327 -1.8994749e-32
0000a0 16 7e 0c 40 f8 fe 03 40 a2 89 ff 3e bf 82 9d 3f
       2.1951957 2.062437 0.49909693 1.2305526
0000b0 a8 95 d2 3f e4 0f 76 3f 06 36 73 3f b1 1a a9 3f
       1.6451921 0.96118 0.9500431 1.321127
0000c0 58 da 2d 3f 97 19 6d 3f 66 0e ab 3f cf 8a 2f 3f
       0.6791129 0.9261717 1.3363769 0.6857118
0000d0 c8 ed a1 3f f2 3f bc 3f c3 1c 1a 3f 19 f2 f1 3f
       1.265069 1.4707015 0.60200137 1.8902007
0000e0 79 40 9d 3e 28 88 56 3f 82 06 10 3f e4 2b 55 3f
       0.3071325 0.8380151 0.5625993 0.83270097
0000f0 de 19 1b 40 8a 3b 95 3f 0b 1f 94 3f eb de b8 3f
       2.4234538 1.1658795 1.1571974 1.4443029
000100 11 a5 de 3f 46 18 3f 3f 7e 15 87 3f 19 49 d0 3f
       1.7394124 0.74646413 1.0553434 1.6272308
000110 8e d4 30 3f ab 38 a8 3f 6a e3 dd 3f 4c dc b8 3f
       0.6907433 1.3142294 1.7335026 1.4442229
000120 30 ce a1 3f 38 17 a8 3e 5d e9 8d 3f 35 f1 c9 3f
       1.2641048 0.32830215 1.1086842 1.5776736
000130 37 99 29 3f cb 58 98 3f fe 8d 6c 3f 6b 44 8a 3f
       0.6624941 1.1902097 0.9240416 1.080213
000140 ad f9 cf 3e ee 36 6a 3f 5e 1f c6 3f ce ae 71 3f
       0.40620175 0.91490066 1.5478323 0.94407356
000150 fd b1 b9 3f c1 85 fd 3f 30 f6 c6 3f 0d 7b fe 3f
       1.4507443 1.9806443 1.554388 1.9881302
000160 70 11 99 3f 0d b4 06 3f b2 c8 3a 40 f0 46 8f 3f
       1.1958447 0.52618486 2.9184995 1.1193523
000170 86 ec b9 3f df c1 be 3e 93 33 a0 3f e0 f9 a9 3f
       1.4525306 0.37257287 1.2515739 1.3279381
000180 70 cd ae 3f ca 35 a2 3f 36 39 2a 3f c1 2f d2 3e
       1.3656445 1.2672665 0.66493547 0.41052058
000190 91 cf 48 3f 85 6f e8 3f 95 49 dd 3f c8 e9 67 3f
       0.7844172 1.8159033 1.728808 0.90591097
0001a0 0e a6 cc 3f 7b 23 9b 3f c1 9b 85 3f 56 7a 83 3f
       1.5988176 1.2120203 1.0438157 1.0271709
0001b0 19 28 82 3f 67 9a 2b 3f b0 7a a4 3f 91 e1 b1 3f
       1.0168487 0.67032474 1.2849941 1.3896962
0001c0 1b 72 cf 3f af 92 77 3f ef c8 f4 3e c2 d5 a9 3f
       1.6206697 0.96708196 0.4780955 1.3268359
0001d0 cb 1a ac 3f 6b 27 ba 3f 88 f9 cb 3f 6a cb cc 3f
       1.3445677 1.454328 1.5935526 1.5999577
0001e0 77 21 87 3f e6 4c 0f 3f 00 6f 67 3f fb 91 97 3f
       1.0557088 0.5597671 0.9040375 1.1841425
0001f0 f3 dc 20 3f 48 ee 85 3f 43 b4 b5 3f ec d0 82 3f
       0.6283714 1.0463343 1.4195637 1.0220008
000200 d6 8f ee 3f 68 7d a9 3f 48 91 c8 3e 6f 32 a5 3f
       1.8637645 1.3241396 0.3917334 1.2906016
000210 86 22 35 3f 0d 41 6d 3f 50 d6 8c 3f 0d b8 c0 3f
       0.70755804 0.92677385 1.1002903 1.5056168
000220 29 03 23 3f 86 1a 28 3f 1c f7 70 3f 25 3e 6b 3f
       0.63676697 0.6566547 0.9412706 0.918917
000230 4c 55 7f 3f 98 2e f4 3f 71 f7 6e 3f 07 71 e1 3e
       0.9973953 1.9076719 0.93346316 0.44031546
000240 63 f1 92 3f ee 1e 1b 3f 96 5c 40 3e d1 a5 1b 3f
       1.1479915 0.6059407 0.18785319 0.6079989
000250 6b a6 69 3f d2 ed 91 3f 6a 1b c0 3f da 9d 0d 3f
       0.9126956 1.1400702 1.5008366 0.5531899
000260 a4 85 be 3f 16 18 ae 3f 98 ed bb 3f 4b 08 7c 3f
       1.4884534 1.36011 1.4681883 0.98450154
000270 d5 f0 87 3f 03 67 0a 3f ab 38 a3 3f a8 8f cf 3f
       1.0620371 0.54063433 1.2751669 1.6215715

model.1.bias f4 [160]
000000 e8 82 67 c0 1f 16 19 c0 9c 0d 93 be 4a 92 8b bf
       -3.617365 -2.3919752 -0.2872132 -1.0904019
000010 a4 0a 25 3e 22 90 12 bf 74 1a f8 bf f3 34 47 bf
       0.1611734 -0.5725118 -1.9383073 -0.7781517
000020 da bf 73 be 7a 16 e5 bd ba 3d 7d be 21 19 22 bc
       -0.23803654 -0.11185928 -0.24730578 -0.0098936865
000030 f0 3b d6 bf a1 0f a1 be 50 cb 4a 3d 8a 5c b1 bf
       -1.6737041 -0.31457236 0.0495103 -1.3856366
000040 70 4a 66 bf 64 28 87 3d a4 32 b4 be 18 e9 ec be
       -0.8995733 0.06599501 -0.35194886 -0.46271586
000050 77 59 e1 bf c6 64 bb be 6a 8e 2c 3d 21 aa 8a be
       -1.7605428 -0.36600322 0.042128004 -0.27082923
000060 4a 24 5c be d9 0b 15 bf 10 8f 58 bf 09 80 db 3d
       -0.21498218 -0.58221203 -0.84593296 0.1071778
000070 27 5a 08 c0 e3 63 80 3c 92 f1 fa bf 34 ee fc be
       -2.1305025 0.01567263 -1.9604971 -0.49400485
000080 f2 56 08 c0 67 43 a1 bf c7 5a 07 bf fd f1 a7 bd
       -2.1303067 -1.2598695 -0.5287289 -0.082004525
000090 f4 77 ba bf bd c6 74 be 31 34 02 bd 7e 90 35 b5
       -1.4567857 -0.23903938 -0.031788055 -6.763802e-07
0000a0 70 f3 e8 bf 21 fd f7 bf 7c 6e e0 bf c2 df 66 bf
       -1.8199291 -1.9374124 -1.7533717 -0.9018518
0000b0 b1 95 e6 bf c8 db 3a be 33 12 10 bf 08 79 9d bf
       -1.8014432 -0.18247902 -0.5627777 -1.2302561
0000c0 6e 77 bf be c4 45 1d bf 25 78 9a bf 38 f5 c2 be
       -0.37395805 -0.6143458 -1.2067915 -0.38077712
0000d0 d2 9e 8c bf a4 0d 16 bf 23 4e e8 bd 8e ec 06 c0
       -1.0985968 -0.58614564 -0.113430284 -2.1081882
0000e0 8e 5d e3 be 1f 25 64 bf 1d 7f 73 3e fb 1c e2 be
       -0.44407314 -0.8911914 0.23778959 -0.44162735
0000f0 7f 01 04 c0 d2 48 16 c0 35 d9 e1 bf ff 8b 9b bf
       -2.0625913 -2.3481946 -1.7644411 -1.2152098
000100 c3 13 b4 bf 00 76 c0 be 17 00 b2 bf 57 3d 09 c0
       -1.4068531 -0.37590027 -1.3906277 -2.144369
000110 84 0b ce bd 35 24 99 bf ba 41 0a c0 7a 74 a7 bf
       -0.1006079 -1.1964175 -2.1602616 -1.3082421
000120 f5 56 d3 bf 61 99 e3 3b 52 d2 c2 bf a8 95 5e bf
       -1.6510912 0.0069457744 -1.5220435 -0.8694711
000130 df 0f c1 be 90 c6 b4 bf b8 bb 00 bf 5c d2 31 be
       -0.3770742 -1.4123096 -0.50286436 -0.17365402
000140 50 21 3f bf 3d 3f b2 bd 26 a0 ef 3a bc 19 0c bf
       -0.74660206 -0.08703468 0.0018281981 -0.5472677
000150 69 a8 38 bf fb cd e9 bf d0 4a 57 bf ce 1c 65 bf
       -0.72131974 -1.8265985 -0.8409853 -0.8949708
000160 47 8f 16 bf c3 73 9e be f9 4b 16 c0 81 7d 60 be
       -0.58812374 -0.30947694 -2.348387 -0.21922876
000170 de f2 ca bf e8 9d 30 be 5f 6b 8a bf 74 a4 14 bf
       -1.5855367 -0.17247736 -1.0814017 -0.58063436
000180 25 79 ce be 81 22 20 bf 24 18 1a be a6 df 20 3d
       -0.403268 -0.6255265 -0.15048271 0.039275788
000190 79 69 12 bf b0 a4 50 bf db 6b 13 c0 38 05 15 bf
       -0.5719219 -0.81501293 -2.303458 -0.5821109
0001a0 1c c6 da bf d1 e6 b8 bf ad 17 f3 bf 59 54 21 bf
       -1.7091708 -1.444544 -1.89916 -0.6301933
0001b0 3c 9d e9 be 92 8b 82 bc 5c 1c a3 bf f4 38 b7 bf
       -0.45627773 -0.015935693 -1.274303 -1.4314256
0001c0 8d a9 99 bf 32 83 2f bf 68 32 e2 be 3a 9f 68 bf
       -1.2004868 -0.68559563 -0.44179082 -0.9086796
0001d0 61 3e b4 bf 19 9a b6 bf 26 57 35 c0 8e 2b 94 bf
       -1.4081537 -1.4265777 -2.833444 -1.1575792
0001e0 95 7f d6 bf b9 1b aa be 86 e2 34 bf 81 e4 87 3d
       -1.6757685 -0.33224276 -0.7065815 0.066353805
0001f0 46 15 f2 bd d1 35 e4 bf a0 3d 9f bf 47 c2 28 3d
       -0.11820464 -1.7828923 -1.2440681 0.041200902
000200 93 0c 26 c0 e8 4b 53 bf 0a 94 fa 3c cc 3e 8a bf
       -2.5945175 -0.825377 0.030588169 -1.0800414
000210 a5 cb 40 be 1b 66 9f bf 90 b3 6c bf 10 3a 98 bf
       -0.18827684 -1.2453035 -0.9246149 -1.1892719
000220 c7 08 2f be 4e de 55 bd 8a b4 c8 bb 69 2e 74 bf
       -0.17093192 -0.05221396 -0.0061250376 -0.95383316
000230 70 65 bf be b1 48 bd be bb a9 32 bf 65 4d 8a bc
       -0.37382078 -0.36969522 -0.6979024 -0.016882608
000240 ab ec 31 bf 41 39 9e 3c e0 f4 19 bf 53 83 18 3e
       -0.6950175 0.01931441 -0.60139275 0.14893846
000250 bf 72 21 bf 5f 10 98 bf 5b ca a8 bd de f4 ca 3c
       -0.63065714 -1.1879996 -0.08241721 0.024774965
000260 fb 8a f9 be d7 55 bc be 66 02 36 bf 03 35 87 bf
       -0.48738846 -0.3678424 -0.7109741 -1.0563053
000270 01 f5 3e bf db b1 10 be 1d eb aa bf 8c bb c2 bf
       -0.74592596 -0.14130346 -1.3353001 -1.5213485

model.1.running_mean f4 [160]
000000 3d 33 09 3d 22 0e 87 bc cd a4 4a bd 54 68 2c bd
       0.03349613 -0.016486231 -0.049473573 -0.042091683
000010 77 87 e3 3c f4 59 1a bd a3 57 84 bd 67 ab 45 3d
       0.027774556 -0.037683442 -0.06462028 0.048259165
000020 af f8 4c bd 5f 73 60 bd e4 32 5a 3b ab a0 de 3c
       -0.05004185 -0.054797526 0.0033294493 0.027176222
000030 59 ee 2a bc 74 7b 60 3d 62 38 44 3d c2 62 7f 3d
       -0.010432803 0.054805234 0.047905333 0.062350042
000040 9b 62 30 bd ba d9 2e bb b8 da 4f bb 94 6b 68 3d
       -0.043062788 -0.0026680068 -0.003171606 0.05674322
000050 a1 95 a6 3c 4b d2 90 3d aa 94 b6 3c 72 de 0b bd
       0.02033502 0.0707136 0.022287685 -0.034147687
000060 fa 94 e6 3b 37 63 c1 3c 31 23 83 3d ff fa 1f 3d
       0.0070368024 0.02360688 0.064031966 0.039057728
000070 68 eb 8e bc 08 69 2d 3d 1b 67 95 bb 33 2d f5 3b
       -0.017446235 0.042336494 -0.0045594103 0.007482195
000080 64 11 02 3d 08 17 2c 3d f6 98 8f 3d 95 a2 07 bd
       0.031754866 0.04201415 0.07011597 -0.033114035
000090 4c 6b 8b 3d 08 0f c2 3c bc 26 6a 3d 30 a0 f9 07
       0.06807575 0.023688808 0.057165846 3.7559506e-34
0000a0 82 96 7b bd be bf fd ba 97 09 5b bc 8a d8 a1 bc
       -0.061422832 -0.0019359512 -0.013368986 -0.019756574
0000b0 ae f7 44 3d 40 87 7d ba 66 f9 8e 3b f1 03 1f bd
       0.04808777 -0.0009671338 0.0043632267 -0.03882212
0000c0 99 b1 6e bd 9c d4 46 3d 15 fb 1d 3d 5e b6 89 bd
       -0.05827484 0.048542604 0.03856953 -0.06724237
0000d0 21 00 f2 bc 2c 2f 55 bc 36 06 f3 3c b6 65 d8 3c
       -0.029541077 -0.013011735 0.029666048 0.026415687
0000e0 0c 9e 68 bd 16 4c 54 bd d6 f0 70 3c 07 29 18 bd
       -0.05679135 -0.051830374 0.014705857 -0.0371485
0000f0 26 52 83 bd e4 b0 0d bd 90 1f 69 bd ec b2 5b 3d
       -0.06412153 -0.034592524 -0.056914866 0.05363743
000100 98 46 61 3d 78 81 48 bb 2c 2e 05 bc 00 ff 96 b7
       0.054998964 -0.0030594748 -0.008128684 -1.8000137e-05
000110 58 a1 71 3b 34 ed 74 3d b0 98 22 bc 97 29 a6 3d
       0.003686985 0.059796527 -0.009924099 0.081134014
000120 58 67 9d 3d db e5 89 3b 93 fd 98 3c 2c d2 23 bd
       0.07685727 0.004208309 0.018675601 -0.039995357
000130 52 2a b9 bc 67 ca 46 bd 4c cc 3e bd 60 98 4f 3d
       -0.022603188 -0.04853287 -0.04658155 0.050682425
000140 b2 16 e6 bc cb e3 93 3d bb 17 33 bc ae 1a 2a 3c
       -0.028086994 0.072211824 -0.010930951 0.0103823375
000150 04 b7 16 3d 98 36 76 bd c3 d4 8c 3d 94 30 97 3d
       0.03679563 -0.06011066 0.068765186 0.073823124
000160 24 64 91 bb ea 12 43 bd 46 8e 8c bd d0 94 6b 3d
       -0.0044369865 -0.04762546 -0.06863074 0.057514966
000170 ad 7a 86 3c 3e 6b c0 bb b4 2b 20 3b 7d bf 4b 3d
       0.016415918 -0.0058721593 0.0024440112 0.049743164
000180 f2 54 7a 3d c4 c0 ac 3d 68 69 e1 3b 90 e6 1f bd
       0.061116166 0.084352046 0.0068790205 -0.03903824
000190 53 6f dd ba 0c b1 7b 3d a8 13 44 3c 86 7d 9c bc
       -0.0016894139 0.061448142 0.011967577 -0.019102823
0001a0 cf a3 04 3d 94 28 99 3c 1b a4 a7 bd 22 3f 2e 3d
       0.032382783 0.018696107 -0.081855975 0.042540677
0001b0 2a 7a 4e bd 5c a0 47 3d 55 ef 65 3c 79 9c 17 bc
       -0.050409473 0.048736915 0.014034112 -0.009253615
0001c0 1c 6d a9 3d 9a 9a c4 bc 51 ef 27 3c 36 88 dd 3c
       0.08272764 -0.023999501 0.010249929 0.02704249
0001d0 ab 81 bf bc 62 52 fb 3c 53 76 a7 3c 04 04 47 bd
       -0.02337726 0.030678932 0.020442164 -0.048587814
0001e0 f9 d2 66 bd 68 15 13 3d a2 3f 8d bb 98 2a b4 3b
       -0.056353543 0.035909086 -0.004310564 0.0054982416
0001f0 2e 12 4f 3d 58 85 59 bd 76 36 12 3d 54 52 e9 3c
       0.050554447 -0.053105682 0.03569647 0.02848164
000200 2e a4 27 3d c6 79 ea 3c b8 21 3b 3d b8 3e 66 3d
       0.04092806 0.02862252 0.045686454 0.056212157
000210 04 a0 a7 3c 0c 30 7d bd f2 96 80 bd 0e 39 4d 3d
       0.020462044 -0.0618134 -0.062787905 0.05010324
000220 24 b1 41 3d 20 1c 03 bd 66 bf 7a bc 16 37 b6 bd
       0.047288075 -0.032009244 -0.015304422 -0.088972256
000230 ba 13 2c 3d 26 d4 1e 3d b2 f4 57 bd 31 44 d8 bc
       0.042011 0.03877654 -0.052723594 -0.026399704
000240 20 2d 42 ba 98 fc 81 3b f9 5b e9 3c b0 75 d2 3c
       -0.0007407237 0.003966879 0.028486239 0.025690883
000250 90 56 32 3c e2 70 b9 bc 20 9c 74 3d 4e dc 90 3c
       0.010884896 -0.022636835 0.059719205 0.017683174
000260 74 16 f5 bb eb 6a 4e 3d 8c 02 09 3d 68 a1 8b bd
       -0.0074794833 0.050394934 0.033449695 -0.06817895
000270 30 d3 0c 3d 0c 71 47 3c 5a 11 a8 3c e8 1d 0f bd
       0.03438109 0.012172949 0.020516086 -0.03494063

model.1.running_var f4 [160]
000000 2b 82 25 41 79 7b 54 41 e5 32 61 41 80 1a 02 41
       10.344279 13.280145 14.074925 8.13147
000010 dd 88 74 41 93 9f 88 41 2e 78 5b 42 be 39 b4 41
       15.283414 17.077917 54.867363 22.528194
000020 b7 7e 9f 41 ae 02 8f 41 b3 49 ac 41 3f 98 87 41
       19.936872 17.876308 21.535986 16.949339
000030 ea 0b 34 41 7c 59 c8 41 a6 52 5c 41 7e d7 01 42
       11.252909 25.043694 13.770178 32.46044
000040 62 8c a0 41 33 20 71 41 fe af 8f 41 aa 81 6c 41
       20.068546 15.070361 17.960934 14.781656
000050 d4 46 1a 41 76 14 ab 41 ed 64 46 41 aa b8 9c 41
       9.642292 21.38499 12.39964 19.590168
000060 6d cd 69 41 54 c1 64 41 9e 8e 96 41 08 e9 8e 41
       14.612653 14.297199 18.819637 17.863785
000070 97 01 a7 41 aa 28 7d 41 35 0c 39 41 94 f8 7e 41
       20.875776 15.822428 11.56548 15.935688
000080 1d f0 8b 41 01 66 c7 41 6a 58 07 42 0c 01 8d 41
       17.492243 24.924807 33.83634 17.625511
000090 00 cb 89 41 3f 72 49 41 6c 4a d7 41 00 00 00 00
       17.224121 12.590392 26.911339 0.0
0000a0 60 3f 55 42 87 fc 60 41 ea 3a ab 40 52 11 41 41
       53.31189 14.061652 5.3509417 12.066729
0000b0 cb 32 96 41 bc 55 82 41 86 c5 8e 41 f9 25 ab 41
       18.774801 16.291862 17.846447 21.393541
0000c0 e4 b6 5c 41 ca 4f 9a 41 da c1 da 41 46 8c 4c 41
       13.794651 19.28896 27.344654 12.784246
0000d0 fb 72 4b 41 19 f9 5a 41 76 5f 6c 41 24 26 06 42
       12.715571 13.685815 14.773306 33.537247
0000e0 12 c7 08 41 a8 9d 5a 41 4c fc aa 41 38 78 a7 41
       8.548601 13.66349 21.373192 20.9337
0000f0 55 14 59 42 32 aa 45 41 dc 17 6b 41 98 58 b7 41
       54.269855 12.354052 14.693325 22.918259
000100 04 eb 07 42 f4 58 98 41 c9 95 61 41 15 72 96 41
       33.979507 19.043434 14.099069 18.805704
000110 73 73 8c 41 3f e4 b5 41 4f 0c b3 41 41 dd a2 41
       17.556372 22.736448 22.38101 20.358034
000120 25 18 72 41 49 d3 86 41 82 d4 55 41 35 de 4f 41
       15.130895 16.853167 13.364382 12.99175
000130 31 72 10 41 44 1d 5e 41 e0 d0 61 41 6e 49 a4 41
       9.027879 13.882145 14.113495 20.535854
000140 92 75 35 41 73 c4 cc 41 d6 f1 91 41 cb 9f b6 41
       11.341204 25.595922 18.243084 22.828024
000150 bd 58 87 41 6f 04 30 42 6b cf e9 41 be 80 10 42
       16.91833 44.00433 29.226278 36.125725
000160 d8 63 88 41 f9 b4 40 41 00 3f 81 42 65 6b 9c 41
       17.048752 12.044183 64.62305 19.552439
000170 39 da be 41 19 0f 3c 41 08 8a 74 41 cf a2 a7 41
       23.856554 11.753686 15.283699 20.954496
000180 f3 25 9f 41 9e 66 86 41 a3 e3 68 41 f9 c4 03 41
       19.89353 16.800106 14.555575 8.235589
000190 36 32 73 41 a9 41 07 42 07 a3 f0 41 aa 06 ba 41
       15.199759 33.81412 30.079603 23.253254
0001a0 e1 48 31 41 93 5a a3 41 92 ee bc 41 3e 0b 60 41
       11.080293 20.419226 23.61649 14.002745
0001b0 44 16 36 41 8d 53 79 41 2c 46 96 40 36 4f 6e 41
       11.380436 15.582898 4.696066 14.894339
0001c0 48 96 82 41 fc 1a 46 41 52 e3 55 41 42 e8 78 41
       16.32338 12.381588 13.367998 15.556704
0001d0 6e a7 ce 41 d0 d6 21 41 ba 96 15 41 45 ea 12 42
       25.831753 10.114944 9.3492985 36.72878
0001e0 c2 86 9a 41 43 2f 6f 41 66 60 53 41 f7 06 78 41
       19.3158 14.9490385 13.211035 15.5017
0001f0 02 0c 87 41 6a 19 3f 41 ba d8 5d 41 31 f7 6c 41
       16.880863 11.943705 13.865412 14.810349
000200 d7 4b a3 41 fe ca 0c 41 15 13 51 41 ad ba d7 41
       20.412031 8.799559 13.067159 26.96615
000210 bc 8e 63 41 e1 fe 18 41 55 ff 19 41 e0 e0 96 41
       14.222347 9.562226 9.624837 18.859802
000220 80 99 75 41 ce bf 6a 41 4f eb 85 41 b1 40 cf 41
       15.349976 14.671827 16.739897 25.906588
000230 83 cb 92 41 31 91 bd 41 90 f7 42 41 4f fc 16 41
       18.349371 23.695894 12.18544 9.436599
000240 29 b5 82 41 6e 64 35 41 d8 97 6a 40 bd da ae 41
       16.338457 11.337019 3.6655178 21.856806
000250 51 99 80 41 2b ac 24 41 08 d3 99 41 3b 6f 67 41
       16.074862 10.292033 19.228043 14.464656
000260 26 37 64 41 4f fb ac 41 6d 1d 59 41 d0 54 39 41
       14.263464 21.62271 13.569684 11.583206
000270 04 4b 75 41 8b 50 4b 41 90 b5 c4 41 09 4b 99 41
       15.330814 12.707164 24.588654 19.161638

model.4.weight f4 [128, 160]
000000 1e 2e 86 bf 3b 23 66 be 82 c3 20 3f a7 ac e4 3e
       -1.0482824 -0.22474377 0.6279832 0.44662973
000010 91 bf 88 3f 22 82 22 3f 21 ff 75 be 2f 8d 03 be
       1.0683461 0.63479817 -0.24023105 -0.12846826
000020 fa fb c6 3d a9 7a f6 bd 53 bf 61 3f f4 11 06 3d
       0.097160295 -0.12035114 0.8818256 0.032731965
000030 38 de 5d 3f 99 0d db bd 62 a7 a3 3e 68 5d 5c be
       0.86667204 -0.10695953 0.3196364 -0.21520007
000040 df cd 6d 3e d0 d5 79 3d 87 f2 3e 3f a4 94 07 3e
       0.23223065 0.060994923 0.7458882 0.13240296
000050 07 d3 11 bf 41 15 10 bf 71 b2 48 bf ed b2 41 bf
       -0.5696263 -0.5628243 -0.7839728 -0.75663644
000060 53 dd 80 bf 7e 9a 1e 3e 41 8c c5 be 08 f9 30 3f
       -1.0067543 0.15488622 -0.38583568 0.6912999
000070 b3 6c 7c bf f2 e5 2f 3e b7 93 80 3f 73 25 3e be
       -0.9860336 0.17177561 1.0045079 -0.18568973
000080 2a 27 42 bd c0 fc 50 bf da 20 01 bf 53 9e 43 bf
       -0.04740063 -0.81635666 -0.5044075 -0.7641346
000090 13 af 9f be b4 d5 b3 bd e9 7f a5 be 74 90 d5 b3
       -0.3118826 -0.08780995 -0.3232415 -9.944861e-08
0000a0 41 fc 2d 3c 76 48 03 3f 2d e3 25 3f 7a c5 60 bf
       0.010619224 0.5128244 0.6479977 -0.87801325
0000b0 68 a1 4a bf c5 99 8d 3d 79 0a 48 3f a7 2b 18 bc
       -0.79152536 0.06914095 0.7814098 -0.009287751
0000c0 5c 87 13 3b 41 d0 26 be 79 ab 75 bf 10 8f 19 be
       0.00225111 -0.1629038 -0.9596477 -0.1499598
0000d0 1f e9 b2 3e 08 c2 72 be 74 c8 39 3f 1b cc b7 bf
       0.34943482 -0.2370683 0.7257149 -1.4359163
0000e0 4b c6 b0 3e ff dd ee 3e da 2b 23 3f 5b 9b c8 be
       0.34526286 0.46653745 0.6373879 -0.39181027
0000f0 be 62 df bd 85 65 0f 3f 1a 9f 07 3f 28 8f 14 bf
       -0.109075055 0.5601428 0.52977145 -0.5803094
000100 4a 27 02 bf ba ea fb 3e 64 30 c7 bd 4c 0b cb be
       -0.508412 0.4920252 -0.09726027 -0.39657056
000110 74 5e c9 39 a6 06 09 bf 22 51 9e be 5a 97 a0 3e
       0.0003840808 -0.5352577 -0.30921274 0.31365472
000120 64 78 f8 bc 30 b1 4d 3d 53 5a fa bc bf b1 f0 bc
       -0.030330844 0.050217807 -0.030560648 -0.029381631
000130 c3 35 98 3d b0 bd 69 bc 19 f1 3c bf 96 f6 be 3e
       0.07432129 -0.014266416 -0.73805386 0.37297505
000140 9c 65 16 3f 72 ed 53 be 94 49 51 bd 3c ab 1b 3f
       0.58748794 -0.20696047 -0.05109556 0.6080816
000150 96 1c 83 bf fa 79 da be d8 31 50 bf e1 2a 1d 3d
       -1.0243099 -0.42671186 -0.81326056 0.03837097
000160 79 3b 84 bf 63 d5 97 3e a3 43 9c bd 14 85 1c 3f
       -1.033065 0.2965499 -0.07630088 0.6114056
000170 99 17 9c bc 66 73 59 bf e8 ff 40 bd 39 54 7f be
       -0.019054221 -0.8494171 -0.04711905 -0.24934472
000180 b0 92 06 bf 9e 40 3e bf e0 6d cb 3c 30 2e ae 3e
       -0.5256758 -0.7431735 0.024832666 0.34019613
000190 aa 43 7b bf 0e 8b 4e bf 86 e4 90 bf 37 a2 74 bc
       -0.9815012 -0.8068093 -1.131974 -0.014931253
0001a0 0b 54 18 3f 5c 38 99 39 0f 7f 01 3f f9 5e 5e bf
       0.5950324 0.00029224425 0.505845 -0.86863667
0001b0 51 da 1e 3f 72 2a 56 bf 3a 4e 32 bf 0d f3 2d bf
       0.62051874 -0.83658516 -0.69650614 -0.6794899
0001c0 04 e8 ff 3c 58 fe ce 3e 5e a4 b8 be dc 93 d1 bf
       0.031238563 0.40428424 -0.36062902 -1.6373248
0001d0 37 ae 91 be 1d b4 12 bf 47 bd 28 be a9 eb 51 3d
       -0.28453228 -0.5730608 -0.16478454 0.051250134
0001e0 46 1d 75 3e 43 f6 d6 3e 5f ee 90 3e e4 a8 04 3f
       0.23936948 0.41984758 0.28306863 0.51820207
0001f0 b2 e3 d2 3c 68 69 78 3f 71 4d 81 bf b1 e7 24 3e
       0.02574334 0.9703584 -1.0101758 0.16104008
000200 01 7d a9 bf fb 2d 22 bf 3f 20 8a 3e bd 61 e7 be
       -1.3241273 -0.6335141 0.26977727 -0.45191756
000210 0b b5 3a bf 77 c6 4d 3f 1b 7b 53 3e 24 68 3d bf
       -0.729325 0.8038096 0.2065243 -0.7398703
000220 5f c6 2a be 27 e7 54 3f e5 b4 4c be 92 98 f9 3e
       -0.16677235 0.8316521 -0.19990881 0.48749214
000230 d8 5e 99 be 97 92 e6 bf 16 45 a7 3e 0d 6c ac 3d
       -0.29955173 -1.8013486 0.32669896 0.084190466
000240 a4 a4 62 3e b6 45 0c bf e3 62 1e 3e 7b 92 c6 bd
       0.22133118 -0.5479387 0.1546741 -0.09695908
000250 21 ab ee be bb f7 1b bf 2d 76 09 bd c4 37 84 3f
       -0.46614936 -0.6092488 -0.033559967 1.0329518
000260 ee 56 3a bf bd 1b 3c bf ee d3 13 bf da 3a 9c 3f
       -0.72788894 -0.73479825 -0.57745254 1.220546
000270 fd 3a 58 be a4 cb 1b be 8e 9b a4 bf 47 bd b1 be
       -0.21116252 -0.15214401 -1.2859972 -0.3471472
000280 e4 a1 c5 3c ad d2 b8 be 3c 69 80 bf 88 ab 3b bc
       0.024125047 -0.36098233 -1.0032115 -0.01145447
000290 40 ea 3d bf 39 52 a1 3d d2 c7 8f 3f 78 7f 3f bf
       -0.7418556 0.07877011 1.1232855 -0.74803877
0002a0 e9 00 dd be 05 42 9d be d6 c1 95 3e 6a 9b fb 3c
       -0.43164757 -0.3071443 0.29249448 0.030713756
0002b0 40 a3 a5 3d fa ee 26 be bc 1a 84 3a d8 e3 86 3f
       0.08087778 -0.163021 0.0010078768 1.0538282
0002c0 c0 03 31 bf 1d 0f 8c 3e 34 40 a3 be d8 eb 4e bf
       -0.6914635 0.2735528 -0.3188492 -0.8082862
0002d0 96 59 82 be 6c 7c e7 bc 17 ed 50 3e 3a 86 4d bf
       -0.25458974 -0.028257571 0.20402943 -0.8028294
0002e0 90 cc 8d 3d 4e 4b c7 3e 66 df 84 be b8 fa db 3d
       0.06923783 0.3892464 -0.2595169 0.1074118
0002f0 00 8d ce 3e ff b4 b8 bd ec ea 9b 3e bc a9 7e bb
       0.4034195 -0.09018897 0.3045267 -0.0038858494
000300 38 9d 37 bf d9 43 16 3f f5 b7 36 be 20 53 da 3d
       -0.7172427 0.5869728 -0.17843612 0.10660386
000310 54 8d 03 be 98 b4 00 3f 5f 3c 1a bf b1 78 17 35
       -0.12846881 0.50275564 -0.6024837 5.642751e-07
000320 5d 30 55 3f bb 13 8f 3e 61 a7 ce bd 7e a1 f5 be
       0.8327692 0.2794474 -0.10090519 -0.4797477
000330 13 59 87 be 4c 11 cc be 8e fc 59 3e 92 e8 53 3f
       -0.26435146 -0.39856946 0.21287748 0.8277675
000340 6f f9 0a bf c7 b3 e2 be 5f 76 41 3e d8 12 3d bf
       -0.54286855 -0.44277784 0.18892811 -0.7385688
000350 57 4d 71 bf cb a5 6d be d1 c5 b0 3e ec f2 fa be
       -0.94258636 -0.23207776 0.34525922 -0.4901346
000360 11 54 a3 be 3a b5 57 be fe 6e 8d 3e 8c cf bf 3e
       -0.31900075 -0.21065226 0.27623743 0.37463033
000370 6d 2c 69 3f 51 99 16 3e 24 ec cc 3e 33 f9 83 bd
       0.91083413 0.14706923 0.4002391 -0.06444015
000380 57 fa c2 3e af 39 66 3d 36 77 27 bf c3 68 a9 be
       0.3808162 0.056207355 -0.65416276 -0.3308774
000390 c6 18 75 3e 77 27 cc be fd 60 23 3e 4e 5b 9e 3e
       0.23935232 -0.3987386 0.15954967 0.30929035
0003a0 ec c7 7e bc 65 5d 3e bf 95 19 03 3f 23 ec 2a 3e
       -0.015550595 -0.7436126 0.5121091 0.16691642
0003b0 f6 78 55 bf a2 af 2c be 24 64 e7 bd da be 76 bf
       -0.83387697 -0.16863874 -0.11298397 -0.96384966
0003c0 ed 5a 5e 3d 60 de 4f bd 0a 8b 8a bf 85 b1 67 bf
       0.054285932 -0.050749183 -1.0823681 -0.9050525
0003d0 8f 89 32 be 66 f7 3b 3f 10 d9 c5 bd 2a 51 c9 be
       -0.17435287 0.73424375 -0.09660542 -0.39319736
0003e0 2a 27 8a bc 7a 4e 86 be b6 f0 1e be fe 5f 4f 3c
       -0.016864378 -0.26231748 -0.15521511 0.012657164
0003f0 e7 d8 4b 3e 9c 54 8a bc 71 4d 00 bf 3d 51 02 bf
       0.1990696 -0.016886048 -0.50118166 -0.5090521

model.4.bias f4 [128]
000000 58 43 92 38 9e ca 9d 38 26 8e fa b7 72 03 95 36
       6.974366e-05 7.524084e-05 -2.9868515e-05 4.440947e-06
000010 50 0f 8b b7 f9 67 5b 38 f5 aa 2f b7 0a 71 c8 b8
       -1.6577222e-05 5.23105e-05 -1.0470617e-05 -9.557798e-05
000020 08 52 e4 a8 89 98 58 38 73 c7 73 b8 58 87 25 b7
       -2.534866e-14 5.1640473e-05 -5.8121466e-05 -9.866279e-06
000030 80 89 a9 37 74 ef 42 b7 8c c2 bb 37 b4 d4 e0 27
       2.0210398e-05 -1.1619053e-05 2.238273e-05 6.2403103e-15
000040 60 d6 2e 38 50 2a 8d 37 89 72 cc b6 ca ac 29 b8
       4.1684485e-05 1.6828213e-05 -6.0930074e-06 -4.0453662e-05
000050 c5 14 90 b9 3d 85 8d 38 31 54 ce b8 f4 01 fc 37
       -0.00027481295 6.7482215e-05 -9.838527e-05 3.004165e-05
000060 e0 c2 b8 35 38 2a 67 38 cc aa 0c 39 38 88 ef 35
       1.3765784e-06 5.511401e-05 0.00013415067 1.7846533e-06
000070 2b 5b 1b 38 68 e9 8d b8 43 59 be b8 c9 1c 85 b8
       3.7039787e-05 -6.766879e-05 -9.076532e-05 -6.347296e-05
000080 a9 51 d5 b7 9d aa 39 39 04 1b 01 b8 1c 01 6a b8
       -2.5429605e-05 0.00017706533 -3.0781157e-05 -5.579098e-05
000090 dc 70 77 b6 24 f0 1c b6 e2 8a b7 0a 30 80 89 37
       -3.687156e-06 -2.3385592e-06 1.7674501e-32 1.6391365e-05
0000a0 8a c7 aa b8 ff 61 39 b8 ca 58 26 39 ae c3 09 b7
       -8.143399e-05 -4.4198703e-05 0.0001586407 -8.211397e-06
0000b0 06 6e 5a 37 f4 15 c0 b8 3a ef 0d b8 67 65 b7 0a
       1.3019429e-05 -9.1593625e-05 -3.3839817e-05 1.7660402e-32
0000c0 0f cf 9a 37 b6 7c 2f b7 7c 54 1b 38 82 8b b7 0a
       1.845465e-05 -1.0459849e-05 3.7033562e-05 1.7674736e-32
0000d0 c4 4e 9d 37 1b 77 1f b8 92 66 86 38 f0 59 2e 35
       1.8752537e-05 -3.801948e-05 6.408723e-05 6.495093e-07
0000e0 7a ca bd 37 c7 9d 75 38 07 d3 a7 37 64 25 1d 38
       2.2624841e-05 5.8559493e-05 2.0006219e-05 3.746654e-05
0000f0 4e 86 45 b8 16 8e d5 37 69 ee 80 b9 67 61 d5 b7
       -4.709354e-05 2.5457743e-05 -0.00024591692 -2.5436935e-05
000100 00 d6 05 37 94 3f ab 38 80 05 9a b4 66 55 be b8
       7.9772435e-06 8.165758e-05 -2.8688737e-07 -9.075813e-05
000110 e4 5a 3a b7 f8 c3 c7 b5 00 f7 45 38 d0 9b 10 39
       -1.1107626e-05 -1.488369e-06 4.7198497e-05 0.00013790955
000120 44 06 0c b7 de 63 cf b8 7c 44 77 b7 ae 0b 17 37
       -8.346109e-06 -9.889131e-05 -1.47382925e-05 9.003021e-06
000130 ee 46 40 39 fc ae db 0a ad 30 34 38 94 cd c3 b6
       0.0001833697 2.1154755e-32 4.2960677e-05 -5.8353853e-06
000140 d0 62 29 b8 d0 14 14 38 4e 95 09 b9 7b db a5 38
       -4.0384766e-05 3.5305333e-05 -0.00013120958 7.9086945e-05
000150 fa 92 60 b7 a4 2e 3b 38 07 07 a6 37 75 a7 b7 8a
       -1.3385661e-05 4.462771e-05 1.9792014e-05 -1.768525e-32
000160 8e 78 58 b6 22 57 b7 8a 2e e8 75 b6 52 f9 56 38
       -3.225668e-06 -1.7655035e-32 -3.6642991e-06 5.1253774e-05
000170 39 14 c0 8a b0 b3 55 b8 e6 01 a8 b8 66 46 02 38
       -1.8496534e-32 -5.0950504e-05 -8.011218e-05 3.105998e-05
000180 bb 6c 00 39 27 94 93 b8 90 d5 bf 37 ad b2 9f 37
       0.00012247537 -7.037102e-05 2.2868422e-05 1.903748e-05
000190 90 13 a7 b7 46 f8 72 35 ee 7c c8 b9 e4 48 c8 34
       -1.991706e-05 9.051331e-07 -0.00038240053 3.7305938e-07
0001a0 c0 aa c8 b8 fa eb 8b 39 88 df 22 37 59 48 ba b8
       -9.568548e-05 0.00026687962 9.707997e-06 -8.882647e-05
0001b0 e6 73 21 b8 bb cc b7 b8 fa ff 15 b8 a2 6a 54 b8
       -3.849333e-05 -8.764254e-05 -3.5762765e-05 -5.064405e-05
0001c0 89 a1 a2 b7 0c d2 52 37 fe 63 68 b8 a6 49 00 38
       -1.9387126e-05 1.2565881e-05 -5.5406235e-05 3.058617e-05
0001d0 e0 da dc b7 e2 ae c6 37 7d 40 c1 37 f0 c8 7e b6
       -2.6327965e-05 2.3684875e-05 2.3037423e-05 -3.796591e-06
0001e0 3d c7 d9 b7 e0 b8 69 b4 51 b7 24 b8 ea 7d dc 38
       -2.5961193e-05 -2.1767073e-07 -3.9271374e-05 0.00010513871
0001f0 e4 5d 9c 36 b0 1f c8 b7 48 a6 f1 b8 f8 78 72 36
       4.6600926e-06 -2.3856614e-05 -0.00011522748 3.6131223e-06

model.5.weight f4 [128]
000000 58 66 dc 3f 31 5d 9b 3f 3f 6c be 3f bd fc 55 3f
       1.7218733 1.2137815 1.4876784 0.83588773
000010 79 77 58 3f 6a 88 6b 3f 20 41 a0 3f b2 47 99 3f
       0.845573 0.92005026 1.2519875 1.1975005
000020 bf f7 79 3d 1a 5a 8e 3f 90 12 97 3f 64 dd 09 3f
       0.061027285 1.1121247 1.180254 0.5385344
000030 1e d1 1c 3f 61 a2 c9 3f fb d3 a7 3f ca 0e e4 3b
       0.6125659 1.5752679 1.3111566 0.006959771
000040 a3 39 24 3f 03 44 94 3f 59 8f 46 3f 9b db c1 3f
       0.64150447 1.1583256 0.7756248 1.5145143
000050 1e 1f cf 3f db 0f d9 3f be a3 c1 3f 9d 73 ae 3f
       1.6181371 1.6957964 1.5128095 1.3629032
000060 29 ee 17 3f a7 88 90 3f 04 e4 a3 3f 6a 38 46 3f
       0.5934778 1.1291703 1.280396 0.7742983
000070 b8 4c 70 3f be 55 6e 3f fc be c4 3f d4 68 b1 3f
       0.93867064 0.9309958 1.5370784 1.3860116
000080 4b 26 99 3f 1f 15 c6 3f 66 f1 55 3f b3 21 e2 3f
       1.1964811 1.5475196 0.8357147 1.7666534
000090 16 e1 5c 3f d1 f9 4f 3f 96 a0 3b 3b 01 a8 48 3f
       0.86280954 0.81240565 0.0028629652 0.78381354
0000a0 67 8b ad 3f 36 c5 cf 3f bd 1a b5 3f d1 30 39 3f
       1.3558167 1.6232059 1.4148785 0.7234011
0000b0 5c 6f 8d 3f d4 5c b7 3f 7c 45 a1 3f 65 64 b7 39
       1.1049609 1.4325204 1.259933 0.0003497928
0000c0 9f a9 24 3f e2 ef 65 3f c6 56 8c 3f 00 3b 0d 3c
       0.6432132 0.8981916 1.0963981 0.008620024
0000d0 1e b7 80 3f 7a 54 34 3f a1 b4 b9 3f 84 f2 be 3f
       1.0055883 0.704414 1.4508249 1.491776
0000e0 51 4b bb 3f c1 4e 57 3f 83 63 6e 3f d9 60 75 3f
       1.463236 0.84104544 0.9312059 0.958509
0000f0 4d 68 ac 3f 90 f7 b0 3f 84 bc c4 3f a9 a5 ab 3f
       1.346933 1.382555 1.537003 1.340993
000100 f8 23 f1 3f ce e9 98 3f 12 a4 02 40 23 7f 93 3f
       1.8839102 1.1946352 2.041264 1.1523174
000110 29 2b 79 3f 01 25 c4 3e e6 ff 9f 3f 63 72 fe 3f
       0.9733148 0.38309482 1.2499969 1.9878658
000120 84 55 88 3f ba c3 6c 3f 78 23 5d 3f 3a d3 58 3f
       1.0651097 0.92486155 0.86382246 0.84697306
000130 3e cd f4 3f 8a 81 c2 b7 22 6b 68 3f 63 08 4a 3f
       1.9125135 -2.3186923e-05 0.9078847 0.7891905
000140 bf 68 5a 3f 44 a6 66 3f 34 8b ba 3f f7 ce 9b 3f
       0.8531608 0.9009745 1.4573731 1.2172536
000150 4a 09 b8 3f 7d e2 bf 3f be 06 fd 3e b8 1d ad b9
       1.4377835 1.4990994 0.49419206 -0.00033019274
000160 cc e4 09 3f 4e 88 c9 3b 5d fe 3f 3f d9 88 a0 3f
       0.5386474 0.006150282 0.749975 1.2541763
000170 1f 61 6e a8 a0 c0 a9 3f a1 88 c9 3f a7 fa a9 3f
       -1.3232714e-14 1.326191 1.5744821 1.3279618
000180 aa c8 d4 3f a8 3d 9d 3f 3b d1 1e 3f 20 74 a1 3f
       1.6623738 1.2284441 0.6203801 1.2613564
000190 ae e8 67 3f 8f e0 a2 3e e6 13 9c 3f b9 10 97 3e
       0.90589416 0.3181195 1.2193573 0.29504946
0001a0 e5 ea ab 3f 27 29 bd 3f aa 65 a5 3f 98 11 c5 3f
       1.3431059 1.4778184 1.292165 1.5395994
0001b0 63 62 c4 3f 7b 43 61 3f e8 b6 8c 3f 75 f9 fa 3f
       1.5342525 0.8799359 1.0993319 1.9607378
0001c0 66 53 93 3f 95 38 4c 3f f0 40 4e 3f c6 f2 85 3f
       1.1509826 0.7977384 0.80567837 1.0464714
0001d0 1c d9 da 3f 5d 6c a5 3f be 75 5f 3f e7 66 a3 3f
       1.7097507 1.2923695 0.87289035 1.2765778
0001e0 f4 0b 4a 3f ff da f3 3e 02 0b 7e 3f 42 be 92 3f
       0.7892449 0.47628018 0.99235547 1.1464312
0001f0 04 e2 83 3f c9 fa a7 3f 4b b3 b8 3f bb 6b ed 3f
       1.030335 1.3123409 1.4429716 1.8548502

model.5.bias f4 [128]
000000 2a db 98 bf 68 76 be be 6d 7c 6c 3e da aa 05 c0
       -1.1941884 -0.37199712 0.2309434 -2.088553
000010 90 3f 43 3f 3c 1c db 3c 0f 2c 20 bf a6 61 1c 3d
       0.76268864 0.026746862 -0.6256723 0.038179062
000020 fd 7a ab be 00 7f 1d bf cf e1 7b be 0a 7d 68 3e
       -0.3349227 -0.6152191 -0.24597858 0.22703949
000030 11 bc a8 bd 14 61 15 c0 02 db 87 bf c4 5f 1a be
       -0.08238996 -2.3340502 -1.0613711 -0.15075594
000040 22 65 e2 bd f3 1d e2 bd 2f d9 85 be 6a b8 fb be
       -0.11054446 -0.110408686 -0.2614226 -0.49164134
000050 e9 c4 e5 bf c3 59 bf bf 10 2f 51 be 2a a2 0b bf
       -1.7950717 -1.4949268 -0.20428109 -0.5454432
000060 98 16 9f 3d b0 7a 92 be 90 82 8d be 02 12 84 bf
       0.07767981 -0.28609228 -0.27638674 -1.0317996
000070 fd ff ac 3e 01 fa b8 3d b5 b8 2c bf c1 10 57 bf
       0.33789054 0.090320595 -0.6746934 -0.8400994
000080 a5 ce 3e 3e 76 6f 9e bf f9 2d 36 3f e5 62 92 bf
       0.18633516 -1.2377765 0.711639 -1.143643
000090 ca 86 65 3e 24 92 55 bf e4 64 5f bc 93 de 18 bf
       0.22414699 -0.8342612 -0.013634894 -0.5971462
0000a0 9e f9 18 bf ed 27 ea bf 9f 76 9a 3d 31 a0 c0 3e
       -0.59755886 -1.8293434 0.075421564 0.37622216
0000b0 8f bd 05 bf d6 15 98 bf c2 18 ad bf c1 84 06 bc
       -0.5224237 -1.1881664 -1.352318 -0.008210362
0000c0 12 f2 98 be 33 17 a0 bf b7 64 22 3f e1 81 fa ba
       -0.29872185 -1.250708 0.6343493 -0.0019112193
0000d0 5b 65 25 bf 01 0a eb 3d bd 9f b1 3d 5a 5b c5 be
       -0.6460778 0.114765175 0.08673046 -0.38546258
0000e0 f5 75 99 bf 50 2b 37 bf 4a 23 40 bf 58 82 a6 bd
       -1.1989123 -0.71550465 -0.75053847 -0.0813033
0000f0 da 98 97 bf 75 25 3a c0 38 ed 4f bf b7 1e 58 bf
       -1.1843522 -2.9085362 -0.8122134 -0.8442187
000100 d3 bc 76 c0 5f 6e 46 bf 4c 32 60 c0 f6 03 64 bf
       -3.855275 -0.7751216 -3.5030699 -0.89068544
000110 fc 6f 1f bf 21 73 04 3e e0 83 b5 bf 84 32 fb bf
       -0.6228025 0.12934543 -1.418087 -1.9624791
000120 6c 6b 83 bf 65 e6 ae be 12 76 38 bf f4 e3 90 3e
       -1.0267158 -0.34160152 -0.7205516 0.28298914
000130 55 2e c3 bf 50 2c bd b8 fe b6 0c bf a3 21 85 be
       -1.5248514 -9.020476e-05 -0.54966724 -0.26002225
000140 44 10 82 bf a0 8d 79 3d bc 82 b6 bf 87 1e 69 bf
       -1.0161214 0.06092608 -1.4258647 -0.91062206
000150 db 16 7a bf 62 05 40 c0 da de 4f be d4 95 6f bb
       -0.97691125 -3.0003285 -0.20299855 -0.003655781
000160 d4 7e c4 be 4a 3e 0a be ad 7f 43 bf ca e6 a2 be
       -0.38378012 -0.13500324 -0.7636669 -0.31816703
000170 5a 9d ea 8b 99 95 02 bf 7d 9b 31 bf f9 7f 5a bf
       -9.037028e-32 -0.5100952 -0.6937788 -0.8535152
000180 5f a0 d6 bf 72 aa 78 bf 1c fd 3a 3d bc e2 45 be
       -1.6767691 -0.9713508 0.04565154 -0.19324774
000190 e6 85 5b be a0 77 96 bf 68 e4 4c be e1 ed 95 bf
       -0.21437797 -1.1755257 -0.20009005 -1.171322
0001a0 e3 b4 8f bf dd 76 13 bf 55 a6 07 be 2d 97 0e bf
       -1.1227077 -0.57603246 -0.13247044 -0.55699426
0001b0 35 ef 0a c0 fb 88 6a 3c f1 db 26 bf 40 df 1a c0
       -2.17085 0.014314885 -0.65179354 -2.419876
0001c0 db 3d aa 3e 18 2a 77 bf 50 f2 a9 3e 5f 25 a9 be
       0.33250317 -0.96548605 0.33192682 -0.33036324
0001d0 4e 05 15 c0 d8 7a 1a be c8 cd b4 bd c7 5b 42 bf
       -2.3284488 -0.15085924 -0.08828312 -0.7592129
0001e0 92 d6 78 be 03 29 52 3e b2 33 19 be f4 5a 8c be
       -0.24300602 0.20523457 -0.14961126 -0.27413142
0001f0 a1 3d 3e bf 1b 02 29 bf 64 46 46 bf 60 c6 9b bf
       -0.7431279 -0.6601884 -0.7745116 -1.2169914

model.5.running_mean f4 [128]
000000 af b2 2e c0 8c 71 84 c0 e3 ae 80 c0 74 7d 91 be
       -2.729656 -4.1388607 -4.0213485 -0.28416026
000010 ae 11 45 bf 9b ef 0f c0 13 6d 4b c0 9a 8c a9 c0
       -0.769801 -2.2489994 -3.1785324 -5.2984133
000020 e1 2a a1 bc 4d 40 73 c0 64 49 87 c0 8e 67 cf 3f
       -0.019673767 -3.8007996 -4.227709 1.6203477
000030 a7 89 b3 bf 2a c7 dc bf 75 11 80 c0 8e e5 94 3e
       -1.4026383 -1.724828 -4.002131 0.29081386
000040 cc 84 2d c0 1d 53 87 bf 56 82 46 c0 61 c7 31 c0
       -2.7112303 -1.0572239 -3.101705 -2.7777941
000050 ef 59 6a c0 10 41 03 be 90 1f 11 bd 26 73 59 c0
       -3.661739 -0.12817788 -0.03543049 -3.397653
000060 02 79 be 3e f3 51 5b c0 90 1a c8 40 b1 ca 18 c0
       0.37201697 -3.4268768 6.2532425 -2.3873713
000070 7e 52 bc 3f 10 f6 fe bf f3 41 83 c0 21 a7 2e c0
       1.4712675 -1.9918842 -4.1018004 -2.7289507
000080 64 a7 68 bf c6 9b 4c c0 84 6b b3 bf 75 3b 14 c0
       -0.9088042 -3.1970077 -1.4017186 -2.316129
000090 04 f9 c4 be 3f 71 db 3e 38 c8 d8 ae 6f d9 7e c0
       -0.38471234 0.42859837 -9.858109e-11 -3.982021
0000a0 02 b7 4f 3e 90 cc dc bf ef 84 5d c0 d9 c2 68 3f
       0.20284656 -1.7249928 -3.4612386 0.90922314
0000b0 21 3d 3d bf 55 7c 26 c0 a9 8b 4f c0 53 98 e4 2f
       -0.739214 -2.6013386 -3.2428992 4.158119e-10
0000c0 24 5c 0a c0 40 23 70 be a0 7c 12 c0 e7 51 8a a9
       -2.1618738 -0.23450947 -2.2888565 -6.142639e-14
0000d0 0a a4 5c c0 b5 b1 4d c0 45 36 76 c0 d8 72 95 c0
       -3.4475121 -3.2139714 -3.8470623 -4.670269
0000e0 d6 9a 80 c0 d9 d8 24 c0 3a e2 8c c0 0a 39 e5 bf
       -4.018901 -2.5757353 -4.4026155 -1.7908032
0000f0 17 17 23 bf 01 e3 46 3e eb 06 85 3f e6 de 86 c0
       -0.6370711 0.19422533 1.0392736 -4.2147093
000100 31 4b a7 3f fc e5 a8 c0 64 a6 57 bf 34 e4 87 c0
       1.3069822 -5.2780743 -0.84238267 -4.246607
000110 d1 2f 43 bf 45 a9 b0 3e 18 46 9b 3f 6c 4d 0a 40
       -0.7624484 0.34504142 1.2130766 2.1609755
000120 3d fa 20 c0 15 b2 73 c0 39 2f 3a c0 cb 80 6a 3f
       -2.5152733 -3.8077443 -2.9091322 0.9160277
000130 ea e9 d1 3f a3 90 2b 0c 2a aa 19 c0 fb 92 24 c0
       1.639951 1.3216886e-31 -2.401011 -2.571471
000140 17 af fa bf 1f c1 4d c0 c2 1c d1 bf 9b 38 9c c0
       -1.9584683 -3.2149122 -1.6336901 -4.88191
000150 50 a6 87 c0 64 8c e4 40 d2 28 d3 bf d4 4d a7 ab
       -4.239052 7.1421375 -1.6496832 -1.1887665e-12
000160 b5 af 2e c0 4b 7d c0 3a f4 64 d2 3f c0 5d 2f c0
       -2.7294743 0.0014685778 1.6437058 -2.740097
000170 61 e1 59 0a 28 8b 60 c0 23 4a 94 c0 e9 fe 80 c0
       1.0490559e-32 -3.5084934 -4.63405 -4.031117
000180 49 a2 88 c0 b7 3e fd bf ad 6d 1b bf 14 d7 66 c0
       -4.26981 -1.9784764 -0.60714227 -3.6068773
000190 4d 03 24 c0 1f 36 4d 3f b7 56 2d c0 b2 c6 b2 3e
       -2.5627015 0.8016071 -2.7084177 0.34917217
0001a0 f1 f2 89 c0 a9 83 17 c0 98 d8 78 c0 18 47 73 c0
       -4.310906 -2.367411 -3.8882198 -3.8012142
0001b0 d2 36 95 40 c9 6e 4b c0 59 a6 80 c0 87 51 0d c0
       4.662942 -3.1786368 -4.020306 -2.208101
0001c0 f6 57 0e c0 62 8b 02 40 ec 92 d3 3f 90 9c 4e c0
       -2.2241187 2.0397573 1.6529212 -3.2283058
0001d0 1a 1c 82 c0 55 d8 7a c0 00 6b 18 c0 0f 25 82 c0
       -4.0659304 -3.9194539 -2.3815308 -4.0670238
0001e0 9c 9f 81 bf a3 fa c1 3f a3 da 5b c0 e8 9c 1c c0
       -1.0126834 1.5154613 -3.4352195 -2.4470768
0001f0 76 41 60 40 76 df 9c 40 5a f1 98 c0 db 85 9e c0
       3.5039954 4.902278 -4.779462 -4.95384
