best_model.pth (torch, 78566 bytes, 6 tensors)

model.0.weight f4 [448, 9]
-0.063554965 0.08384073 0.21079983 0.0483948 -0.012656233 -0.0017933066 -0.04548668 -0.04446277
0.02686344 -0.05964002 0.04401013 0.16872622 0.044476274 -0.0444324 -0.021677308 -0.07010572
-0.06913036 0.015832454 0.10174402 -0.23483804 -0.2556129 -0.070686065 -0.014866008 -0.0546782
0.036037207 0.058499455 -0.05639647 -0.062248945 0.10881795 0.20299292 0.052449353 0.0011114902
0.0037365183 -0.031572044 -0.041258726 0.016505314 -0.06805053 0.016160335 0.20724662 0.044729352
-0.06154507 -0.054581683 -0.07687722 -0.06759571 0.03064475 -0.054005276 0.13300182 0.14146689
0.04869834 -0.014110002 0.031655524 -0.05027454 -0.061733454 0.034672257 -0.0655914 0.036415648
0.2046073 0.034600023 -0.05495208 -0.054030903 -0.07563299 -0.076599106 0.01811288 -0.099031195
0.0748391 0.16823518 0.06539841 -0.072015464 -0.06505619 -0.09194499 -0.099696785 0.026136456
-0.07862621 0.074675106 0.22169787 0.06523399 -0.038372554 -0.035654437 -0.05894135 -0.0670194
0.034518562 -0.06511137 0.06273544 0.19454934 0.042332184 -0.023510652 -0.02938767 -0.046488788
-0.04899045 0.023012618 -0.07195742 0.121764064 0.1783363 0.07842935 -0.010809018 -0.016357066
-0.046845086 -0.07059902 0.03733289 -0.05201813 0.05663687 0.22006908 0.02562666 -0.011338662
-0.0047778958 -0.026795167 -0.018228829 -0.0039133416 -0.08293007 0.034058023 0.18098888 0.06220189
-0.09150251 -0.08105143 -0.110512376 -0.12087701 0.031646345 -0.05758049 0.025461957 0.23172091
0.029993802 -0.046437215 -0.048685487 -0.06503273 -0.06414099 0.018088238 -0.083139665 0.08383679
0.23547588 0.06158787 -0.04012967 -0.014878779 -0.08579833 -0.06280294 0.010331029 -0.090127334
0.06303832 0.196516 0.053473018 -0.05425537 -0.061626136 -0.06919704 -0.07478446 0.05057699
-0.08017148 0.07396885 0.2636135 0.050818942 -0.036849342 -0.04099598 -0.063629046 -0.07068919
0.03354865 -0.07209618 0.031036703 0.22074226 0.051069062 -0.07705933 -0.062053226 -0.09444441
-0.10084207 0.023411414 -0.07767792 0.12359902 0.24907985 0.06657502 -0.030016351 -0.021320244
-0.06498919 -0.088036835 0.0336472 -0.08311453 0.102077186 0.17232431 0.06649146 -0.033124898
-0.02286237 -0.059321515 -0.07281725 0.031045143 -0.060303062 0.13357784 0.23599301 0.063893594
0.0028194222 0.0026330724 -0.031552505 -0.0571106 0.028233109 -0.06261912 0.017266842 0.26546007
0.033458762 -0.05019973 -0.041881185 -0.06520355 -0.05286441 0.01992909 -0.109181024 0.012549061
0.2248978 0.06353455 -0.1066413 -0.10442541 -0.12623481 -0.1199016 0.030261192 0.07432795
-0.41189995 -0.2995293 -0.120886244 -0.090820864 -0.10405542 -0.010255012 0.09755835 -0.02794268
-0.05304173 0.06564765 0.2204744 0.054807413 -0.024578704 -0.034558516 -0.046818 -0.06307562
0.020708773 -0.05521383 0.07323945 0.16191334 0.036698937 -0.036370013 -0.03622753 -0.0497087
-0.07458557 0.019556027 -0.074652754 0.043332193 0.22186713 0.05202255 -0.051502716 -0.053190377
-0.071774885 -0.07402948 0.022569316 -0.06817907 0.0956095 0.20647755 0.055451564 -0.029382689
-0.023164848 -0.058080558 -0.07635012 0.030994441 -0.1083113 0.0018242926 0.18185744 0.06320954
00000000: 1b29 82bd b0b4 ab3d e9db 573e a039 463d
00000010: 175c 4fbc 620d ebba 3e50 3abd 981e 36bd
00000020: b810 dc3c 1849 74bd f743 343d 91c6 2c3e
00000030: c12c 363d c0fe 35bd 9c94 b1bc 9693 8fbd
00000040: 3894 8dbd 10b3 813c 2b5f d03d 6279 70be
00000050: b2df 82be dbc3 90bd 8f90 73bc 40f6 5fbd
00000060: c09b 133d 209d 6f3d fcff 66bd c0f8 7ebd
00000070: f2db de3d 60dd 4f3e 22d5 563d 6caf 913a
00000080: 60e0 743b b051 01bd e9fe 28bd 2736 873c
00000090: 145e 8bbd ae62 843c 7538 543e 2036 373d
000000a0: af16 7cbd 0b91 5fbd ce71 9dbd 9f6f 8abd
000000b0: b30a fb3c a334 5dbd a131 083e b2dc 103e
000000c0: e977 473d a32d 67bc 39a9 013d adec 4dbd
000000d0: 38dc 7cbd 7f04 0e3d c954 86bd 9328 153d
000000e0: 9384 513e c1b8 0d3d 6f15 61bd 824f 5dbd
000000f0: 78e5 9abd fedf 9cbd 7661 943c ded0 cabd
00000100: 3e45 993d d845 2c3e 9aef 853d d87c 93bd
00000110: 2e3c 85bd a84d bcbd d42d ccbd 1f1c d63c
00000120: c706 a1bd 43ef 983d c404 633e 6699 853d
00000130: 8a2c 1dbd 630a 12bd 7c6c 71bd 7841 89bd
00000140: 5663 0d3d 1c59 85bd 707b 803d f137 473e
00000150: 8364 2d3d 6999 c0bc 69be f0bc 076b 3ebd
00000160: 36aa 48bd f584 bc3c 695e 93bd 705f f93d
00000170: cb9d 363e 919f a03d 4f18 31bc 41ff 85bc
00000180: a2e0 3fbd 3896 90bd 5fea 183d f610 55bd
00000190: 10fc 673d ca59 613e 00ef d13c ccc5 39bc
000001a0: e58f 9cbb 8a81 dbbc a054 95bc 7d3b 80bb
000001b0: 3ed7 a9bd 6d80 0b3d 2655 393e 69c7 7e3d
000001c0: ab65 bbbd 4bfe a5bd 5054 e2bd 5e8e f7bd
000001d0: 999f 013d 85d9 6bbd 9895 d03c 3f48 6d3e
000001e0: 90b5 f53c f334 3ebd 6f6a 47bd e12f 85bd
000001f0: 5a5c 83bd c92d 943c 2145 aabd 9fb2 ab3d
00000200: 9720 713e 9043 7c3d 025f 24bd 1fc6 73bc
00000210: 09b7 afbd d49e 80bd 7a43 293c ae94 b8bd
00000220: 3c1a 813d 7e3b 493e 8606 5b3d e13a 5ebd
00000230: b06b 7cbd 2db7 8dbd 9828 99bd d129 4f3d
00000240: f230 a4bd fb7c 973d 59f8 863e 8627 503d
00000250: 56ef 16bd 67eb 27bd f24f 82bd 7ec5 90bd
00000260: 4f6a 093d 29a7 93bd af40 fe3c 420a 623e
00000270: cb2d 513d 48d1 9dbd 862b 7ebd 126c c1bd
00000280: 4a86 cebd 4bc9 bf3c 9a15 9fbd 7c21 fd3d
00000290: ca0e 7f3e 7c58 883d dae4 f5bc cba7 aebc
000002a0: 0d19 85bd a84c b4bd a5d1 093d f337 aabd
000002b0: d80d d13d c975 303e ad2c 883d f9ad 07bd
000002c0: dd49 bbbc 1efb 72bd 3621 95bd 6252 fe3c
000002d0: 5800 77bd a1c8 083e 27a8 713e a5da 823d
000002e0: 0ec6 383b a08f 2c3b 333d 01bd ceec 69bd
000002f0: 1f49 e73c 743e 80bd 3173 8d3c 62ea 873e
00000300: 0e0c 093d 3b9e 4dbd 9b8b 2bbd 7089 85bd
00000310: 5a88 58bd 5542 a33c 4d9a dfbd 949a 4d3c
00000320: 9c4b 663e 671e 823d c166 dabd fddc d5bd
00000330: b343 01be f88e f5bd 52e6 f73c 4139 983d
00000340: 8de4 d2be e85b 99be 3593 f7bd 4a00 babd
00000350: 021b d5bd a304 28bc accc c73d 0ce8 e4bc
00000360: 4942 59bd 4672 863d 0bc4 613e bd7d 603d
00000370: 4759 c9bc 3b8d 0dbd 3bc4 3fbd ca2d 81bd
00000380: 72a5 a93c e627 62bd 91fe 953d 9ccc 253e
00000390: a051 163d b9f8 14bd 5263 14bd 5a9b 4bbd
000003a0: 52c0 98bd f633 a03c 8be3 98bd 197d 313d
000003b0: 2331 633e 9915 553d 83f4 52bd 27de 59bd
000003c0: b6fe 92bd c59c 97bd 49e3 b83c 78a1 8bbd
000003d0: eace c33d da6e 533e 2e21 633d f7b3 f0bc
000003e0: 35c4 bdbc e1e5 6dbd 745d 9cbd 0ee8 fd3c
000003f0: 51d2 ddbd 1a1d ef3a d638 3a3e 0174 813d

model.0.bias f4 [448]
0.01822564 0.018568093 -0.037500843 0.010408666 -0.022867983 0.05304757 -0.028410561 -0.0084232595
-0.01644755 -0.015774332 0.01177 0.0069494364 -0.013185523 -0.02736518 0.0068570576 -0.0277275
-0.030607756 -0.017801022 -0.01661238 -0.00078795577 -0.00095840986 -0.03133885 -0.027459549 -0.12731509
-0.013752119 -0.006943652 -0.015193757 0.0009317632 -0.015052769 0.01726299 -0.006473211 -0.0052943924
-0.022233412 -0.002914025 -0.0179246 0.019849267 -0.035486136 -0.025925828 -0.009380979 -0.020067897
-0.036158767 0.014953654 -0.007257942 -0.0024875638 0.0013726681 -0.0042162673 -0.021066148 -0.01080496
-0.022148505 0.00049106264 -0.06039962 -0.025225356 -0.0007814271 -0.02131007 -0.053803824 -0.00061419944
-0.017750233 0.014304509 0.019160785 -0.019820692 0.00810007 -0.01635102 -0.0066952906 -0.008244573
-0.008777378 0.008529376 -0.013411782 0.0151193505 -0.031258736 -0.01173264 -0.000118669675 0.002557845
0.011838195 -0.01563205 -0.0051949257 -0.120811574 -0.0021918681 0.01718062 0.00429228 -0.024813684
0.018610781 -0.008934461 0.00047252403 -0.02266267 -0.089665145 -0.08326235 -0.0862193 -0.01979728
-0.0030317437 -0.014035073 -0.02627978 -0.00841494 -0.06281263 0.0054304404 -0.02892148 -0.018883558
-0.0161748 -0.028605519 -0.018259918 0.008939966 -0.018220903 -0.01071136 -0.025124948 -0.08379577
0.014453444 -0.007197316 -0.01650885 -0.019299516 -0.033702094 -0.025520489 0.028151607 -0.0008995498
-0.013394418 -0.009900012 -0.00822068 0.015686344 -0.024350928 -0.022697503 -0.024803342 -0.018652434
-0.011422425 -0.042618655 -0.020332268 -0.01298277 -0.0646018 0.03499216 -0.00078799826 -0.020991554
-0.018622275 -0.010393617 -9.8281394e-05 -0.07855957 -0.018884195 -0.0033926992 -0.013683767 -0.030429302
0.026010383 -0.01215354 -0.009691265 -0.0041215797 0.0068297046 0.0025549817 -0.010259285 -0.017801577
-0.009567814 -0.003964419 0.0052310275 -0.019117655 0.017715069 0.01669069 0.009540831 -0.011423911
0.020525476 -0.0036661422 -0.006344588 -0.018474432 -0.022273112 0.06412349 -0.031428583 -0.0034931216
0.023194352 0.009689901 -0.020559838 -0.016304862 -0.0006807462 -0.02131751 -0.0028452051 0.03634414
-0.0047752154 -0.017103536 0.001146377 -0.018037694 0.0102254115 0.01109562 0.054940116 -0.023380479
0.0048170257 -0.009871632 -0.0053912885 -0.02151487 -0.007988347 -0.027359663 -0.037356224 -0.004281019
0.0042476673 -0.028165389 0.0070889574 -0.013102736 -0.006312728 -0.023128211 -0.03742198 -0.027608452
-0.0065695588 0.019258156 -0.008581123 -0.0031397634 0.01017139 -0.021792306 -0.014532168 -0.014322942
-0.029612418 -0.032902997 -0.01741091 -0.03685594 -0.020530185 0.00957291 0.008012722 -0.037426233
0.06925451 -0.015116697 -0.0034126802 -0.011779403 -0.020527704 -0.030185003 0.0014326421 -0.025827616
-0.015294587 -0.14091866 0.013148429 -0.019873504 -0.017041873 -0.028813578 -0.027930498 0.00031162004
-0.021748347 -0.030986728 -0.018545598 -0.006351209 -0.015104549 0.0050848857 -0.068056785 -0.022411438
-0.020432487 -0.0037612587 0.0059511703 -0.0058170985 -0.010177427 -0.015354192 -0.0071644424 0.05085146
-0.015409825 -0.02301427 -0.023135612 -0.0012888951 -0.021528663 -0.025659584 -0.012553599 0.048308745
-0.012009265 -0.007344134 -0.013154291 -0.012570503 0.031166617 -0.016604293 -0.0206954 -0.029256688
00000000: f04d 953c 1d1c 983c 7c9a 19bd 1c89 2a3c
00000010: a355 bbbc 6948 593d 44bd e8bc b601 0abc
00000020: 03bd 86bc 2c39 81bc f5d6 403c 19b8 e33b
00000030: 1808 58bc f12c e0bc 2bb1 e03b c824 e3bc
00000040: 1ebd fabc 73d3 91bc b016 88bc d18e 4eba
00000050: cc3d 7bba 2a5d 00bd d9f2 e0bc e35e 02be
00000060: 9150 61bc 9387 e3bb 3cef 78bc 9241 743a
00000070: e49f 76bc 1d6b 8d3c 3b1d d4bb 957c adbb
00000080: d822 b6bc 3af9 3ebb 9cd6 92bc ee9a a23c
00000090: e959 11bd 6762 d4bc aeb2 19bc 6e65 a4bc
000000a0: 371b 14bd 2c00 753c 08d4 edbb 6506 23bb
000000b0: 19eb b33a 9d28 8abb ea92 acbc 4907 31bc
000000c0: c870 b5bc a8ba 003a 9865 77bd 68a5 cebc
000000d0: afd8 4cba 7592 aebc 6661 5cbd 3a02 21ba
000000e0: f068 91bc 765d 6a3c 14f7 9c3c 015f a2bc
000000f0: 28b6 043c 93f2 85bc 2b64 dbbb 3f14 07bc
00000100: fece 0fbc ccbe 0b3c 17bd 5bbc 27b7 773c
00000110: 2909 00bd 423a 40bc 4cde f8b8 85a1 273b
00000120: fdf4 413c c90e 80bc 323a aabb 0f6c f7bd
00000130: 72a5 0fbb 5fbe 8c3c 41a6 8c3b 1146 cbbc
00000140: a375 983c d861 12bc 1abd f739 10a7 b9bc
00000150: 5ca2 b7bd 7385 aabd bf93 b0bd e82d a2bc
00000160: 38b0 46bb 5df3 65bc b148 d7bc d1de 09bc
00000170: e8a3 80bd d6f1 b13b bdec ecbc b1b1 9abc
00000180: 0481 84bc 1f56 eabc d395 95bc ef78 123c
00000190: 0144 95bc b37e 2fbc d6d2 cdbc 1e9d abbd
000001a0: 23ce 6c3c 76d7 ebbb 913d 87bc 051a 9ebc
000001b0: 350b 0abd 5810 d1bc 339e e63c c4cf 6bba
000001c0: 4374 5bbc a933 22bc 08b0 06bc a680 803c
000001d0: 997b c7bc 1df0 b9bc 6130 cbbc fdcc 98bc
000001e0: 1f25 3bbc e690 2ebd db8f a6bc afb5 54bc
000001f0: f34d 84bd f053 0f3d ab91 4eba 7bf6 abbc
00000200: be8d 98bc fd49 2abc 6c1c ceb8 d7e3 a0bd
00000210: 07b3 9abc 0c58 5ebb e131 60bc df46 f9bc
00000220: ba13 d53c a41f 47bc 1dc8 1ebc 510e 87bb
00000230: b7cb df3b 7b71 273b 8f16 28bc 9dd4 91bc
00000240: 52c2 1cbc f5e7 81bb 0a69 ab3b a19c 9cbc
00000250: 311f 913c eaba 883c 2551 1c3c 5b2b 3bbc
00000260: 0b25 a83c a943 70bb 43e6 cfbb b157 97bc
00000270: 1a76 b6bc 2d53 833d 42bb 00bd dbec 64bb
00000280: 1502 be3c 64c2 1e3c 1b6d a8bc c691 85bc
00000290: 1b74 32ba 0fa2 aebc 9f76 3abb 98dd 143d
000002a0: 6979 9cbb b71c 8cbc 0742 963a c9c3 93bc
000002b0: 7c88 273c 67ca 353c e308 613d 6b88 bfbc
000002c0: 24d8 9d3b a0bc 21bc 68a9 b0bb f43f b0bc
000002d0: 8ee1 02bc 5f21 e0bc d702 19bd ca47 8cbb
000002e0: 0430 8b3b 1abb e6bc 7c4a e83b dcac 56bc
000002f0: 00db cebb 6077 bdbc ca47 19bd 1f2b e2bc
00000300: 7445 d7bb 48c3 9d3c d797 0cbc 7dc4 4dbb
00000310: e7a5 263c c785 b2bc 5518 6ebc c6aa 6abc
00000320: be95 f2bc 4bc5 06bd 53a1 8ebc 41f6 16bd
00000330: eb2e a8bc b2d7 1c3c cb47 033c 404c 19bd
00000340: 4fd5 8d3d 06ac 77bc 46a7 5fbb 66fe 40bc
00000350: b729 a8bc 8a46 f7bc 7ec7 bb3a 7094 d3bc
00000360: 2696 7abc fb4c 10be 826c 573c c2cd a2bc
00000370: 669b 8bbc 740a ecbc 80ce e4bc ef60 a339
00000380: 9729 b2bc e1d7 fdbc f0ec 97bc cd1d d0bb
00000390: 1279 77bc 1d9f a63b 5b61 8bbd 3198 b7bc
000003a0: 0862 a7bc 737f 76bb 0902 c33b 5c9d bebb
000003b0: 39bf 26bc 2690 7bbc b3c3 eabb 9f49 503d
000003c0: 7e79 7cbc 6c88 bcbc e586 bdbc 25f0 a8ba
000003d0: e15c b0bc 0c34 d2bc 9cad 4dbc 64df 453d
000003e0: 82c2 44bc 10a7 f0bb 1885 57bc 83f4 4dbc
000003f0: 2251 ff3c ba05 88bc 6689 a9bc b9ab efbc

model.3.weight f4 [32, 448]
-0.031770553 -0.03626385 -0.041047323 -0.0069653424 -0.024063768 -0.006384046 -0.007291842 -0.042456746
-0.019763354 -0.009545257 -0.025920486 -0.01402681 -0.009928672 -0.006707872 0.00020700443 -0.0035637624
-0.018327674 -0.0011399357 -0.018346738 -0.027098728 -0.03738145 0.004765872 -0.015353934 -0.030772483
-0.013543817 -0.03596251 -0.027159382 -0.022262048 -0.01887643 -0.031210957 -0.025170283 -0.024823047
-0.0217489 -0.031761833 -0.023588989 -0.010063158 -0.010557554 -0.026198696 -0.039821893 -0.010887518
-0.024231244 -0.024342714 -0.01817263 -0.026568536 -0.02724249 -0.032133866 -0.0167028 -0.010957334
-0.026767805 -0.009962323 -0.028982822 -0.018784191 -0.025309192 -0.0014557817 -0.03564929 -0.0071709864
-0.033665914 -0.02460876 -0.01888263 -0.025212387 -0.023498768 -0.016464531 -0.0144476965 -0.023339117
-0.030655095 -0.0087332865 -0.020093244 -0.00582258 -0.03701241 -0.024100075 -0.020779654 -0.017518388
-0.018921675 -0.021102767 -0.029016959 -0.04584238 -0.0047024316 -0.010552908 -0.027637767 -0.011119378
-0.011758634 -0.016862605 -0.01790461 -0.016448772 -0.037108 -0.028374203 -0.03228155 -0.02604968
-0.00479611 -0.022215825 -0.019934934 -0.019468825 -0.015771756 -0.012950336 -0.000314299 -0.009758255
-0.020171465 -0.011354154 0.008186092 0.00056662294 -0.012260931 -0.0075715105 -0.0262728 -0.038422562
-0.026539328 -0.0177448 -0.016450237 -0.011239952 -0.017137557 -0.0144756185 -0.0008472113 -0.043001674
-0.035208683 -0.022657314 -0.040647205 -0.028423622 -0.001965564 -0.00086278503 0.000285074 -0.045839664
-0.01091674 -0.02089641 -0.026338713 -0.046606183 -0.031421483 -0.016256753 -0.043810003 -0.036899365
-0.003845575 -0.04194539 -0.0100231385 -0.028637487 -0.019629173 -0.024819111 -0.014602666 -0.017708495
-0.027041 -0.012509251 -0.032621704 -0.028659105 -0.028338553 -0.028595237 -0.018545883 -0.012063667
-0.025423143 -0.006745477 -0.020982226 -0.019823926 -0.016983263 -0.00993832 -0.032399446 -0.021052873
-0.038966782 -0.0219114 -0.018532282 -0.027824795 -0.012514044 -0.010968191 -0.023399271 -0.024691438
-0.04358092 -0.04122691 -0.013527001 -0.012738817 -0.018223725 -0.0011947568 -0.026806952 -0.02638888
-0.024365498 -0.029811427 -0.01719376 -0.022314375 -0.014697521 -0.036229227 -0.022741523 -0.023646124
-0.030279892 -0.040551312 -0.024441129 -0.028483802 0.0039736233 -0.0034833758 -0.010351479 -0.019059947
-0.028815962 -0.018048279 -0.028845048 -0.035468157 -0.021887518 -0.022354273 0.009718481 -0.027433075
-0.012987575 -0.021139268 -0.019296499 -0.03394195 -0.026943197 -0.03691284 -0.031995993 -0.019206598
-0.02972943 -0.025136655 -0.038611062 -0.001510857 -0.038131207 -0.012409489 -0.043234203 -0.004319571
-0.057018984 -0.036477875 -0.019967444 -0.028071975 -0.020964831 -0.013940222 -0.024486326 -0.0047322013
-0.022287358 -0.027062656 -0.015156174 -0.032975234 -0.02841144 -0.011435107 -0.006415409 -0.0414433
0.016579926 -0.023449788 -0.00878527 -0.0301745 -0.037561633 -0.007555764 -0.00069843343 -0.01696266
-0.009157037 -0.012753849 -0.008218051 -0.023634305 -0.0167593 -0.014109504 -0.01062055 -0.017803445
-0.013447685 -0.018041655 -0.012411114 -0.02132235 -0.026685385 -0.008256244 -0.019308973 -0.030609319
0.004157849 -0.03369122 -0.017867096 -0.014815516 -0.026254041 -0.015168607 -0.027614724 -0.007656771
00000000: d721 02bd 6789 14bd 3d21 28bd 873d e4bb
00000010: 6121 c5bc 4231 d1bb 67f0 eebb 20e7 2dbd
00000020: c2e6 a1bc b663 1cbc 3357 d4bc b5d0 65bc
00000030: deab 22bc b5cd dbbb 540f 5939 038e 69bb
00000040: eb23 96bc e569 95ba e64b 96bc 27fe ddbc
00000050: 4b1d 19bd 082b 9c3b 118f 7bbc 9316 fcbc
00000060: e3e6 5dbc 6d4d 13bd 5a7d debc e65e b6bc
00000070: bea2 9abc 1fae ffbc e931 cebc b459 cbbc
00000080: c02a b2bc b218 02bd b23d c1bc f2df 24bc
00000090: 97f9 2cbc a69e d6bc 481c 23bd 8f61 32bc
000000a0: 9a80 c6bc 5f6a c7bc c4de 94bc 42a6 d9bc
000000b0: a42b dfbc cd9e 03bd 4fd4 88bc 6486 33bc
000000c0: 2848 dbbc 0339 23bc 626d edbc 4ee1 99bc
000000d0: 3955 cfbc eecf beba fd04 12bd 98fa eabb
000000e0: 45e5 09bd 4f98 c9bc bfaf 9abc 358a cebc
000000f0: 7d80 c0bc a0e0 86bc 08b6 6cbc ad31 bfbc
00000100: 6520 fbbc 0f16 0fbc 969a a4bc 57cb bebb
00000110: 539a 17bd 856d c5bc 183a aabc b982 8fbc
00000120: a101 9bbc b6df acbc f9b4 edbc 38c5 3bbd
00000130: db16 9abb 1be6 2cbc 9968 e2bc 0d2e 36bc
00000140: 49a7 40bc 7223 8abc b0ac 92bc 93bf 86bc
00000150: 8ffe 17bd 0471 e8bc a939 04bd 2366 d5bc
00000160: b028 9dbb f6fd b5bc 964e a3bc 167d 9fbc
00000170: c533 81bc a52d 54bc 7fc8 a4b9 17e1 1fbc
00000180: a13e a5bc c606 3abc f51e 063c 6c89 143a
00000190: 12e2 48bc 6f1a f8bb 0e3a d7bc fa60 1dbd
000001a0: 0169 d9bc 8b5d 91bc a6c2 86bc c727 38bc
000001b0: 1064 8cbc 252b 6dbc 6317 5eba 8622 30bd
000001c0: fb36 10bd d59b b9bc af7d 26bd a8d8 e8bc
000001d0: b1d0 00bb 862c 62ba fc75 9539 5fc2 3bbd
000001e0: 20dc 32bc f32e abbc 49c4 d7bc 20e6 3ebd
000001f0: d0b3 00bd e22c 85bc 1e72 33bd ca23 17bd
00000200: 0b06 7cbb eece 2bbd 1738 24bc 2a99 eabc
00000210: 5ccd a0bc 7351 cbbc 0540 6fbc 6811 91bc
00000220: 1685 ddbc 9af3 4cbc 569e 05bd 80c6 eabc
00000230: 4126 e8bc 8f40 eabc 89ed 97bc b0a6 45bc
00000240: 3244 d0bc 2a09 ddbb ebe2 abbc c965 a2bc
00000250: 7c20 8bbc 56d4 22bc 48b5 04bd 1377 acbc
00000260: a29b 1fbd 897f b3bc 03d1 97bc d3f0 e3bc
00000270: b407 4dbc edb3 33bc d4af bfbc b345 cabc
00000280: e881 32bd 8cdd 28bd 5ba0 5dbc 79b6 50bc
00000290: ec49 95bc 6399 9cba 419a dbbc 7e2d d8bc
000002a0: 279a c7bc 1837 f4bc eed9 8cbc a3cc b6bc
000002b0: dfcd 70bc 1965 14bd 6e4c babc 84b5 c1bc
000002c0: 890d f8bc 2219 26bd c338 c8bc dd56 e9bc
000002d0: 2b35 823b 5949 64bb 4099 29bc 9b23 9cbc
000002e0: 740f ecbc fcd9 93bc 734c ecbc 0f47 11bd
000002f0: 744d b3bc 4f20 b7bc 443a 1f3c 54bb e0bc
00000300: d6c9 54bc 422c adbc b113 9ebc b706 0bbd
00000310: fbb7 dcbc eb31 17bd 3b0e 03bd 2857 9dbc
00000320: 228b f3bc 63eb cdbc a226 1ebd f307 c6ba
00000330: 782f 1cbd 2b51 4bbc 5916 31bd 308b 8dbb
00000340: bd8c 69bd d369 15bd c492 a3bc 33f7 e5bc
00000350: 70be abbc 8765 64bc 8c97 c8bc 9510 9bbb
00000360: fa93 b6bc 81b2 ddbc 9a51 78bc 0a11 07bd
00000370: 1cbf e8bc 515a 3bbc 5a38 d2bb 73c0 29bd
00000380: a0d2 873c c519 c0bc 18f0 0fbc 8330 f7bc
00000390: 3ada 19bd 5896 f7bb 1317 37ba 47f5 8abc
000003a0: 6607 16bc 85f5 50bc 01a5 06bc bb9c c1bc
000003b0: cd4a 89bc 8d2b 67bc d101 2ebc 88d8 91bc
000003c0: ae53 5cbc 18cc 93bc fc57 4bbc 35ac aebc
000003d0: 4f9b dabc 3245 07bc da2d 9ebc 65c0 fabc
000003e0: 913e 883b ceff 09bd 045e 92bc c7bc 72bc
000003f0: b712 d7bc c085 78bc 4638 e2bc a7e5 fabb

model.3.bias f4 [32]
-0.030865211 -0.03697543 -0.041120566 -0.066611685 -0.04708528 -0.029763881 -0.052302193 -0.039898697
-0.04467301 -0.050150722 -0.032191735 -0.07851179 -0.047093697 -0.033060815 -0.05808518 -0.028916955
-0.035996262 0.2990031 -0.04256414 -0.032410894 -0.045579575 -0.029794976 -0.042483665 -0.040808704
-0.041708123 -0.033306997 -0.03549132 -0.031256724 -0.066186085 -0.035684943 0.27513582 -0.040471587
00000000: 0ad9 fcbc 8c73 17bd 0a6e 28bd b56b 88bd
00000010: 7fdc 40bd 62d3 f3bc d33a 56bd d16c 23bd
00000020: 0cfb 36bd d86a 4dbd 7bdb 03bd caca a0bd
00000030: 52e5 40bd c76a 07bd baea 6dbd 40e3 ecbc
00000040: d170 13bd ef16 993e bc57 2ebd 49c1 04bd
00000050: a6b1 3abd 9814 f4bc 5a03 2ebd 0727 27bd
00000060: 23d6 2abd eb6c 08bd 595f 11bd 0d07 00bd
00000070: 928c 87bd 602a 12bd 9ade 8c3e 89c5 25bd

model.6.weight f4 [3, 32]
0.00027306718 -0.00018992566 8.695422e-06 0.00019659266 1.9580619e-05 -0.0001771451 -0.00026984196 -4.2138287e-05
0.00017057548 -4.260768e-05 0.0007248799 0.00031308417 -0.00034828676 -0.00019327663 0.0001082861 0.0002606889
-0.00010199087 -1.0244018 -8.608922e-05 0.00018208729 -0.0003637797 3.202951e-05 -3.4247914e-05 7.210566e-05
0.00039806814 0.0002831497 0.00011860685 5.122819e-05 6.611841e-06 0.00015446886 -1.2490491 0.00023699818
-0.00042752267 -8.268159e-05 0.00019483786 -0.0002839251 3.290349e-05 -8.542982e-05 0.0005341396 0.000102616345
-0.00021376126 0.00026956655 -0.00043796434 0.0003310199 -7.977674e-05 -4.6282003e-05 4.866616e-05 -0.00038061428
-6.8093184e-05 1.2213982 9.782079e-05 -0.00033629785 1.9657611e-05 -0.00017008366 -3.1607848e-05 0.00024411528
-0.00020150843 -4.2745916e-05 0.00013577595 -8.142747e-05 -0.0001239187 -0.00045850087 0.9338232 0.00016585724
-0.00027674963 -0.0006342318 -0.000116657306 0.0005942724 -0.00035563143 -0.00059415225 -0.000121130746 0.00031425455
-0.00017942829 -0.00018834362 0.00056226575 -0.00024895874 -0.0004948561 8.649726e-05 -0.00016356146 -0.0001926192
-0.000137733 0.008775007 0.0003243887 -0.0003195484 2.4378496e-06 -0.0009313796 8.88516e-05 -0.00063412206
-0.0004234103 -0.00019109588 0.00015019879 2.4043467e-05 -0.00013360874 -0.0002580796 -0.031179903 -0.00060708576
00000000: 752a 8f39 c826 47b9 8ee2 1137 7124 4e39
00000010: 0f41 a437 07c0 39b9 9379 8db9 a4bd 30b8
00000020: 82dc 3239 a6b5 32b8 de05 3e3a 7225 a439
00000030: 429a b6b9 4daa 4ab9 a817 e338 12ad 8839
00000040: eee3 d5b8 991f 83bf cc8a b4b8 afee 3e39
00000050: afb9 beb9 6d57 0638 6ba5 0fb8 6e37 9738
00000060: cdb3 d039 b673 9439 91bc f838 dadd 5638
00000070: 48db dd36 ebf8 2139 d7e0 9fbf b782 7839
00000080: 1f25 e0b9 5765 adb8 644d 4c39 c8db 94b9
00000090: da01 0a38 c928 b3b8 8005 0c3a bb33 d738
000000a0: 1a25 60b9 9c54 8d39 949e e5b9 bd8c ad39
000000b0: d04d a7b8 ec1e 42b8 e41e 4c38 2f8d c7b9
000000c0: 40cd 8eb8 c756 9c3f 2325 cd38 2251 b0b9
000000d0: 66e6 a437 7c58 32b9 ab92 04b8 32f9 7f39
000000e0: 024c 53b9 144a 33b8 145f 0e39 0ac4 aab8
000000f0: 2cf0 01b9 f262 f0b9 0a0f 6f3f f7e9 2d39
00000100: b518 91b9 9342 26ba eaa5 f4b8 f2c8 1b3a
00000110: 0b74 bab9 e2c0 1bba 9307 feb8 88c2 a439
00000120: ea24 3cb9 1b7e 45b9 0465 133a ad86 82b9
00000130: 3bb9 01ba dd65 b538 b281 2bb9 d3f9 49b9
00000140: 6c6c 10b9 0cc5 0f3c b712 aa39 0f89 a7b9
00000150: f099 2336 d427 74ba d755 ba38 363b 26ba
00000160: 2bfd ddb9 e960 48b9 ae7e 1d39 f4b0 c937
00000170: 5319 0cb9 dc4e 87b9 ff6c ffbc d624 1fba

model.6.bias f4 [3]
4.999758 2.5002773 4.999913
00000000: 04fe 9f40 8b04 2040 4aff 9f40
