deadlift_model.pth (torch, 13490 bytes, 13 tensors)

model.0.weight f4 [32, 19]
00000000: ab34 8bbb 259e f5be 90cb 7cbd 013a 8fbf
00000010: fc33 053f b985 4abe 0d4b c93d d0db 9bbe
00000020: b84f a83e 9766 52be ecc8 a93e e782 173e
00000030: 92c8 d9be 7d28 c23e e769 0a3e f7f5 a93f
00000040: f88a 8e3e 8681 393f becb 5abf e0ac 91be
00000050: ab7d ce3e 487c bc3d 3045 b43e 0fd3 023f
00000060: 77ae 79be 523f f93d 15f5 533e 0329 f8be
00000070: 23e7 1c3e f313 6bbe 78d2 1bbe 1c70 2abf
00000080: 2d3a 1d3e 9505 c93d 7219 733f 26f3 b13f
00000090: c89a a43e 342a a83d e2a6 63be c821 2abe
000000a0: bd36 983e 77ea 1ec0 1eb0 b1bf 34b4 56bd
000000b0: f275 aabd 4196 2abe a48c b9be 1add ee3c
000000c0: 2448 14bd 319b 21be 8b8a 993d 8e8b 08be
000000d0: 6dc4 b23d 4fad 20bc b794 bd3e 2a01 d93d
000000e0: f209 8cbf be76 4a3f dcf3 a8be 1501 d2be
000000f0: a77a afbe 4209 d5bd 5930 bc3d 0575 09bd
00000100: c8c1 393e 5b65 dbbd 2ea6 e63d c8b7 08bd
00000110: 083f 34be 8c2a 8b3e 6d4e 0f40 4a41 e6bc
00000120: a9de aa3d e315 4bbf d7fc 57bf e966 4b3f
00000130: 31d9 bbbe 6ae4 68bb b3cc 03be d960 0bbf
00000140: 4cc9 9d3e e5fd edbc 7a24 303f eee5 cb3e
00000150: 65ef 38bf b3a2 c03e 64d8 933e e143 253e
00000160: e7c4 bc3f dcf9 8ebe 260e f23e 7e50 6fbe
00000170: 22a3 89bf 27c1 89be a9de f7be 0012 c3be
00000180: 46ce 9ebe e216 003e 6907 223d b854 4f3f
00000190: b6a8 4b3e c711 9b3d 2d8f c93d a10c 00bf
000001a0: 2635 29bd c608 98bd 8add 0e3d 27dc 15bf
000001b0: 9f9a e7bd 8d7a 973f 0f05 2b3f b403 743f
000001c0: 8dee 703f 2a34 4bbf da24 3dbf 8e3e 9f3e
000001d0: 6045 9fbc f5ca 2a3e f495 6c3e b901 76be
000001e0: 8c93 8bbe ea1a 6b3e a35e 663f dc4d 03bd
000001f0: 5c68 a4be 30d6 073e e965 163f b3a1 1fbe
00000200: 4bea febe 2d11 2bbf f29c cfbf 8406 1bbf
00000210: ed91 69be 4b24 8cbd 2ccf 893e 5f98 08be
00000220: a367 9dbf c422 a43d 24b4 50bd 1d22 063e
00000230: b404 61be fcbe 203f 4a33 23bd 5be7 5f3e
00000240: 9a91 ef3d 46f6 6abe fa2d 25bf 52bc 47bf
00000250: 393d 9cbf 58a8 e0be 2642 a03e 88b0 9dbe
00000260: ffe6 62bf 1e1c d73e 47b1 ac3d 7198 70be
00000270: 622e c13e 8546 3a3e c6f0 84be 6219 a8be
00000280: a1c6 b43d 1901 55bd b4fa d2bd f57e 81be
00000290: 4345 02bf 8bea c33c cab9 e5be 06f9 ce3f
000002a0: eaf6 783f 484f 823e f19e b33b 2676 8a3f
000002b0: 433d 93bf 0e45 2f3e c0a4 273d 4b2a 493f
000002c0: d67a 28be 9709 ffbd 7b49 833d bfb8 afbf
000002d0: 3aef 963e 6a27 ad3d 07ba b5be 5ca6 483f
000002e0: f118 6fbe 7cc3 a83d 7570 d0bc 421b 933f
000002f0: de99 763f 016a 9f3e ea20 72bd d267 6bbf
00000300: 846a 993e de10 6abf fd1e 8d3f c045 61bd
00000310: 9b10 033e acd1 9e3e 4eed 15bf 2455 8b3d
00000320: 7c79 493d d78d a0be f2af c23d c2ca 6e3e
00000330: e148 4f3f 1ec5 c6be c973 783f d44b 603f
00000340: 02c9 64be b6e0 16bf b520 263f 2856 ad3e
00000350: fe42 dd3e 78a3 463f 40f8 f0be 9f97 f7be
00000360: c27b 71bf a10a d33d 75de 003f 34de 0f3e
00000370: cae7 673d f15e 2abf 2770 2b3d 5b43 cb3e
00000380: 58cf 1cbf 39f8 ad3f 8c28 cbbe 64ca aa3d
00000390: 6960 ba3e d7a5 dbbf 1783 d2be 2861 c3bd
000003a0: eb76 883e 9afe 36be 7107 24bf 273e b6be
000003b0: 4547 683e 08bf f63e d1d1 47be 06f5 e83e
000003c0: 361f 83bf 1066 95bd 5cf3 bf3e 9e63 0c3e
000003d0: 4992 90bc 30db 7f3f 6c7b 75bf 45b0 ec3d
000003e0: fbb9 4dbe 98ed 10bd 516c 033f e75c 0ac0
000003f0: b09a 46bd 09f0 033c 8aa3 1dbe 3b60 1a3f
-0.004248222 -0.47972217 -0.06171757 -1.1189576 0.52032447 -0.19777574 0.09828768 -0.3044114
0.3287332 -0.20546947 0.33161104 0.14796029 -0.42535836 0.37921515 0.13516961 1.3278188
0.278404 0.7246326 -0.85467136 -0.28452206 0.40330252 0.09203392 0.35209036 0.511033
-0.2438296 0.121702805 0.2069896 -0.4846879 0.15322547 -0.22956829 -0.15217006 -0.66577315
0.15354224 0.09815518 0.949607 1.3902328 0.3214934 0.082111746 -0.2223163 -0.16614449
0.29729262 -2.4830606 -1.3881872 -0.05241795 -0.083232775 -0.1665888 -0.36240113 0.029158164
-0.03620161 -0.15781857 0.07497128 -0.13334486 0.087288715 -0.009806945 0.37027523 0.10595925
-1.0940535 0.79087436 -0.3299855 -0.4101645 -0.34273264 -0.104021564 0.09188909 -0.033558864
0.18140328 -0.107126914 0.11262165 -0.033378392 -0.1760217 0.27180898 2.2391617 -0.028107304
0.0834325 -0.7933027 -0.8437018 0.79453903 -0.3668914 -0.0035536536 -0.12871055 -0.5444465
0.3081764 -0.02905173 0.6880566 0.3982386 -0.7224029 0.3762413 0.2887603 0.16139175
1.474759 -0.27925003 0.4727642 -0.23370549 -1.0752909 -0.26905176 -0.48412064 -0.3809967
-0.3101675 0.12508729 0.039557848 0.80988646 0.19888577 0.0757175 0.09841762 -0.5001927
-0.041310452 -0.074235484 0.034879245 -0.5853905 -0.113087885 1.1834275 0.66804594 0.9531815
0.94114 -0.7937647 -0.73884356 0.31102413 -0.01944226 0.16678984 0.23104078 -0.24024095
-0.27261007 0.22959486 0.89988154 -0.032056674 -0.3211087 0.132653 0.5874925 -0.15589027
-0.49788126 -0.66823083 -1.6219771 -0.6055682 -0.22809573 -0.0684286 0.26915872 -0.13339375
-1.2297252 0.080144435 -0.050953045 0.1309895 -0.2197445 0.6279142 -0.039843835 0.21865599
0.11697693 -0.22945508 -0.6452328 -0.7802173 -1.2206184 -0.43878436 0.31300467 -0.30798745
-0.8863372 0.4201364 0.084322505 -0.23495652 0.377307 0.18190964 -0.25964946 -0.32831866
0.08826948 -0.052003 -0.10301724 -0.25292173 -0.50886935 0.02391555 -0.44868308 1.6169746
0.9725176 0.25451112 0.005481594 1.0817306 -1.150307 0.17116186 0.040928602 0.7858016
-0.16453108 -0.12453001 0.064105 -1.3728255 0.2947939 0.08454783 -0.3549349 0.78378844
-0.23349358 0.08240411 -0.025444249 1.1492693 0.9632853 0.31135562 -0.05911342 -0.9195529
0.29964077 -0.9143199 1.1025082 -0.05499816 0.12799303 0.31019342 -0.58565223 0.06803349
0.049188122 -0.31358215 0.09506215 0.23319533 0.8097058 -0.38822263 0.97051674 0.87615705
-0.22342303 -0.5893663 0.64893657 0.33854795 0.43215173 0.77593184 -0.470644 -0.48357865
-0.94329464 0.10304762 0.5033944 0.14049608 0.056617536 -0.6655112 0.041855004 0.39699826
-0.6125388 1.3591377 -0.39679372 0.08339384 0.3640168 -1.7159985 -0.4111564 -0.095400155
0.26653227 -0.1787056 -0.64073855 -0.35594293 0.22683437 0.4819262 -0.19513632 0.45499438
-1.02439 -0.072948575 0.37490356 0.13709876 -0.01764788 0.9994383 -0.9589145 0.11557058
-0.20090477 -0.035382837 0.5133715 -2.1619203 -0.048487365 0.008052834 -0.15394416 0.60303086

model.0.bias f4 [32]
00000000: 32e2 7d3a 3034 26ba f095 8739 99bc 893a
00000010: 5fb6 42ba 032e c1b9 71e5 003a a328 8d3a
00000020: d425 19ba c8ff 643a 2051 1bba 85b7 2b3a
00000030: a465 d139 7c67 5a39 50f9 24b9 b201 4aba
00000040: 30bd a8b9 9a40 153a 9291 06b9 c4fe a03a
00000050: a838 6038 be10 973a c855 a4b8 6e76 59b9
00000060: cdce a1ba be9c b1ba cac4 093b 84b6 d8b9
00000070: b43c 05ba 246d aa3a d963 3939 2c88 4cbb
0.000968489 -0.0006340174 0.0002586092 0.0010508477 -0.0007427688 -0.0003684611 0.0004917002 0.0010769557
-0.00058421236 0.0008735624 -0.00059248693 0.0006550479 0.00039939315 0.00020828651 -0.00015733135 -0.0007705941
-0.00032184413 0.00056935253 -0.00012833465 0.0012282957 5.3458527e-05 0.0011525375 -7.8361074e-05 -0.00020738851
-0.0012344957 -0.0013550741 0.0021021836 -0.00041334715 -0.0005082593 0.0013002497 0.00017680171 -0.0031209094

model.1.weight f4 [32]
00000000: 859d 723f 7271 473f 45bc 9c3f ef0f 4f3f
00000010: 8b3c 453f 76e5 553f 101f 523f d439 883f
00000020: b5d6 533f efe6 6b3f f08f 683f 0876 3a3f
00000030: c3cf 5a3f c3bd 923f bfe0 273f e363 893f
00000040: e857 373f f343 263f 6563 2d3f 2777 403f
00000050: 8eb8 7c3f ace6 7c3f f650 663f 65e9 5b3f
00000060: a4b3 bd3f 69c5 a13f 3f74 1d3f 10cf 623f
00000070: 031d 263f f1f8 803f 4483 823f 0bce d23f
0.94771606 0.7790748 1.2244955 0.8088369 0.77045506 0.83553255 0.8207865 1.0642648
0.8274949 0.9214925 0.9084463 0.7283635 0.8547327 1.1464161 0.6557731 1.0733608
0.7161851 0.6494743 0.6772979 0.7518181 0.9871911 0.9878948 0.89967287 0.85903007
1.4820447 1.263837 0.615055 0.885972 0.6488802 1.0075971 1.0196309 1.6469129

model.1.bias f4 [32]
00000000: 1880 86be ad6b 69be ba99 44bf f82a 9fbe
00000010: a22a d4be 6872 16be 055d 79bf 4a9d 19bf
00000020: e989 bcbe f349 03bf 9799 8ebe ceca f1be
00000030: 8c6b 58be b5b9 12bf 1f49 c0bc ca92 2fbf
00000040: f818 ae3d 4b4b 023e de07 43be 5db0 d2be
00000050: 0546 77bf cead 8ebe 5300 94bf 85e9 a6bf
00000060: 0052 0fbf 7107 81bf cfe8 83be cc6f 10bf
00000070: e348 15be e4b7 a0be 43b0 8fbe e67e e7bf
-0.26269603 -0.22794981 -0.7679707 -0.3108747 -0.41438776 -0.1469208 -0.9740756 -0.6000563
-0.36823967 -0.5128471 -0.27851555 -0.4722504 -0.21134776 -0.57314616 -0.023472367 -0.6858336
0.08500856 0.12724034 -0.1904597 -0.4115018 -0.96591216 -0.27866977 -1.1562599 -1.3040015
-0.559845 -1.0080396 -0.25763556 -0.5642059 -0.14578585 -0.31390297 -0.28064165 -1.8085601

model.1.running_mean f4 [32]
00000000: a84c aebc 47e3 2ebb e73a 94bc 05b7 bf3b
00000010: 6f86 01bb 0cad debb 9a12 2d3b 546b 153a
00000020: 4b86 93bc 0e02 bc3b 24c4 f53a 5540 943c
00000030: 2c54 78bc 5ca6 6d3b 4c80 bf3b c98d 72bb
00000040: bcfb 7bbc 74c4 e9b9 e197 7b3b d6ca 093c
00000050: dae0 973b 1072 aebb 3b8c efba 74f6 9dba
00000060: 12a9 e2bc 0c83 92bb 5e71 45bb 58df 103c
00000070: 3846 4ebb 15ae d4bb 0c75 c3bc ae32 383d
-0.021276787 -0.002668576 -0.018094493 0.005850675 -0.0019763967 -0.006795531 0.0026408792 0.0005699892
-0.018008372 0.0057375496 0.0018750471 0.018097082 -0.015156787 0.0036262488 0.0058441516 -0.003701078
-0.015379842 -0.00044587592 0.0038390087 0.008410176 0.0046349587 -0.005323656 -0.0018276045 -0.0012051598
-0.02766851 -0.0044711884 -0.0030127387 0.008842312 -0.003147496 -0.0064904788 -0.023859523 0.044970207

model.1.running_var f4 [32]
00000000: 8007 a740 d2e1 1640 cfc9 2a41 28f7 a540
00000010: 48c4 1d40 6cdc 9540 f195 8540 23cd 9140
00000020: 9896 6640 a08a 9a40 2187 aa40 f01c 8240
00000030: 5255 ea40 d1ec d040 5395 4640 6852 1a40
00000040: 651c 5840 9bdf 433f 0553 9c3f 250e 8640
00000050: 0ec7 b440 7398 ff3f ec16 a43f f3fe 8e40
00000060: 8944 9241 e92e b540 fc8f 873f 37c4 6c40
00000070: 7db1 813f 6851 4040 06e0 e440 a7a8 be41
5.2196655 2.357533 10.67427 5.1864204 2.465105 4.683157 4.1745534 4.556291
3.6029415 4.829422 5.328995 4.0660324 7.322915 6.5289083 3.102864 2.4112797
3.376733 0.7651307 1.2212836 4.1892266 5.6492987 1.9968399 1.2819495 4.4686217
18.283464 5.6619763 1.0590816 3.699476 1.013229 3.0049686 7.1523466 23.83235

model.4.weight f4 [32, 32]
00000000: b594 9ebf dbef 4fbe 67f7 67be 656c 06be
00000010: 5e9e 8cbe e416 d2bf cda6 2e3e 8e9b a93e
00000020: c87b 4e3e 3d96 37bc 97c6 66be 0b67 36be
00000030: b539 41be f851 7cbe a920 bfbd 629c d33d
00000040: 6380 95be 5c8b 74be ec29 cf3d ec9f a03d
00000050: ae37 10be ee2b cf3e 5a11 a23e 79c4 1abf
00000060: 146a 87bf 3295 033e a868 9c3c b098 b43d
00000070: cbf1 e53d a21a 15bf 2bdb a3be 7251 ed3f
00000080: 7e9c 803e a05a 20bf dfd1 de3e 0eed dfbd
00000090: f6bb 2d3f 2c5c 40be 4728 453f 8429 9d3e
000000a0: 2200 6ebe 9b80 57bf 2c5d 3cbf ab16 80bd
000000b0: 9782 283e 7b01 18bd 6a62 20bf d9e1 1bbd
000000c0: d83d 9fbe 61c5 6dbe 5711 063e 6654 adbd
000000d0: f895 19be e49f debe 0b31 0e3f 76c5 85be
000000e0: c6e4 11bf aba2 88bd 5f01 833e 72af 1e3f
000000f0: c55e 883e 207e 3cbf 264a 213e efa6 bd3f
00000100: fbb5 bcbe 8f89 e1bd f51f 5dbf 3583 223f
00000110: ef45 81bd fd24 b5be 35e5 783e ae15 1fbe
00000120: 40d9 fbbd 7e16 85bd 084c 92bd 8afb 8abe
00000130: 8d80 493e 796c 333f 9614 d5bd 3aef 5cbf
00000140: d7dc a5bf e3a9 2cbd 04a8 763e f490 8dbe
00000150: a250 37be 70fe 2ebe c3d6 c53d eb18 abbf
00000160: 7be0 3bbf 2f78 a3be dc63 89bd 0948 23be
00000170: cbb8 803e 0275 12bd 2eb8 c9bf 91e3 983f
00000180: f59c 8f3e 28f5 a5bd 3775 25bf 7540 c43e
00000190: b898 46be 7ce2 9abe b6fd 103f 639f 0cbf
000001a0: 3b4e bcbe 9550 9f3e e5b6 753e c361 57be
000001b0: b544 a6bf b468 db3d 2e05 acbe bf19 a9bf
000001c0: 8994 85bf 2821 e8be a8ca 5f3e ca58 8f3e
000001d0: 9ffe 223e 321e 79be 6002 52be ea26 1fbf
000001e0: 95ef 30bf c4e9 8ebf 12c6 563d 5165 cdbe
000001f0: 8fd5 a93e 62f1 5dbc abb8 44bf 2f68 5e3f
00000200: 37fa 6ebf 61d0 7c3e cf22 bebe adc3 943e
00000210: 4583 07bf fa46 21be 6dbe ad3e 245e 853c
00000220: 10eb 0bbf 3530 ce3d 2a0f 44bb 2000 cbbe
00000230: 6141 89bf d778 863e c5a3 a8be 86aa 7dbf
00000240: 8e49 83bf 754c 3abf cdef 2d3d 242e 793e
00000250: 3718 cf3e d602 f2be ca5c 8d3e c5f8 66be
00000260: 51af f3be ce4c 9fbf 18c1 873e 502f a2be
00000270: d0e3 a13e 0e24 543e 3aad bcbf 15f3 613f
00000280: 59ec 413d f984 04bf 2222 6d3d 7de2 7b3e
00000290: f453 79bf 7a8d e9be 9c45 1fbf 8461 1abf
000002a0: d459 343d 8e91 df3e 782a 113d f072 863e
000002b0: c70c 39be 7940 d13e 7a72 3ebf 17b7 953d
000002c0: 06dd 873e 671a 923f dcec 5b3f 3a42 e23e
000002d0: 2a38 9fbf 627c 17be 8953 16bf 6d96 ec3e
000002e0: a29e 5f3e ad8d 263f 2300 2b3e c3c6 cc3d
000002f0: f394 993e eeed 7c3f 40a1 503f 7deb 5cbf
00000300: b1c7 493d 4e1b 853e 0d97 783e 7e92 20c0
00000310: 1dd6 6dbe 1d13 173f e79b 5c3f 26c5 553e
00000320: cc9f 553e 9083 a9be ebc3 e53d 06cd f23e
00000330: a55c c5ba 2a62 74bf 010f ce3e a404 b1be
00000340: 812d 2bbe ef71 9dbd edf8 a8bf 178c d2bf
00000350: b197 7e3f 9dbb 033f afec 8abe 5ab4 9a3d
00000360: a335 443b c76d 0cc0 d736 8dbf 57e9 74bf
00000370: 4935 9fbf beb1 6e3e 3395 843e 5d2e 25c0
00000380: 9503 883e f887 09be ec7a aa3e 29bf a73d
00000390: 921c ee3e 8635 2fbe 6096 20be d614 13bf
000003a0: 3689 2fbf 7ed1 a8bd 3c76 d53c 9c16 5e3e
000003b0: a37a 40bf d4c2 7bba 8ad1 9dbe f296 a4bf
000003c0: 1421 2abe 1d9c 92be 0274 bd3d d818 83bf
000003d0: ffed cdbd bdc8 9fbf 1565 763f 5d5f a0be
000003e0: 8fca 2e3f 5154 c13e a276 f0bd 1dbe a83f
000003f0: 8f6a 7a3e d112 8abe 835c 8cbe ed83 843f
-1.2389132 -0.20306341 -0.2265297 -0.13127287 -0.27464575 -1.6413236 0.17055817 0.3312649
0.20164406 -0.011205253 -0.22536694 -0.17812745 -0.1886967 -0.24640644 -0.09332401 0.10332562
-0.29199514 -0.23881286 0.10115418 0.07843003 -0.1408374 0.40463203 0.31653863 -0.60456043
-1.0579247 0.12849882 0.019092873 0.08818185 0.11227759 -0.58243763 -0.3200315 1.854048
0.25119394 -0.6263828 0.43519494 -0.109338865 0.6786493 -0.18785161 0.77014583 0.30695736
-0.23242238 -0.8418061 -0.7357967 -0.062543236 0.16456066 -0.037110787 -0.6265017 -0.038057182
-0.3110187 -0.23219825 0.13092552 -0.08463363 -0.14998615 -0.43481362 0.55543584 -0.26127213
-0.56989706 -0.066716515 0.25586984 0.6198646 0.26634803 -0.7362995 0.15750942 1.4816569
-0.3685759 -0.11012565 -0.8637689 0.63481456 -0.06312167 -0.35379782 0.24306186 -0.15535614
-0.122972965 -0.06498431 -0.07143408 -0.27145034 0.19677944 0.7008739 -0.10404317 -0.8630253
-1.295802 -0.042154204 0.2408753 -0.27649653 -0.17901853 -0.17089248 0.09660103 -1.3366979
-0.73389405 -0.3192763 -0.067085 -0.15945448 0.25140986 -0.03575612 -1.5759332 1.1944448
0.28049436 -0.081034005 -0.6463198 0.38330427 -0.19394195 -0.3025092 0.5663713 -0.54930705
-0.36778435 0.31116167 0.2399555 -0.21033387 -1.2989718 0.1071333 -0.33597702 -1.3210982
-1.0435954 -0.45337796 0.21854651 0.27997428 0.15917443 -0.24327925 -0.20508718 -0.62168753
-0.69115573 -1.116509 0.05243499 -0.4011636 0.33170745 -0.01354632 -0.7684428 0.8687772
-0.9335055 0.24688865 -0.37135932 0.2905554 -0.52934676 -0.15749732 0.33934346 0.016280241
-0.5465555 0.100677885 -0.0029916265 -0.39648533 -1.0723077 0.26264068 -0.32937446 -0.99088323
-1.0256822 -0.72772914 0.04246502 0.24334008 0.40448162 -0.4726779 0.27609855 -0.22555836
-0.47594693 -1.2445314 0.26514506 -0.31676722 0.3161912 0.20716879 -1.4740365 0.8826154
0.04734454 -0.517654 0.05789388 0.24598117 -0.9739373 -0.4561575 -0.6221559 -0.6030505
0.04403098 0.43665737 0.035440892 0.26259565 -0.1807128 0.408695 -0.7439343 0.07310312
0.26535815 1.1414307 0.85908294 0.44191152 -1.2439015 -0.14793542 -0.58721215 0.46208516
0.21837857 0.6505993 0.16699271 0.09998848 0.29996452 0.9880055 0.8149605 -0.86296827
0.049262706 0.25997394 0.24276371 -2.5089412 -0.23226209 0.5901354 0.8617539 0.20875987
0.20861739 -0.33108187 0.11219009 0.47422045 -0.0015057517 -0.95462286 0.40245822 -0.34573853
-0.16716577 -0.07687747 -1.3200966 -1.6449002 0.9945021 0.5145815 -0.271337 0.075539306
0.0029939197 -2.1942003 -1.1032361 -0.9566855 -1.2438136 0.23309991 0.2589508 -2.5809548
0.26565233 -0.13430774 0.33296907 0.08190758 0.46506172 -0.17110261 -0.15682364 -0.5745367
-0.6856874 -0.082430825 0.026057355 0.21688312 -0.7518713 -0.0009603922 -0.30823928 -1.2858565
-0.16614181 -0.2863473 0.09250642 -1.0241957 -0.1005516 -1.2483135 0.9624799 -0.31322756
0.6827783 0.3775964 -0.117413774 1.3183018 0.24454711 -0.2696748 -0.2741433 1.035276

model.4.bias f4 [32]
00000000: f62e 163a ae6d 90ba 10a7 bab7 b3ee 7ab9
00000010: a8c6 cfb9 3256 86ba 1af1 a8ba fe68 5db9
00000020: d096 c9b9 3039 22bb 3163 bf39 fa6a a33a
00000030: 5eb4 423b 20f4 feba 00ea acb9 a813 0939
00000040: e4bf 8a3a 98e9 c739 ac63 5d3a e020 6539
00000050: 350a 5eba e0ca a53a 5895 94ba bb2a 00ba
00000060: fc21 f63a ea18 3439 0e76 a33a fa4b df39
00000070: 1a90 dab9 d099 30b9 c522 5c3a a2d2 1bb8
0.00057290436 -0.0011019015 -2.2250722e-05 -0.0002393078 -0.00039630127 -0.0010249077 -0.0012889237 -0.00021115315
-0.00038450072 -0.0024753325 0.00036504262 0.0012467795 0.0029709558 -0.0019451417 -0.0003298074 0.0001307266
0.0010585752 0.0003813028 0.0008445333 0.00021851389 -0.0008470149 0.0012648962 -0.0011336012 -0.000488918
0.0018778439 0.00017175419 0.0012471096 0.00042590481 -0.00041687564 -0.00016841968 0.0008397515 -3.7151047e-05

model.5.weight f4 [32]
00000000: 0169 a03f 3d0f 823f 28ea 9f3f 5d5e 923f
00000010: 8c90 ad3f b07a 903f cf31 b93f 00cc 943f
00000020: e821 803f 6023 af3f 7b37 963f 2210 923f
00000030: e9f7 8e3f 3e48 8d3f 882f 9e3f 98a7 8a3f
00000040: 977e ac3f 9d94 8e3f 46e5 373f eb77 953f
00000050: b8e4 a53f 19b0 9f3f ed02 a13f 3911 883f
00000060: 1fee 6b3f d109 823f dc3f c03f cfd9 9d3f
00000070: f025 903f bae8 b03f 9de0 9b3f a72b 9a3f
1.2532045 1.01609 1.2493334 1.1435047 1.3559737 1.1287441 1.4468325 1.1624756
1.0010347 1.368267 1.1735681 1.1411173 1.1169406 1.1037672 1.2358255 1.0832396
1.3476132 1.1139103 0.7183422 1.1677221 1.2960424 1.2475616 1.2579018 1.0630256
0.9216022 1.0159246 1.5019488 1.2332095 1.1261578 1.3821023 1.2177922 1.2044572

model.5.bias f4 [32]
00000000: 7e23 81be 1728 023e bcee 3fbe 16aa b83a
00000010: 9a8a 0abf fb30 79bf 98b7 29bf b566 ffbe
00000020: 8175 c0bf c30e 9dbe 8046 edbd 4957 5a3c
00000030: 979c cbbe d49a 2b3d eb22 55bf 479a c3be
00000040: 420b 02be 7537 89bc 4bb1 fe3e 6798 05be
00000050: b902 1cbe 334c a2be 0369 28bf 989e 353e
00000060: 3f40 4f3e b607 163e 6312 18bf 68ef 69be
00000070: 1e8a 48bb 607f dabe eab6 87bf 4f01 81bf
-0.2522239 0.12710606 -0.18743414 0.0014088775 -0.5411774 -0.97340363 -0.66295767 -0.49883047
-1.5035859 -0.30675325 -0.115857124 0.013326474 -0.39767906 0.041895702 -0.83256406 -0.38203642
-0.12699607 -0.016750077 0.4974464 -0.13046418 -0.15235414 -0.3169876 -0.65785235 0.1773628
0.20239352 0.14651379 -0.59403056 -0.22845232 -0.0030599902 -0.42675304 -1.0602696 -1.0078524

model.5.running_mean f4 [32]
00000000: 0bd9 a7bf 7a93 47bf 1a35 aabf 9b7f bbbf
00000010: da6d ebbf 8d57 293f d6f2 69bf 9dcf 5dbf
00000020: 2cee 9a3f a1f2 afbf a33f 55bf 1959 b1bf
00000030: bf12 c4be 4e09 12bf 3426 42bf 0afc d6bd
00000040: 785f a8bf 61d2 05bf 1dbd 19bf 6df2 40bf
00000050: 6a8d c6bf d650 5fbf 57fe 4ebf 3713 acbf
00000060: 6d4d bebe 605f 54bf 3d4b 81bf 83ae 82bf
00000070: 57ee 92bf b137 98bf 2f68 da3d b668 5fbf
-1.3113111 -0.77959406 -1.3297455 -1.4648317 -1.8392899 0.66149217 -0.91386163 -0.8664492
1.2103934 -1.374592 -0.83300227 -1.3855315 -0.38295552 -0.5704545 -0.75839543 -0.104972914
-1.3154135 -0.5227414 -0.6005419 -0.7536991 -1.5511906 -0.8723272 -0.8085684 -1.3443364
-0.37168446 -0.8295803 -1.0101086 -1.0209507 -1.1478986 -1.1891996 0.10664403 -0.8726915

model.5.running_var f4 [32]
00000000: d488 4240 d303 0e40 e8a6 1d40 348d 2340
00000010: b970 8140 9515 583f e1cc 8d40 e56f be3f
00000020: b61a 833f fdb6 5540 4e74 3840 30c4 7a40
00000030: fab0 593f f1a9 2d40 57c4 be3f fecc e83e
00000040: 3232 3540 7622 0d40 15e2 753f db2d 0340
00000050: c6a0 8a40 1b63 dd3f fcd7 953f 1c19 1640
00000060: c8c3 483f e0a6 2f40 d213 6d40 1a17 f43f
00000070: d5f3 0040 baf3 1f40 7860 c23d 1b3d b73f
3.0396013 2.2189834 2.4633121 2.5554934 4.04501 0.8440793 4.4312596 1.4877898
1.0242527 3.3392937 2.8820987 3.9182243 0.8503567 2.7134974 1.4903668 0.45468897
2.8311887 2.2052283 0.960481 2.0496738 4.3321257 1.729587 1.1706538 2.3452826
0.7842374 2.7445602 3.7043347 1.906955 2.0148823 2.499251 0.09491056 1.4315523

model.8.weight f4 [1, 32]
00000000: e736 da3e 6641 903e 3cdb c83e 924e ae3e
00000010: a175 093f 8b86 20bf 4b95 50bf 34a0 f43e
00000020: 37eb 4dbf ccfb ed3e a0cc aa3e b2a0 ad3e
00000030: cb9b bc3e df71 bc3e afa3 0e3f 4921 c13e
00000040: a4d4 e33e fbf8 bf3e 0193 933e 5abc c33e
00000050: 666d bf3e 819c ed3e 0472 0d3f 210e 873e
00000060: 437d 993e 20c8 a83e 3847 55bf 4b5d d03e
00000070: 8c5a ba3e ed3b 023f 3625 343f 3681 4b3f
0.42620012 0.28174895 0.39229763 0.3404432 0.5369511 -0.62705296 -0.81477803 0.47778475
-0.80437034 0.46481168 0.3335924 0.33911663 0.3683761 0.36805627 0.5571851 0.37720707
0.4449817 0.37494645 0.28823093 0.38229638 0.37388152 0.46408466 0.552521 0.26377967
0.2997838 0.32965183 -0.83311796 0.40696177 0.36397207 0.5087269 0.7036928 0.79494035
