squat_model.pth (torch, 42102 bytes, 13 tensors)

model.0.weight f4 [160, 19]
0	0xc03739e0	-2.8629074
1	0xc09b5dea	-4.855214
2	0xbfc57be8	-1.5428438
3	0xbfd7a5cf	-1.6847476
4	0xc00cda10	-2.2008095
5	0x405c926f	3.4464376
6	0x3faf1796	1.3679073
7	0xbeaf164c	-0.341967
8	0xbf629003	-0.88500994
9	0x3fcb349e	1.5875432
10	0x401b2480	2.4241028
11	0xbfa81318	-1.3130827
12	0xc00e8379	-2.2267745
13	0x40c3247b	6.098203
14	0x4052328a	3.2843347
15	0xc01398d8	-2.3062038
16	0xbfbc6472	-1.4718153
17	0x3f5159a6	0.8177742
18	0xc00e3763	-2.2221305
19	0xc0e731b1	-7.224816
20	0xbf03a580	-0.5142441
21	0x3f059c30	0.5219145
22	0xc03320d5	-2.798879
23	0x3fbc3abb	1.4705423
24	0xbf575b34	-0.8412354
25	0xbf63ebf1	-0.89031893
26	0x3e48fb34	0.19627076
27	0xc09946f1	-4.78991
28	0x3fde1785	1.7350928
29	0x3f5bdb19	0.8588119
30	0x3f58518a	0.8449942
31	0x403ae8a2	2.9204488
32	0x3e874556	0.26420087
33	0x400c09ee	2.188106
34	0x3ef82a70	0.48469877
35	0x4070449c	3.7541876
36	0xbfe9b0c6	-1.8257072
37	0xc09806f3	-4.7508483
38	0xbf8f4c38	-1.1195135
39	0xbf75ce2e	-0.9601773
40	0xbf4981db	-0.7871377
41	0xbc87fa50	-0.01659885
42	0x40d0c74f	6.5243297
43	0xbf07a489	-0.52985436
44	0xbf449c15	-0.7680066
45	0x3fdf3a7c	1.7439723
46	0x408150b4	4.0411015
47	0xbff9e630	-1.9523373
48	0x3f2f1d23	0.68403834
49	0x3f7d5fc1	0.98974234
50	0xc071310f	-3.7686193
51	0x4007224d	2.1114686
52	0x406e23e9	3.7209418
53	0xbf3c57da	-0.7357155
54	0xc069d020	-3.653328
55	0x3fe0398d	1.7517563
56	0x407a226b	3.9083507
57	0x3fb91cc2	1.4461901
58	0xc0771392	-3.8605695
59	0xbe59cf61	-0.21270515
60	0x3da16304	0.07880214
61	0xbfcba56d	-1.5909859
62	0x3ff54dc9	1.9164363
63	0x3fbbec03	1.46814
64	0x3f782791	0.96935374
65	0x3fdec106	1.7402656
66	0x4069e738	3.6547375
67	0x4082d90e	4.088996
68	0xbff58401	-1.9180909
69	0xc004fb5c	-2.0778418
70	0xbea97427	-0.3309643
71	0xbf0b814b	-0.5449416
72	0x3ef3ec31	0.47641137
73	0xbf6abfdf	-0.9169902
74	0x3fcc5b64	1.596539
75	0xc0759749	-3.8373587
76	0x09f2decd	5.84689e-33
77	0x09e502de	5.513244e-33
78	0x89e81f3b	-5.5881337e-33
79	0x09eb9020	5.6709727e-33
80	0x09dd12da	5.3221543e-33
81	0x89eb878e	-5.6701667e-33
82	0x89dfd166	-5.3882215e-33
83	0x89de3f82	-5.350428e-33
84	0x89de1fa1	-5.34743e-33
85	0x09e6d4e4	5.5570687e-33
86	0x89e0e1d2	-5.41384e-33
87	0x89d97654	-5.2352125e-33
88	0x09e6414c	5.543189e-33
89	0x09e8a7fa	5.6009933e-33
90	0x09ee1bc4	5.7322527e-33
91	0x89e91f06	-5.6121884e-33
92	0x09ded0cd	5.364091e-33
93	0x09f203aa	5.8262826e-33
94	0x09f0f134	5.8004725e-33
95	0xa1b4e2cd	-1.2257308e-18
96	0xa13013a0	-5.9657093e-19
97	0xa20d21aa	-1.9126885e-18
98	0xa0fef9ec	-4.3194658e-19
99	0x214e51c0	6.990371e-19
100	0xa07fb054	-2.1657682e-19
101	0x2027a780	1.4200871e-19
102	0xa10a508a	-4.686281e-19
103	0xa14a7278	-6.859176e-19
104	0xa1bd7032	-1.2836836e-18
105	0x20ec300e	4.0011755e-19
106	0xa1282711	-5.697232e-19
107	0x2203b098	1.7847299e-18
108	0xa1356508	-6.14589e-19
109	0x21406add	6.5193563e-19
110	0xa0651b8c	-1.9406169e-19
111	0x21bb9091	1.2709879e-18
112	0xa1b443d2	-1.2215226e-18
113	0xa01753f0	-1.281797e-19
114	0xbc9d2473	-0.01918242
115	0x3d9d6add	0.07686398
116	0x3fdf7dca	1.7460263
117	0x4022a689	2.5414145
118	0x40412d6b	3.018397
119	0x3fcb9e0e	1.590761
120	0x3ff3346a	1.900037
121	0xbf39aaa3	-0.72525996
122	0x408ea6bd	4.457854
123	0xc00e9798	-2.2280025
124	0x3e097d7a	0.13426772
125	0xc01ffaf1	-2.4996912
126	0xbf98f68b	-1.1950239
127	0x3f397d23	0.7245657
128	0xbfa55e3c	-1.2919383
129	0x3f1e16bb	0.61753434
130	0x3f8a7280	1.0816193
131	0x401c3d43	2.441239
132	0xc0a24874	-5.0713444
133	0xbf396fd4	-0.7243626
134	0xbed69730	-0.41912222
135	0xbec67c8a	-0.3876689
136	0x3f33bac7	0.70206875
137	0x3ebb8850	0.36627436
138	0xbe900c3c	-0.28134334
139	0x3e84f31b	0.25966725
140	0x3f255187	0.64577526
141	0xbf649eee	-0.8930501
142	0x3ef653fc	0.4811095
143	0xbe92a26d	-0.28639546
144	0xbead50f0	-0.33850813
145	0xbecd3018	-0.40075755
146	0xbf93949d	-1.1529728
147	0xbec82fe8	-0.3909905
148	0xbed479c6	-0.41499156
149	0x3d5d5714	0.054038122
150	0x3ebedbdc	0.37277114
151	0xbf44c5f9	-0.7686458
152	0xc07e3fc5	-3.9726422
153	0xbf11e888	-0.5699544
154	0x3e8ba04d	0.27270737
155	0x3fa1a240	1.262764
156	0xc02f1fe7	-2.7363222
157	0xbf9c6448	-1.2218103
158	0x3cbc955c	0.023020439
159	0xc06acebb	-3.6688678
160	0xc0ca523d	-6.322539
161	0xbf44b58f	-0.76839536
162	0xbf564b23	-0.837084
163	0xbe8ad01a	-0.27111894
164	0x4010d44d	2.2629578
165	0x3fb3fe20	1.4061928
166	0xbccf82e5	-0.02533097
167	0x3f9dfab2	1.2342131
168	0x40953a33	4.6633544
169	0xc025ea3a	-2.592421
170	0xbabfa9b8	-0.0014622724
171	0xbf810796	-1.008044
172	0xbeebe9be	-0.4607677
173	0xc03a2ae4	-2.9088678
174	0xbe5720f6	-0.21008667
175	0x3f0c4286	0.54789007
176	0xbdc4fdcf	-0.09618723
177	0x3eb2fc94	0.34958327
178	0xbeb624cf	-0.35574958
179	0x3fc47c4c	1.5350432
180	0x410aa823	8.666049
181	0x3cc12d07	0.023581041
182	0x3e6957b2	0.2278736
183	0xc0910f7b	-4.5331397
184	0x41245def	10.272933
185	0x400a9c6c	2.1657972
186	0x3f74cda1	0.95626265
187	0xc0bc6c6d	-5.8882356
188	0xbf597746	-0.8494762
189	0xbf3739fa	-0.7157284
190	0x3fec8072	1.8476698
191	0xbe79ffa5	-0.24413927
192	0x3f035dc5	0.51314956
193	0xc0f62447	-7.6919284
194	0x4077210b	3.8613918
195	0x3f3b9f4a	0.7328993
196	0xbec71913	-0.38886318
197	0xc050bb35	-3.2614262
198	0x3faf9e7d	1.3720242
199	0x3fb5e84c	1.4211516
200	0xbf636b42	-0.8883554
201	0x3fbdffbb	1.4843668
202	0xbf40be7e	-0.7529067
203	0x40813c82	4.038636
204	0xbf1cf50d	-0.6131142
205	0x40397a69	2.8980963
206	0x3f396395	0.72417575
207	0x3e0cff97	0.13769375
208	0x3f6904e8	0.9102311
209	0xbfaf7d55	-1.3710123
210	0xbfd134cb	-1.6344236
211	0xc00ace75	-2.1688511
212	0x3df8fdeb	0.12157806
213	0x3eddc6ea	0.43315822
214	0xbe2824c8	-0.16420281
215	0xbe6fdbf4	-0.23423749
216	0x3e4b3944	0.19846064
217	0x3fb8814a	1.4414456
218	0x41027a31	8.154832
219	0x3e100561	0.14064552
220	0xbd47aa73	-0.048746537
221	0xc07c1fb2	-3.9394345
222	0x4120f61d	10.060086
223	0x3f003438	0.5007968
224	0x3f4d9f8f	0.8032159
225	0xc086f334	-4.217188
226	0xbfb35bdf	-1.4012412
227	0xbf8c5d9e	-1.096607
228	0xbfa77ff4	-1.3085923
229	0x3e25aabc	0.16178411
230	0xbfdeab90	-1.7396107
231	0xc0699b3e	-3.6501002
232	0x3f048c20	0.51776314
233	0x403daeba	2.9637895
234	0x3f43d086	0.76490057
235	0x3d9008e0	0.07032943
236	0xc03628b0	-2.8462334
237	0x3e675482	0.22590831
238	0x404ac277	3.1681192
239	0x40c7825c	6.234663
240	0xbe4f9a56	-0.20273718
241	0xc00d4fad	-2.207988
242	0x405d8e9e	3.4618297
243	0x4088731b	4.264051
244	0xbff5e308	-1.920991
245	0xbfd94ae0	-1.6975975
246	0xbed7ca21	-0.421464
247	0xbf12df45	-0.5737193
248	0xc024a0e8	-2.572321
249	0xbfe02bbb	-1.7513345
250	0xbfa92207	-1.3213509
251	0x3fd4536f	1.6587962
252	0x3fdd932f	1.7310542
253	0x3fa4412c	1.2832389
254	0x3e34d585	0.17659576
255	0x40659485	3.58719

model.0.bias f4 [160]
0	0x3a32fe51	0.0006828057
1	0x3a12682e	0.0005584982
2	0x399934a9	0.0002922167
3	0x38a2b4c4	7.758432e-05
4	0x89f0abf8	-5.7939617e-33
5	0x95dfdfda	-9.042216e-26
6	0x38f89db0	0.00011854933
7	0x3904898a	0.00012639738
8	0x39c7c422	0.00038102368
9	0x397dc854	0.00024202588
10	0x38f46432	0.000116534895
11	0xbb0758e1	-0.0020652341
12	0x39a89b44	0.0003215914
13	0x395421ae	0.00020230442
14	0x39aa80d2	0.00032520905
15	0x3944ef28	0.00018781109
16	0x3abbe4ed	0.0014335193
17	0xb8e2c17e	-0.000108125605
18	0x3ab2d445	0.0013643584
19	0x39c8ab58	0.00038274634
20	0x39decfbc	0.00042497914
21	0xba41d212	-0.00073936686
22	0x3a3fdcad	0.0007318955
23	0x3784d2d0	1.5833793e-05
24	0xba3507f8	-0.00069057895
25	0xb9b19d02	-0.0003387705
26	0xbae8c451	-0.0017758702
27	0xb9c2ea2a	-0.0003717703
28	0x8a063e3e	-6.463572e-33
29	0x38e17804	0.00010751191
30	0x09f3fbb8	5.8736837e-33
31	0xb966a2da	-0.00021995176
32	0x39fa10f7	0.00047696356
33	0xba81d300	-0.0009904802
34	0x38b718a2	8.730708e-05
35	0xb8ae50aa	-8.3119914e-05
36	0xbab64f86	-0.0013909198
37	0xb9a19de8	-0.00030825962
38	0xba95d48e	-0.0011431144
39	0x394196d5	0.00018462104
40	0x3aa03241	0.0012222008
41	0xb9d67294	-0.00040902628
42	0x3a1fbcf4	0.0006093525
43	0x3a75e469	0.0009380044
44	0xba2ee5f9	-0.0006671842
45	0x38dc8630	0.00010515412
46	0xb9bbac53	-0.0003579581
47	0x3a90d94a	0.0011051085
48	0xb7bd6f10	-2.2582273e-05
49	0x396dd68c	0.00022682006
50	0xba5f1d9f	-0.0008511189
51	0x37fffa40	3.05149e-05
52	0x39595f6c	0.0002073028
53	0xb919a292	-0.00014651779
54	0xb9b1e1a0	-0.00033928175
55	0x3a2e51de	0.00066497724
56	0x39ba8aaf	0.00035580012
57	0x39d975cf	0.0004147724
58	0xb9f26181	-0.00046230483
59	0xba991601	-0.0011679531
60	0x38f9b6f4	0.00011907323
61	0x3917fbb8	0.00014494255
62	0xb88ff48f	-6.864324e-05
63	0x3aa622ca	0.0012675163
64	0xb9485ba8	-0.00019107631
65	0xb94d16f4	-0.00019558874
66	0x392df490	0.00016589672
67	0xb9caf5c0	-0.0003871154
68	0x09fcd7e0	6.08698e-33
69	0xb96f69ec	-0.00022832275
70	0xb7a6fea3	-1.9907317e-05
71	0xba2b84c6	-0.0006542917
72	0x3a270f4c	0.0006372824
73	0xb9ad6931	-0.00033075505
74	0xb7d3e7d0	-2.5261106e-05
75	0xb8a8745f	-8.03254e-05
76	0xb9863f4b	-0.0002560563
77	0x39b80c3b	0.00035104327
78	0x39a89552	0.0003215471
79	0x89de3810	-5.3497277e-33
80	0x3b01a89e	0.0019784342
81	0xb9b56a8c	-0.00034602394
82	0x0a04acb8	6.3880536e-33
83	0x3a86c7d0	0.0010282937
84	0x8a037db0	-6.33106e-33
85	0x39894d98	0.00026188488
86	0x3b08bef5	0.0020865772
87	0x387d872d	6.0445793e-05
88	0x3a008bcf	0.00049036456
89	0xb8efdf11	-0.000114379574
90	0x39c81167	0.00038159938
91	0x38f9f223	0.00011918347
92	0xb92a4e9a	-0.00016241745
93	0xba24163c	-0.00062594167
94	0xb8947d40	-7.0805196e-05
95	0x09e1ed58	5.4389977e-33
96	0x89dc1738	-5.298491e-33
97	0xb9c6e348	-0.0003793484
98	0x3a50bea6	0.0007962979
99	0x3a805354	0.0009790459
100	0xb7c51cdc	-2.3497669e-05
101	0xb91c07a1	-0.00014880161
102	0xba0b9706	-0.00053249334
103	0xb9fd720a	-0.00048340886
104	0x3a93b887	0.0011270203
105	0xba00769e	-0.0004900488
106	0x09fb0e00	6.0439218e-33
107	0xba3011ca	-0.0006716518
108	0xb9dca7f2	-0.000420868
109	0xb494e000	-2.773013e-07
110	0xb99bcddc	-0.0002971728
111	0xba16e332	-0.00057559006
112	0x3a2c5649	0.0006574137
113	0xb912afed	-0.00013989182
114	0xb8824902	-6.212482e-05
115	0xba06f0e8	-0.0005147592
116	0x3a906a75	0.0011018055
117	0x89f74380	-5.9526564e-33
118	0xb8a31022	-7.775451e-05
119	0xba0bcf41	-0.00053333124
120	0x39a7a650	0.00031976635
121	0xb9643278	-0.00021762575
122	0xb81e1b04	-3.7695296e-05
123	0xba06b4c9	-0.00051386334
124	0x0a04f344	6.401322e-33
125	0x8a0698a8	-6.480577e-33
126	0xb9b598d6	-0.00034636882
127	0x39db2060	0.00041795056
128	0xb9e8d514	-0.00044409244
129	0x393ddbd8	0.00018106343
130	0xba1a7d8e	-0.0005893343
131	0xb9c78abc	-0.00038059603
132	0x3a52f60a	0.0008047527
133	0x89e60090	-5.5371015e-33
134	0xb8af2174	-8.3508814e-05
135	0x39e6eac6	0.00044043938
136	0xb884e470	-6.3368e-05
137	0xb9d5e4c6	-0.00040796975
138	0xb85842e8	-5.1560724e-05
139	0xba88f2e6	-0.0010448366
140	0xb84579a6	-4.7081754e-05
141	0xb8e57fd0	-0.00010943378
142	0x391c3855	0.00014898305
143	0x39690748	0.00022223324
144	0xb9b6f5dd	-0.00034896928
145	0xbaaf9f1d	-0.001339886
146	0x37fd1680	3.0170428e-05
147	0xba04f08b	-0.0005071244
148	0xba181884	-0.0005801993
149	0xba7fffb8	-0.0009765583
150	0x3a25e604	0.00063285255
151	0x3a0c46a8	0.0005351105
152	0x38a7875c	7.988393e-05
153	0x0a035864	6.324045e-33
154	0xba0dbc2e	-0.0005406764
155	0x3a22b667	0.00062069896
156	0x39c9667e	0.0003841407
157	0xb8f4fee8	-0.00011682307
158	0xb9300247	-0.00016785516
159	0x89f78310	-5.9586338e-33

model.1.weight f4 [160]
0	0x4073ecf0	3.8113365
1	0x408388e6	4.110461
2	0x406d9582	3.7122502
3	0x3f9ef0a8	1.2417192
4	0x89e67493	-5.548011e-33
5	0x220e83db	1.9314392e-18
6	0x402d8c2d	2.7116807
7	0x3da651fb	0.08121105
8	0x401ea7e4	2.4789972
9	0x40e7a185	7.2384667
10	0x4050b3c6	3.2609725
11	0x409aaaa3	4.8333297
12	0x40872d08	4.224247
13	0x4094a586	4.6452055
14	0x404c86e2	3.1957326
15	0x3fddf322	1.7339823
16	0x4099f015	4.810557
17	0x3fd2bd0f	1.6463946
18	0x406caa0a	3.6978784
19	0x40667ad1	3.601246
20	0x3fb17b94	1.3865838
21	0x407fff8a	3.9999719
22	0x4009850a	2.148745
23	0x4022c051	2.542988
24	0x3ff3fc4c	1.906137
25	0x40230e7f	2.5477598
26	0x40df7fc1	6.984345
27	0x40aa4148	5.320469
28	0xbc218e6d	-0.009860617
29	0x40135c0b	2.3024929
30	0x09e2299e	5.4446658e-33
31	0x405fa4fb	3.4944446
32	0x405267af	3.2875783
33	0x40378697	2.8675897
34	0x40aaffc8	5.3437233
35	0x403b1885	2.9233716
36	0x404f7787	3.2416704
37	0x4085d91a	4.1827517
38	0x40891939	4.284329
39	0x403ec700	2.980896
40	0x402ed1e5	2.731561
41	0x408261f0	4.0744553
42	0x404ee2c3	3.2325904
43	0x4036ee38	2.8582897
44	0x405ba49e	3.4319224
45	0x408b7c76	4.358943
46	0x40401924	3.0015345
47	0x4091030a	4.531621
48	0x402c1a51	2.6891062
49	0x40287b16	2.6325126
50	0x4002f22b	2.0460308
51	0x402e54d4	2.7239275
52	0x406e9af4	3.7282076
53	0x3facd924	1.3503766
54	0x405ceb09	3.4518454
55	0x405c3a1e	3.4410472
56	0x400304a9	2.0471594
57	0x3ff926e1	1.946499
58	0x403fa68b	2.99454
59	0x406efbb7	3.7341135
60	0x403cee85	2.952058
61	0x40647d75	3.5701573
62	0x3fb869cb	1.4407285
63	0x408161bd	4.043181
64	0x3fd3d5d4	1.654963
65	0x4087fd86	4.2496977
66	0x405f4484	3.4885569
67	0x402bbaf5	2.683286
68	0x3c17a04a	0.0092545245
69	0x404a9b15	3.1657155
70	0x3ea2bbe6	0.3178398
71	0x4090532e	4.510154
72	0x406898b4	3.6343203
73	0x40542c97	3.3152215
74	0x3fe8cf90	1.8188343
75	0x3f3314f8	0.6995387
76	0x40598249	3.398577
77	0x3fd3a128	1.6533556
78	0x4042d232	3.0440793
79	0xb09ee1cb	-1.1560187e-09
80	0x4062cb76	3.5436683
81	0x407f4fa1	3.9892352
82	0x0cd4655f	3.2724782e-31
83	0x3f717a3a	0.9432713
84	0x0a05ddf3	6.445461e-33
85	0x402e98e0	2.7280807
86	0x40e7f697	7.2488513
87	0x40420ed7	3.0321558
88	0x40582f03	3.3778694
89	0x40530b13	3.297551
90	0x405dfebc	3.4686728
91	0x40611dfb	3.5174549
92	0x40809caa	4.019124
93	0x40b17389	5.5453534
94	0x40017458	2.022726
95	0x89ee7028	-5.7401887e-33
96	0x35114a62	5.412495e-07
97	0x3fa075f7	1.2536
98	0x3fc53a37	1.5408391
99	0x40356cb7	2.8347604
100	0x3f2e0d49	0.6798902
101	0x3f2d6fc9	0.67748696
102	0x406a61b1	3.6622126
103	0x40402860	3.0024643
104	0x40bb39fb	5.8508277
105	0x4008fe92	2.1405377
106	0x89e7407d	-5.567187e-33
107	0x407a2fd8	3.9091702
108	0x4065c4fa	3.5901475
109	0x406d4d95	3.7078602
110	0x4054c8a0	3.3247452
111	0x3ff879e8	1.9412203
112	0x404ee95d	3.2329934
113	0x40872d6f	4.224296
114	0x3fd32115	1.6494471
115	0x4027e3e9	2.6232855
116	0x40c4df6d	6.1522737
117	0x0b5ec880	4.2906484e-32
118	0x3e4059a7	0.187842
119	0x40705807	3.7553728
120	0x408138cd	4.0381837
121	0x4082043e	4.063018
122	0x3f5cbb7d	0.86223584
123	0x40293567	2.6438844
124	0x38a74502	7.976034e-05
125	0x09eac956	5.6522786e-33
126	0x404631c0	3.0967865
127	0x40841e5a	4.128705
128	0x4005f911	2.0933268
129	0x401b26b8	2.4242382
130	0x406c79a2	3.6949239
131	0x406c25b5	3.6898015
132	0x4054a013	3.3222702
133	0xae819e08	-5.894313e-11
134	0x406cfdd0	3.7029915
135	0x401806fd	2.3754265
136	0x4073cf78	3.809538
137	0x4036d52d	2.8567612
138	0x3facc5c6	1.3497856
139	0x405859de	3.380485
140	0x3f0c556b	0.5481784
141	0x3f5f51eb	0.8723437
142	0x4019d248	2.4034595
143	0x400ed8ca	2.2319818
144	0x4053274c	3.2992735
145	0x4008f480	2.139923
146	0x4011bab2	2.27702
147	0x40810418	4.0317497
148	0x403e4430	2.9729118
149	0x40c34f1a	6.103406
150	0x3fed493f	1.8537978
151	0x3ffcd3e1	1.975216
152	0x3fe9c719	1.8263885
153	0x89441108	-2.360065e-33
154	0x404727cc	3.111804
155	0x40631d83	3.5486763
156	0x409c8aac	4.8919277
157	0x405b84dd	3.4299843
158	0x40556f4d	3.3349183
159	0x09f69fd4	5.9372647e-33

model.1.bias f4 [160]
0	0xbf8f2c39	-1.1185371
1	0xc08a2612	-4.3171473
2	0xc09a7af0	-4.827507
3	0x3f59c498	0.85065603
4	0x9e55e24c	-1.1322923e-20
5	0xb38f8242	-6.68265e-08
6	0xc048e7ef	-3.139156
7	0x3f0ed048	0.5578656
8	0xbfd89a16	-1.6922023
9	0xbffe8129	-1.9883167
10	0xc01e64df	-2.4749067
11	0xbf10fb8f	-0.5663385
12	0xc03a5fff	-2.9121091
13	0xc04a9e93	-3.1659286
14	0xbf78fb3f	-0.9725837
15	0xbf85e801	-1.0461427
16	0xc071aaf7	-3.7760599
17	0x3ec0d400	0.37661743
18	0xc041fd27	-3.0310762
19	0xbe906b5a	-0.28206903
20	0x3f2a3fe0	0.66503716
21	0xc051a9de	-3.2759929
22	0xbe814c18	-0.25253367
23	0xc00116cb	-2.0170162
24	0x3f2511ac	0.6448009
25	0xbedc0d7e	-0.42979044
26	0xc10d42f0	-8.828842
27	0xbfe37a3e	-1.777168
28	0xbdc42030	-0.09576452
29	0xbf8cae00	-1.09906
30	0xb830ca72	-4.215021e-05
31	0xbff0a970	-1.8801708
32	0xc0722902	-3.783753
33	0xbfb8dff0	-1.444334
34	0xc0150af8	-2.3287945
35	0xc087b631	-4.24099
36	0xbfdb6fa2	-1.7143443
37	0xbfd27dda	-1.6444657
38	0xc0a2cf65	-5.0878167
39	0xc06e418e	-3.7227511
40	0xc016588c	-2.3491545
41	0xc10335e3	-8.200656
42	0xc01d3534	-2.4563723
43	0x3ec49b8f	0.38399932
44	0xc086e87b	-4.215879
45	0xc0b0d65b	-5.5261664
46	0x3cc80e8e	0.024421003
47	0xbf88aa9d	-1.0677067
48	0xbf8b3de9	-1.0878268
49	0x3f1802bd	0.5937918
50	0xbf089f82	-0.5336839
51	0xbe1082b7	-0.14112364
52	0xc0b1ba8f	-5.5540233
53	0x3f07e872	0.5308906
54	0xc0910aba	-4.5325594
55	0xc02e8730	-2.7270012
56	0xbe114185	-0.1418515
57	0xbecfbb8c	-0.40572774
58	0xbfbbb6c1	-1.4665147
59	0x3f02534b	0.50908345
60	0xc0ab50a2	-5.353593
61	0xc0b60d58	-5.689129
62	0xbef9dd99	-0.48801878
63	0xc0e292de	-7.080428
64	0xbe9a46fa	-0.30132276
65	0xc0a5c1d9	-5.179913
66	0xc0a27bbd	-5.077605
67	0xbf057689	-0.52133995
68	0xbe99df1e	-0.30053037
69	0xbf9d51f4	-1.2290635
70	0x3d8fde60	0.070248365
71	0xc0e6a9bc	-7.2082195
72	0xc0c3b256	-6.1155195
73	0xc056adf7	-3.354368
74	0xbea1354a	-0.3148597
75	0x3e250cf1	0.16118218
76	0xc0a9428c	-5.2893734
77	0x3ddc3f50	0.107542634
78	0xbfb4658d	-1.4093491
79	0xb035a6ff	-6.608473e-10
80	0xbf0fc8d7	-0.5616583
81	0xc0ac0261	-5.3752904
82	0x8b30c19c	-3.4042023e-32
83	0x3f506e1a	0.81418
84	0xa8685d15	-1.2898771e-14
85	0xbd651678	-0.05592963
86	0xbfda4f5c	-1.7055469
87	0xbf68e2dd	-0.90971166
88	0xc04403d2	-3.0627332
89	0xc0159d4e	-2.337726
90	0xc0b91bcf	-5.7846446
91	0xbfe0cc12	-1.7562277
92	0xbffa2d42	-1.9545062
93	0xbfb140df	-1.3847922
94	0x3ef74f9d	0.48302928
95	0x89f38e2d	-5.8633824e-33
96	0xadb8e4e7	-2.1020031e-11
97	0xbd08bd42	-0.033383615
98	0xbcda33d3	-0.02663604
99	0xc01633c4	-2.3469095
100	0x3b877e4b	0.0041349283
101	0x3df5a78d	0.119948484
102	0xbf0c9393	-0.5491268
103	0xbf451e4e	-0.76999366
104	0xc03f2dc9	-2.9871695
105	0x3e822f72	0.25426823
106	0x8a0547a3	-6.4171904e-33
107	0xbfaa786d	-1.3318001
108	0xbf80083e	-1.0002515
109	0xc08c5986	-4.385928
110	0xc064c849	-3.5747244
111	0x3eef4346	0.46731013
112	0xc03494c0	-2.821579
113	0xc097c693	-4.74299
114	0xbf8270a9	-1.0190631
115	0xbfd512c1	-1.6646348
116	0xc01476f8	-2.3197613
117	0x99ee4ff0	-2.464091e-23
118	0x3ebb5203	0.36586007
119	0xbf98801a	-1.1914093
120	0xbfe4752b	-1.7848257
121	0xbfe8a8f5	-1.8176562
122	0x3cf0636a	0.02934428
123	0xc0574940	-3.3638458
124	0xb902d165	-0.00012475772
125	0xb9d0750a	-0.00039760052
126	0xbfffcc6c	-1.998426
127	0xc09c836d	-4.891043
128	0xbf8b9d97	-1.0907468
129	0xc034c449	-2.8244803
130	0xc029158e	-2.6419406
131	0xc09a94cc	-4.8306637
132	0xbff0f2c6	-1.8824089
133	0xa907e0bc	-3.0170948e-14
134	0xc0606f45	-3.5067914
135	0x3d7546e4	0.05988206
136	0xc07a1a89	-3.9078696
137	0xc00e6764	-2.2250605
138	0x3ea07a9a	0.31343538
139	0xbf94b651	-1.1618139
140	0x3f4e329d	0.8054598
141	0xbf6f3fad	-0.93456537
142	0xbf7e817b	-0.9941632
143	0xbeb65d63	-0.35618123
144	0xc0c0ed20	-6.028946
145	0xbfffc51c	-1.9982028
146	0xbfe07468	-1.7535524
147	0xc092b65b	-4.58476
148	0xc0864d0c	-4.196905
149	0xbfb83956	-1.4392498
150	0x3f18a3f6	0.59625185
151	0xbe905b79	-0.28194788
152	0xbf4b3203	-0.79373187
153	0xb8fe7dbc	-0.00012135084
154	0xbefacdc3	-0.4898511
155	0xc103cd1c	-8.237576
156	0xc00ba222	-2.1817708
157	0xc004ba43	-2.0738685
158	0xc0984f43	-4.7596755
159	0xbd2e8dd5	-0.04261573

model.1.running_mean f4 [160]
0	0x3d4b0145	0.049561758
1	0x3d6af38a	0.057361163
2	0x3e50adc9	0.20378794
3	0xbde250ab	-0.110505424
4	0x89fe2c4f	-6.1189943e-33
5	0x1fc327fe	8.2651874e-20
6	0xbe3b6bed	-0.18302889
7	0x3cde0fa8	0.027107075
8	0x3cd0df74	0.025497176
9	0xbd75a474	-0.059971288
10	0xbe10bfea	-0.1413571
11	0xbdafdcf8	-0.08587068
12	0x3e6e1022	0.23248342
13	0x3e45b878	0.1930865
14	0xbd0a8092	-0.03381402
15	0x3de2a8a6	0.110673234
16	0xbc95c0cc	-0.01828041
17	0xbe10146b	-0.14070289
18	0xbe59bff4	-0.2126463
19	0x3bed8070	0.007247977
20	0xbcb2b7dc	-0.021816187
21	0xbdcdf0a6	-0.10055666
22	0xbdf953ab	-0.121741615
23	0x3d674ea5	0.056471486
24	0xbc7d7d22	-0.0154717285
25	0xbcbf5f00	-0.02336073
26	0xbdb0f3f5	-0.08640281
27	0x3cd1c6e8	0.025607541
28	0x3305ab1c	3.11221e-08
29	0x3dfa6f14	0.12228218
30	0x09f9a37b	6.0098306e-33
31	0xbdc7428c	-0.0972949
32	0xbd255a55	-0.04036935
33	0xbd392715	-0.045203287
34	0x3d002580	0.031285763
35	0x3d47a8ce	0.04874497
36	0xbe545e2a	-0.20739046
37	0x3e2054d1	0.15657355
38	0xbc992a98	-0.018697068
39	0x3cd9cef0	0.026587933
40	0xbb35a3e0	-0.0027716085
41	0xbe05cec6	-0.13067159
42	0x3c8b25b8	0.01698576
43	0x3d318108	0.043335944
44	0xbdf2b5d0	-0.11851084
45	0x3e9ba2b1	0.3039756
46	0xbdb14af8	-0.08656877
47	0xbd990b83	-0.07472899
48	0xbe1739a1	-0.14768077
49	0x3cf127f0	0.029437989
50	0xbdd8450d	-0.105600454
51	0xbd4e64a8	-0.050388962
52	0xbda81c02	-0.08208467
53	0x3d620ad6	0.055186115
54	0x3d14c316	0.03631886
55	0x3e2475d2	0.1606057
56	0xbe43c5cf	-0.19118427
57	0xba35a0c0	-0.00069285557
58	0xbdac822d	-0.084232666
59	0xbdbc036d	-0.09180341
60	0xbdce4627	-0.10071974
61	0x3d8f7714	0.07005134
62	0xbcf1a464	-0.029497333
63	0xbd2202eb	-0.039553564
64	0x3d16e2fb	0.03683756
65	0xbc8a7518	-0.016901538
66	0x3e46419e	0.19360968
67	0x3dbb3926	0.091417596
68	0x38442752	4.676666e-05
69	0xbd47d504	-0.048787132
70	0xbd2c0928	-0.04200092
71	0x3c59b550	0.013287857
72	0xbd06fce8	-0.032956034
73	0x3d9dce5e	0.07705377
74	0xbc97a1cd	-0.01850977
75	0xbaf8cd80	-0.0018982142
76	0x3e4aeb48	0.19816315
77	0xbc1b11b2	-0.009464668
78	0xbc70c1dc	-0.014694657
79	0x89de9feb	-5.3594942e-33
80	0xbd3e044c	-0.046390817
81	0xbdc8ac5e	-0.097985014
82	0x0a0ed26b	6.8766265e-33
83	0xbd1f1055	-0.038833935
84	0x8a01fbc3	-6.258475e-33
85	0xbcb3f7fe	-0.021968838
86	0xbd993220	-0.07480264
87	0xbb635fe0	-0.0034694597
88	0x3c8fef0c	0.017570041
89	0x3d198d7c	0.037488446
90	0x3c8e2ae1	0.01735443
91	0x3d84fb0a	0.064931944
92	0x3d6f23ab	0.058383625
93	0xbcf26e48	-0.029593602
94	0xbda71f53	-0.081602715
95	0x09d9d3b2	5.2439927e-33
96	0x89c30c3b	-4.6956044e-33
97	0x3d8cce96	0.06875341
98	0xbddc018c	-0.107424825
99	0x3b9941b0	0.00467702
100	0x3d868164	0.06567648
101	0xbdf68923	-0.120378755
102	0x3cfc97bc	0.030834071
103	0x3e0194a3	0.12654357
104	0xbcaf6470	-0.021410197
105	0x3a71b140	0.0009219833
106	0x0a05bd84	6.439361e-33
107	0xbd23edec	-0.04002182
108	0xbe16cb1b	-0.14725916
109	0x3dacf83f	0.08445787
110	0xbcb56694	-0.02214364
111	0xbd6d02ca	-0.057863988
112	0x3dc45782	0.09587003
113	0x3de5a8b3	0.112138174
114	0x3df4d096	0.11953847
115	0x3d1e2d99	0.038617704
116	0xbd6c5540	-0.05769849
117	0x89fb21b8	-6.045776e-33
118	0x3c1b3468	0.009472944
119	0xbcb524ec	-0.022112332
120	0xbde2f41b	-0.11081716
121	0x3c2dc488	0.010605939
122	0x3d93a358	0.0720889
123	0xbd49a038	-0.049225062
124	0x10c2e802	7.687697e-29
125	0x8a020dad	-6.2618444e-33
126	0xbdedbb97	-0.116080455
127	0x3ea1d724	0.31609452
128	0x3d9f6c4e	0.07784329
129	0xbdad191c	-0.08452055
130	0x3c806890	0.01567486
131	0xbc7f1203	-0.015568259
132	0xbe195f84	-0.14977843
133	0x89e13562	-5.421698e-33
134	0x3c95ad59	0.018271135
135	0x3d654ff9	0.05598447
136	0xbd19bb48	-0.03753212
137	0xbe2deb01	-0.16984178
138	0x3d8e7702	0.06956293
139	0x3dba7ca2	0.09105803
140	0xbdc65ab6	-0.096852705
141	0x3de18d33	0.1101326
142	0x3d155d4c	0.036465928
143	0xbd82943a	-0.06375928
144	0x3d563aba	0.0523021
145	0xbcb303ac	-0.021852337
146	0x3de818c2	0.11332847
147	0x3d9593ca	0.07303579
148	0x3ca4621c	0.020066313
149	0xbd8d9274	-0.06912699
150	0x3d09350f	0.033497866
151	0x3d416e83	0.047224533
152	0x3d5157a8	0.051108986
153	0x09e65188	5.5447158e-33
154	0x3d331baa	0.043727554
155	0xbc7ec430	-0.015549704
156	0x3e0b5a5c	0.13608688
157	0xbc0486d4	-0.008088786
158	0xbc022bf8	-0.007945053
159	0x89fc2c19	-6.0708262e-33

model.1.running_var f4 [160]
0	0x42d68c4e	107.27403
1	0x42a0f7fb	80.48434
2	0x42b85bfe	92.17967
3	0x4295532d	74.66245
4	0x00000000	0.0
5	0x08bb0462	1.12556835e-33
6	0x42d70f67	107.53008
7	0x4129660f	10.587417
8	0x426a4417	58.566494
9	0x4307666f	135.40013
10	0x42ef6073	119.68838
11	0x42f4e712	122.45131
12	0x4317cb8a	151.79507
13	0x42f500d0	122.50159
14	0x42cd4938	102.643005
15	0x421f51a5	39.82973
16	0x42c6751f	99.22875
17	0x429d99c7	78.80035
18	0x431fa3e8	159.64026
19	0x42d39037	105.78167
20	0x421af452	38.738594
21	0x42b934b2	92.60292
22	0x4299dcf9	76.93159
23	0x42ba24da	93.071976
24	0x42ef8da8	119.77667
25	0x429d1c7c	78.55563
26	0x431efb53	158.98174
27	0x43457f78	197.49792
28	0x3009d120	5.0137494e-10
29	0x426e35a4	59.552383
30	0x00000000	0.0
31	0x43070eea	135.05826
32	0x42b40579	90.01069
33	0x42603d40	56.059814
34	0x43739671	243.58766
35	0x4232f008	44.734406
36	0x429eea79	79.457954
37	0x42d08c82	104.27443
38	0x43a007a7	320.05978
39	0x4306050c	134.01971
40	0x425bcf2e	54.952324
41	0x4231ba75	44.432087
42	0x43042c1a	132.17227
43	0x42c9907c	100.782196
44	0x422d2787	43.2886
45	0x431acc94	154.79913
46	0x42d707c5	107.515175
47	0x43052450	133.14185
48	0x4263ab0d	56.91704
49	0x42a6573d	83.17039
50	0x42af64c4	87.69681
51	0x42a610a7	83.032524
52	0x42416b1c	48.3546
53	0x42752bc6	61.292747
54	0x42685904	58.08693
55	0x42d9ddec	108.93344
56	0x42aa26df	85.07592
57	0x429288c9	73.26716
58	0x430248b4	130.284
59	0x42d83386	108.10063
60	0x43120318	146.01208
61	0x424a4db2	50.575874
62	0x425f7db6	55.872765
63	0x42193acf	38.30743
64	0x42c26b64	97.20975
65	0x43250561	165.02101
66	0x42be7275	95.22355
67	0x42c37735	97.73283
68	0x3aeb8efd	0.0017971691
69	0x42d35134	105.6586
70	0x426e2286	59.533714
71	0x42c5e4df	98.947014
72	0x42521798	52.52304
73	0x42ac5a9d	86.17698
74	0x42f289e3	121.26931
75	0x428024be	64.07176
76	0x4302af6d	130.68526
77	0x42a2f791	81.48353
78	0x42c44ee0	98.15405
79	0x00000000	0.0
80	0x429e714e	79.2213
81	0x43255a21	165.35207
82	0x00000000	0.0
83	0x42460405	49.503925
84	0x00000000	0.0
85	0x42833a76	65.61418
86	0x431c35a9	156.20961
87	0x42aaeb33	85.45937
88	0x422d5f25	43.342915
89	0x42b2e88f	89.454216
90	0x42c85ec5	100.1851
91	0x42d5dd04	106.93167
92	0x42dddf78	110.93646
93	0x42e8bc9e	116.36839
94	0x4284185e	66.04759
95	0x00000000	0.0
96	0x00000000	0.0
97	0x4276ac7a	61.668434
98	0x42896a18	68.707214
99	0x425fa384	55.909683
100	0x423e2d9e	47.544548
101	0x42846a46	66.207565
102	0x42e5527f	114.661125
103	0x42bae5bf	93.44872
104	0x434b12ee	203.07394
105	0x42176b92	37.85505
106	0x00000000	0.0
107	0x42ab0db5	85.52677
108	0x42e46b2d	114.20933
109	0x430de0db	141.87834
110	0x421e7d74	39.622513
111	0x42a7726f	83.7235
112	0x42d1ab0f	104.8341
113	0x432f43f6	175.26547
114	0x429e9b76	79.303635
115	0x42741672	61.02192
116	0x431f5a3e	159.35251
117	0x00000000	0.0
118	0x42451156	49.26693
119	0x42c5baa0	98.8645
120	0x4272c8cc	60.69609
121	0x430ceca5	140.9244
122	0x4264cb1f	57.19836
123	0x42959bbd	74.80418
124	0x00000000	0.0
125	0x00000000	0.0
126	0x42727799	60.616795
127	0x42e16710	112.701294
128	0x426e8243	59.62721
129	0x42cd47e8	102.64044
130	0x42c6926c	99.28598
131	0x426cc8b4	59.196
132	0x4260681b	56.101665
133	0x00000000	0.0
134	0x42a51442	82.539566
135	0x42d12441	104.57081
136	0x433fc5ae	191.77219
137	0x42e302ab	113.50521
138	0x427e29a6	63.540672
139	0x42cc3557	102.10418
140	0x422811ba	42.01731
141	0x4218c3b9	38.191135
142	0x42d1e0bf	104.93896
143	0x42be1916	95.048996
144	0x42f2c157	121.37762
145	0x42025fb8	32.593475
146	0x42b08e9b	88.27853
147	0x430a57d7	138.34312
148	0x42d60d0c	107.02548
149	0x4303df8f	131.87328
150	0x4260d31d	56.206165
151	0x423828ce	46.03985
152	0x42a71238	83.53558
153	0x00000000	0.0
154	0x424d351f	51.301876
155	0x42a981b5	84.753334
156	0x4300765d	128.46236
157	0x4253f154	52.985672
158	0x42889f11	68.31068
159	0x00000000	0.0

model.4.weight f4 [32, 160]
0	0x3d0c24ec	0.0342149
1	0xbe757c5e	-0.23973224
2	0xbfd073c6	-1.6285331
3	0x3d988a21	0.07448221
4	0x1a748062	5.0561724e-23
5	0xaae724e1	-4.1059433e-13
6	0x3f8b1f66	1.0868957
7	0xbec7bf20	-0.39013004
8	0x3ee4cb5a	0.44686395
9	0xbfd4fd6f	-1.6639842
10	0x3f35ec32	0.7106353
11	0xbf409194	-0.75222135
12	0x3f7d9bf6	0.990661
13	0xbfc13f17	-1.5097378
14	0xbe25b13c	-0.16180891
15	0xbe0b2e81	-0.13591959
16	0x3fa3bad3	1.2791389
17	0xbd93c6a0	-0.07215619
18	0x3e23ff01	0.16015245
19	0xbfea3e82	-1.8300326
20	0x3e1ece80	0.15508461
21	0xbfff430e	-1.9942338
22	0x3fa9c208	1.3262339
23	0xbefdddc4	-0.49583256
24	0x3f059449	0.5217939
25	0xbfa578b2	-1.2927458
26	0x4078e9b4	3.889264
27	0xbfa0e438	-1.2569647
28	0xb047f183	-7.2738987e-10
29	0x3d54f48d	0.051991034
30	0x89ec0e39	-5.682831e-33
31	0x3d351f6e	0.044219427
32	0xbfa33c5c	-1.2752795
33	0xbef61d22	-0.48069102
34	0xc0110db3	-2.2664611
35	0xc00d6752	-2.2094312
36	0xbf0b8ca6	-0.5451149
37	0xbdc909b9	-0.098163076
38	0x40409fcf	3.009754
39	0x3faf916d	1.3716255
40	0x4017e492	2.3733258
41	0x4002fc03	2.0466316
42	0x3f2cefba	0.67553294
43	0xbde25b13	-0.11052527
44	0x3e6f7601	0.23384859
45	0xbeabf808	-0.3358767
46	0xbf981073	-1.188002
47	0xc036a9b3	-2.8541076
48	0x3ddfae64	0.10921934
49	0xbff90765	-1.9455382
50	0x3fa55b1f	1.2918433
51	0x3ed6991c	0.41913688
52	0x3f810b8f	1.0081652
53	0x3f033b5f	0.5126247
54	0x3fc40518	1.5314054
55	0xbebda8b4	-0.37042773
56	0xbf489726	-0.78355634
57	0xc047eedb	-3.1239536
58	0x3eaf1222	0.34193522
59	0xbfc8a529	-1.5675403
60	0x3fc3858c	1.527513
61	0x3f95ac13	1.1693138
62	0x3fe27f4d	1.7695099
63	0x3ff1a9d6	1.8879955
64	0x3fc76659	1.5578109
65	0x3fddfaca	1.734216
66	0xbeeef766	-0.46673125
67	0xbf1eaf7a	-0.61986506
68	0xb0936b9a	-1.072624e-09
69	0xbf18a494	-0.59626126
70	0x3e113338	0.14179695
71	0xbf87a2aa	-1.0596516
72	0xbee536f9	-0.44768503
73	0x3d1d56dc	0.038412914
74	0xbe71a5f9	-0.2359847
75	0x3e009740	0.12557697
76	0x40042f55	2.065389
77	0x3e5fb0e0	0.21844816
78	0xc031d048	-2.7783375
79	0x89e07514	-5.403614e-33
80	0xbfa21dad	-1.2665306
81	0x3fb26076	1.3935688
82	0x8a641dbe	-1.09833946e-32
83	0xbe02fff7	-0.12792955
84	0x89efadfb	-5.7700768e-33
85	0xbf5e7a0e	-0.8690499
86	0xbf99474b	-1.1974882
87	0xbee971bf	-0.45594594
88	0x3f964927	1.1741074
89	0xbf4371cf	-0.76345533
90	0xbfb860aa	-1.44045
91	0xbf0d2dc9	-0.5514799
92	0xbf8a9130	-1.0825558
93	0xbfb389d6	-1.4026439
94	0xbf893fcf	-1.0722598
95	0x09f2ebda	5.8481175e-33
96	0x89ee9496	-5.7436145e-33
97	0x3f126679	0.5718761
98	0x3f89e4df	1.0772971
99	0x3f855772	1.0417311
100	0x3e6be158	0.2303518
101	0xbeb9cdc9	-0.36289814
102	0x3f3c5d6e	0.7358006
103	0xbfa7cd88	-1.3109598
104	0xc0522e85	-3.2840893
105	0x3fed6a06	1.8547981
106	0x89987427	-3.6701898e-33
107	0xc002b642	-2.0423741
108	0xc0173df7	-2.363157
109	0x3fe1fbf1	1.7655011
110	0x3f0dd1d4	0.553983
111	0x3f22283f	0.6334266
112	0x404b3910	3.1753578
113	0xbf9ce37c	-1.2256923
114	0xbf0c347a	-0.5476757
115	0x3f26482a	0.64953864
116	0xc0261e65	-2.5956051
117	0x1690c550	2.3388976e-25
118	0xbe1dbf35	-0.15404971
119	0xbf8eb1c0	-1.1147995
120	0xbeef98dc	-0.4679631
121	0xbdde9776	-0.10868733
122	0x3f792166	0.97316587
123	0xbfc22d35	-1.5170046
124	0x89deeadb	-5.3665413e-33
125	0x1917ed2a	7.854412e-24
126	0xc003dc56	-2.0603232
127	0xbfb3a900	-1.403595
128	0x3fa7f8c0	1.3122787
129	0x3f399fd0	0.7250948
130	0x3f5ff43e	0.8748206
131	0x3faf8307	1.3711861
132	0xbf85cb77	-1.0452718
133	0x89ed067e	-5.706178e-33
134	0xbe25a595	-0.16176446
135	0xbfef5b2d	-1.86997
136	0x3f903a67	1.1267823
137	0x3e185795	0.1487716
138	0x3ec4efdb	0.38464245
139	0xbff5c1fa	-1.9199822
140	0x3f05c9c4	0.52260995
141	0x3e9bbc07	0.3041689
142	0x3e24ec70	0.16105819
143	0x3e949116	0.29016942
144	0xc051e65f	-3.2796857
145	0x3f407aa5	0.7518714
146	0xbf7d0a9b	-0.9884431
147	0xbf9ca995	-1.2239252
148	0x3f5c660a	0.860932
149	0xbfb7bacc	-1.4353881
150	0xbe0f29bf	-0.13980769
151	0x3fa09744	1.2546163
152	0x3f991ebf	1.1962508
153	0x1b2a36e0	1.4079801e-22
154	0xbeaa3488	-0.33243203
155	0xc062cd96	-3.543798
156	0x3e99cf9f	0.30041215
157	0xbf5260af	-0.8217878
158	0xbf900ca0	-1.1253853
159	0x09e9b64a	5.6264133e-33
160	0xbe7e8f8a	-0.24859443
161	0x401539ac	2.331645
162	0xbf67acf9	-0.9049831
163	0xbf8c7433	-1.0972961
164	0x19ed0578	2.4507434e-23
165	0xabda4dc4	-1.5511416e-12
166	0xbebe4edc	-0.3716954
167	0xbe60ba88	-0.21946156
168	0x3f9f2489	1.2433025
169	0xc0102814	-2.2524462
170	0x3f8adf9f	1.0849494
171	0xbfa8dfc2	-1.3193285
172	0x3ea2446e	0.31692833
173	0xbeb9348e	-0.3617291
174	0xbf38887a	-0.72083247
175	0x3e0283dd	0.12745614
176	0xc00d5f48	-2.2089405
177	0x3edc8d9d	0.43076792
178	0xbece76f5	-0.40325132
179	0x3f377b4e	0.71672523
180	0xbe8cbfbd	-0.27490035
181	0xbf913f85	-1.134751
182	0x3f233f95	0.63768893
183	0x3e93e484	0.2888528
184	0x3e642bec	0.2228238
185	0xbfdb1ceb	-1.71182
186	0x407dc755	3.9652913
187	0x3f6d0b71	0.92595583
188	0x31607c7a	3.2667047e-09
189	0x3fafba07	1.3728646
190	0x09e83bc9	5.590819e-33
191	0x3f809be0	1.0047569
192	0xbfcf350a	-1.6188061
193	0xbf54ce27	-0.83127064
194	0xbfaf5850	-1.3698826
195	0xbeec0de7	-0.46104357
196	0xbf481d49	-0.78169686
197	0xbe85f0f7	-0.26160404
198	0x40942c91	4.63044
199	0x3fb03b68	1.3768129
200	0x3ffdf981	1.9841768
201	0x3fff5574	1.9947953
202	0xbf8279c2	-1.0193408
203	0xbfb4b07d	-1.411636
204	0x3fe2d575	1.7721392
205	0xbf64e6d5	-0.8941472
206	0xbf4ec141	-0.8076363
207	0x3deada8d	0.114674665
208	0xbeed1012	-0.46301323
209	0xbe7a529e	-0.24445578
210	0x3cd9f03c	0.02660381
211	0x3e58f346	0.21186551
212	0x3f804dc9	1.0023738
213	0x3fe8795d	1.8162037
214	0x4012f423	2.296151
215	0xbfc3a252	-1.5283911
216	0xc029eea9	-2.6551917
217	0xbf15413a	-0.5830265
218	0xbf94d0b3	-1.162619
219	0xbfc7ae58	-1.560008
220	0x3f32ba75	0.6981576
221	0x3f95f7eb	1.1716284
222	0x3e449ecf	0.19201206
223	0x3fb537fd	1.4157711
224	0x3efcbf9b	0.49364933
225	0x40532d44	3.2996378
226	0xbec80106	-0.3906328
227	0xbfdc7a3b	-1.7224802
228	0xb798a2f9	-1.8195702e-05
229	0xbf55ba18	-0.8348708
230	0x3f09e5b0	0.538661
231	0x3edd19d3	0.43183765
232	0x3f6569a6	0.8961433
233	0xbea8e119	-0.32984236
234	0x3ee38e8e	0.44444698
235	0xbef7426e	-0.4829287
236	0x3d8c5844	0.06852773
237	0x3f591736	0.8480104
238	0xbf90a604	-1.1300664
239	0x89ecedb1	-5.7038457e-33
240	0x3e1da0d5	0.15393384
241	0x4045818d	3.0860322
242	0x8a05517d	-6.419043e-33
243	0xc018fb05	-2.390321
244	0x09e19df6	5.4315325e-33
245	0xc01b8e57	-2.4305627
246	0xc01c20c3	-2.4394996
247	0x3f8ca5a4	1.098805
248	0x3ff4a010	1.9111347
249	0xbf18fffd	-0.5976561
250	0xbf9d06ef	-1.2267741
251	0xbe6823f8	-0.22669971
252	0xbfa4f2d2	-1.2886603
253	0xbf6ea8b8	-0.93226194
254	0xc023aa59	-2.5572722
255	0x09eb07e6	5.658162e-33

model.4.bias f4 [32]
0	0xb87b20a8	-5.9873477e-05
1	0x3884b026	6.327061e-05
2	0xb9511434	-0.0001993932
3	0x37ab57ad	2.0425616e-05
4	0xb8f95817	-0.00011889653
5	0x3968f6dd	0.00022217208
6	0xb9efa390	-0.00045707496
7	0xb8ca0c17	-9.6343625e-05
8	0x38e68c18	0.00010993349
9	0x3991d018	0.00027811597
10	0xb6a9bf10	-5.058835e-06
11	0x398e221e	0.0002710977
12	0x39a658e2	0.0003172821
13	0x399c45b6	0.00029806577
14	0x39892b9c	0.00026163168
15	0x381c28e0	3.7231366e-05
16	0xb919d804	-0.00014671689
17	0xb8eb3d75	-0.000112171205
18	0x392857ae	0.00016054392
19	0xb8168840	-3.588968e-05
20	0xb815752a	-3.5633486e-05
21	0x38f2d5ff	0.00011579319
22	0x390f391e	0.0001365882
23	0xb9951ee3	-0.00028442507
24	0x39bb3ed9	0.00035714245
25	0xb9bed09f	-0.0003639506
26	0x39016aac	0.00012342137
27	0xb995c3ce	-0.0002856538
28	0xb96b77eb	-0.0002245602
29	0xb885a373	-6.372379e-05
30	0xb8522b40	-5.010818e-05
31	0xba10d766	-0.0005525261

model.5.weight f4 [32]
0	0x3efccffa	0.49377424
1	0x3f23715a	0.63844836
2	0x3f14315b	0.5788781
3	0x3f348391	0.70513254
4	0x3fb2af42	1.3959734
5	0x3f8543f4	1.0411363
6	0x4006cc1e	2.1062083
7	0x3f1a84f0	0.60359097
8	0x3f473d8f	0.77828306
9	0x3fcd26cc	1.6027465
10	0x3f05f13a	0.5232121
11	0x3ff80b8e	1.9378526
12	0x3f5d2c5f	0.8639583
13	0x3f9a55de	1.2057455
14	0x40059bdd	2.0876381
15	0x3fcd1d0a	1.6024487
16	0x3fe782bd	1.8086773
17	0x3f8e062e	1.1095636
18	0x3f031006	0.51196325
19	0x3f9c7cf7	1.2225636
20	0x3f61a77b	0.8814618
21	0x3f07e2f4	0.5308068
22	0x3f283b0c	0.657151
23	0x3fd24dd6	1.6430004
24	0x3fa5e81a	1.2961457
25	0x3fb04504	1.3771062
26	0x3fb54154	1.4160562
27	0x3f580c9c	0.8439424
28	0x3f9f9fb0	1.2470608
29	0x3f091597	0.5354857
30	0x3f3f9d25	0.7484916
31	0x3fcf72a0	1.6206856

model.5.bias f4 [32]
0	0x3ebe293e	0.3714084
1	0x3e4e4b36	0.20145878
2	0x3e37d08d	0.1795065
3	0xbdd855ce	-0.10563241
4	0xbece12c1	-0.40248683
5	0xbebf08bc	-0.3731135
6	0xc010bfca	-2.2617059
7	0x3e9c4dc0	0.3052807
8	0xb6cc1b00	-6.082817e-06
9	0xbfcfd503	-1.6236881
10	0x3e9d2eeb	0.30699858
11	0xbfc4091e	-1.5315282
12	0x3db7c41c	0.08972952
13	0xbec04b99	-0.37557676
14	0xc01126dc	-2.2679968
15	0xbf17c181	-0.5927964
16	0xbf802549	-1.0011379
17	0xbea3e4ec	-0.3201059
18	0x3e8f6316	0.28005284
19	0xbe95f9df	-0.292922
20	0xbe8b452f	-0.2720122
21	0x3e991402	0.29898077
22	0x3e5ce5f4	0.21572095
23	0xbf8210d3	-1.0161384
24	0xbef43376	-0.47695512
25	0xbed5a92a	-0.41730624
26	0xbe352ffe	-0.17694089
27	0x3d1e4e9d	0.03864919
28	0xbeda19fb	-0.42597947
29	0x3e2393d1	0.15974356
30	0x3e244bf4	0.16044599
31	0xbf4707c9	-0.77746254

model.5.running_mean f4 [32]
0	0xc1d6e4e2	-26.86176
1	0xc1df8cc2	-27.94373
2	0xc19aa42b	-19.33016
3	0xc210c9f8	-36.197235
4	0xc251b97b	-52.431133
5	0xc234b8f2	-45.18061
6	0xc2944791	-74.13978
7	0xc1a1631d	-20.173395
8	0xc206bc51	-33.683903
9	0xc2259bab	-41.40202
10	0xc1b041d5	-22.032145
11	0xc1832224	-16.39167
12	0xc20eff10	-35.749084
13	0x414df694	12.8727
14	0xc2661084	-57.51613
15	0xc23df0f3	-47.485302
16	0xc277462a	-61.81852
17	0xc2128f5c	-36.64
18	0xc1ac51b4	-21.539894
19	0xc0cfb750	-6.491127
20	0xc205c859	-33.445652
21	0xc1d0be21	-26.092836
22	0xc1ed80e0	-29.687927
23	0xc24ebbdf	-51.683468
24	0xc1b998f8	-23.199692
25	0xc22f1993	-43.774975
26	0xc2384f64	-46.07753
27	0xc20064f2	-32.09858
28	0xc236478d	-45.569874
29	0xc1bc751f	-23.557188
30	0xc1c45220	-24.5401
31	0xc24fde2e	-51.966972

model.5.running_var f4 [32]
0	0x44c68f18	1588.4717
1	0x44be5ea2	1522.9573
2	0x44d2ac18	1685.3779
3	0x45087913	2183.5671
4	0x4511e17c	2334.0928
5	0x44ec9e55	1892.9479
6	0x45094e20	2196.8828
7	0x44e4942c	1828.6304
8	0x44de9581	1780.672
9	0x449b8a8c	1244.3296
10	0x44e039a8	1793.8018
11	0x450065aa	2054.354
12	0x44d62696	1713.2058
13	0x4505906e	2137.0269
14	0x4503d558	2109.334
15	0x4515571d	2389.4446
16	0x452a09dc	2720.6162
17	0x45069d97	2153.8494
18	0x44de75b4	1779.6782
19	0x45166562	2406.3364
20	0x44b8d84a	1478.759
21	0x44ed496f	1898.2948
22	0x45061182	2145.0942
23	0x45215ca2	2581.7896
24	0x450e8b5d	2280.7102
25	0x45105c1e	2309.7573
26	0x452c540f	2757.2537
27	0x45002e3c	2050.8896
28	0x44f54e45	1962.4459
29	0x45074fa1	2164.9768
30	0x4496a14f	1205.0409
31	0x4546ef4a	3182.9556

model.8.weight f4 [1, 32]
0	0x3ec3a505	0.38211837
1	0x3ebff213	0.37489375
2	0x3ea3c8c0	0.31989098
3	0x3ea96683	0.33086023
4	0x3f007c76	0.5018991
5	0x3ea8d571	0.32975343
6	0x3f6ae7ff	0.9176025
7	0x3ec4a822	0.38409525
8	0x3ec6a2dd	0.3879613
9	0x3f2cfe9b	0.67576
10	0x3eb3b2df	0.35097405
11	0xbf2ae67b	-0.66757935
12	0x3ec1bc63	0.3783904
13	0xbf12f51f	-0.57405275
14	0x3f653826	0.895388
15	0x3ee284ce	0.44241947
16	0x3f0afd86	0.54293096
17	0x3ec4e455	0.38455454
18	0x3ea9ebef	0.33187816
19	0xbf007536	-0.5017885
20	0x3eb29936	0.34882516
21	0x3eb4378b	0.35198626
22	0x3ecb08c7	0.39655134
23	0x3ee2424e	0.4419121
24	0xbf041c2e	-0.516055
25	0x3ee6f867	0.4511139
26	0x3ef930d6	0.4867007
27	0x3eb952a8	0.36195874
28	0x3ecc8982	0.3994866
29	0x3e88a6c2	0.26689726
30	0x3ec8c41b	0.39212117
31	0x3f1328bb	0.57484025
