squat_model.pth (torch, 951364 bytes, 25 tensors)

model.0.weight f4 [480, 19]
0.08260897 0.07407199 -0.06208312 -0.058928143 -0.03761157 0.05785055 -0.18042675 -0.3056422
-0.23795487 -0.09472979 0.11271293 0.21937366 0.32832316 -0.036247484 -0.034439713 0.15286455
0.02339414 -0.11485428 -0.17659296 -0.16131696 0.014612929 -0.059333388 -0.08046593 0.017845485
-0.076362595 -0.17610711 -0.32053334 0.002088477 0.041949127 0.1776057 -0.13754602 0.38616654
0.014489674 0.07187605 0.2825888 0.08296424 -0.12174132 0.15770109 -0.16244915 0.2138475
-0.121219374 0.016685925 0.28292286 -0.21837273 -0.03752155 0.021973863 -0.23146051 0.025973013
-0.010785337 0.076411135 0.13513128 -0.04020861 0.020863894 -0.05789803 -0.08037965 0.1488631
0.34588122 -0.2574442 0.32323167 -0.014604495 0.17087209 -0.15577213 -0.015005303 -0.09763531
-0.095680125 0.00515809 0.016872743 0.060677543 -0.12572184 0.012593761 -0.00999268 0.31721398
-0.12068459 0.15588327 -0.013149625 0.0027346201 -0.040645268 -0.11440717 -0.06647265 0.033113085
0.25460932 0.15612914 0.10030811 0.13813144 0.14990765 0.12716646 0.11944042 -0.08224391
-4.5206463e-05 0.38049132 -0.004582812 -0.07651195 -0.27924144 0.12447474 -0.19573797 -0.121273525
0.013403346 0.14892316 -0.9579234 -0.093748674 -0.0475725 0.017977398 0.022604425 -0.08727531
0.00036211612 0.00228095 -0.010012476 -0.03061556 -0.0367708 -0.014212177 0.0026763368 0.07688004
0.011270433 -0.016678814 -0.033027194 -0.09136422 -0.009456681 0.056242272 -0.06628659 -0.07626626
-0.09246429 -0.09087561 0.023666074 0.114987865 -0.11826094 -0.16750701 -0.09217921 -0.06949913
0.11563915 -0.15344125 0.2295127 0.009484212 0.36357138 0.13600443 -0.118498035 -0.12148752
0.06607421 -0.10539141 -0.17138243 -0.09452408 -0.11868621 -0.18950465 0.0046413336 -0.10594659
0.03361226 -0.046764184 -0.06583889 -0.03061462 -0.24108626 0.19756533 0.08753276 0.21744248
0.063527055 0.19244392 -0.17200507 -0.08036659 0.0125947995 0.24179545 -0.10542383 0.1938702
0.24738745 -0.013844907 -0.08181621 0.060380995 0.1229039 -0.04259728 0.0712014 0.0704496
-0.3051608 -0.12643112 0.13612546 -0.21180211 -0.19656703 -0.10389983 0.112763256 -0.012761431
0.009741285 -0.106890686 0.16010709 0.30190963 -0.054650683 0.08184373 0.069071844 -0.009356495
-0.10224773 -0.045182686 -0.1626361 0.016858183 0.24616797 -0.19975457 0.110636115 0.11327588
-0.066917315 0.20311736 -0.2561812 0.07950549 -0.2026921 -0.0319279 -0.07057904 0.04516495
0.04812218 -0.17548905 -0.24332516 -0.104925916 -0.096754484 -0.11477057 0.08280673 -0.05975883
0.02577675 -0.12607585 -0.076758176 0.08322194 -0.20629822 0.21200955 -0.030684104 0.05918622
0.24068478 -0.105313845 0.024975926 -0.060894437 0.078318454 -0.035440564 -0.080028564 -0.073919825
0.0021995206 0.1165952 0.08373895 -0.5630105 -0.22863701 -0.16535695 -0.10650968 0.018675005
0.04305954 0.08289454 -0.044061303 0.07098732 -0.0325884 0.2816164 0.17642365 0.06846814
0.22619279 0.035662405 -0.104135685 -0.06701876 -0.1900185 0.14591108 -0.06584265 0.053329766
-0.34758872 -0.1762633 -0.009075513 0.20917705 0.052179273 -0.0002832253 0.08771235 0.0991719
00000000: e42e a93d 0eb3 973d df4a 7ebd a35e 71bd
00000010: 970e 1abd b3f4 6c3d cac1 38be 227d 9cbe
00000020: 71aa 73be b101 c2bd 09d6 e63d 7da3 603e
00000030: f919 a83e 3e78 14bd a810 0dbd 8688 1c3e
00000040: 11a5 bf3c b938 ebbd c9d4 34be 4630 25be
00000050: 116b 6f3c 9107 73bd 52cb a4bd b230 923c
00000060: fe63 9cbd 6c55 34be f21c a4be d4de 083b
00000070: d9d2 2b3d 45de 353e ddd8 0cbe 9fb7 c53e
00000080: 1966 6d3c c033 933d 7baf 903e 28e9 a93d
00000090: 8353 f9bd 657c 213e 1259 26be d7fa 5a3e
000000a0: dd41 f8bd ecb0 883c 44db 903e 1a9d 5fbe
000000b0: 32b0 19bd 8802 b43c fc03 6dbe 5bc5 d43c
000000c0: fbb4 30bc 717d 9c3d db5f 0a3e c9b1 24bd
000000d0: c2ea aa3c 7c26 6dbd 169e a4bd 926f 183e
000000e0: 5817 b13e bacf 83be 9f7e a53e b147 6fbc
000000f0: 18f9 2e3e bb82 1fbe cdd8 75bc 05f5 c7bd
00000100: f1f3 c3bd 3205 a93b b538 8a3c 0489 783d
00000110: 3abd 00be 1056 4e3c 56b8 23bc df69 a23e
00000120: 7b29 f7bd dd9f 1f3e 8671 57bc 5037 333b
00000130: a77b 26bd 4e4e eabd d022 88bd 96a1 073d
00000140: 275c 823e 51e0 1f3e 576e cd3d 5472 0d3e
00000150: 6481 193e ed37 023e 2e9d f43d 7f6f a8bd
00000160: 129c 3db8 c2cf c23e 6a2b 96bb 4cb2 9cbd
00000170: bcf8 8ebe 9dec fe3d 896f 48be 415e f8bd
00000180: b599 5b3c 507f 183e 783a 75bf 4eff bfbd
00000190: 62db 42bd 5645 933c ea2c b93c 66bd b2bd
000001a0: 67da bd39 fe7b 153b 5e0b 24bc 7ccd fabc
000001b0: fa9c 16bd 31da 68bc 7b65 2f3b 4873 9d3d
000001c0: 9fa7 383c 02a2 88bc 8647 07bd 2a1d bbbd
000001d0: 32f0 1abc 4c5e 663d 44c1 87bd 7c31 9cbd
000001e0: eb5d bdbd fe1c babd 5bdf c13c c27e eb3d
000001f0: cb32 f2bd f586 2bbe 74c8 bcbd 8f55 8ebd
00000200: 38d4 ec3d b41f 1dbe 6105 6b3e ab63 1b3c
00000210: 0726 ba3e bf44 0b3e 19af f2bd 73ce f8bd
00000220: ea51 873d 74d7 d7bd e07e 2fbe d795 c1bd
00000230: c111 f3bd 820d 42be 5416 983b 87fa d8bd
00000240: 02ad 093d cd8b 3fbd 8ad6 86bd 83cb fabc
00000250: 51df 76be 914e 4a3e 6044 b33d 3ea9 5e3e
00000260: 791a 823d 0510 453e 1922 30be 3d97 a4bd
00000270: 6b5a 4e3c 3a99 773e 73e8 d7bd e985 463e
00000280: 2353 7d3e c0d5 62bc 428f a7bd 1052 773d
00000290: 0ab5 fb3d 7c7a 2ebd 0ad2 913d e147 903d
000002a0: 093e 9cbe 2977 01be 7964 0b3e a7e2 58be
000002b0: de48 49be 6fc9 d4bd 6cf0 e63d 5215 51bc
000002c0: e999 1f3c 81e9 dabd 1df3 233e e693 9a3e
000002d0: 65d9 5fbd af9d a73d 8a75 8d3d fc4b 19bc
000002e0: 4267 d1bd 7b11 39bd 148a 26be 2c1a 8a3c
000002f0: 7513 7c3e 768c 4cbe 3095 e23d 2ffd e73d
00000300: f20b 89bd fffd 4f3e 2f2a 83be c6d3 a23d
00000310: 858e 4fbe d4c6 02bd be8b 90bd e2fe 383d
00000320: c31b 453d 67b3 33be 3b2a 79be 66e3 d6bd
00000330: 3727 c6bd d50c ebbd 9396 a93d adc5 74bd
00000340: c329 d33c 071a 01be 6433 9dbd 4470 aa3d
00000350: d73f 53be 0819 593e 3b5d fbbc 406d 723d
00000360: 1276 763e c9ae d7bd 509a cc3c 726c 79bd
00000370: 6d65 a03d 202a 11bd 04e6 a3bd 4763 97bd
00000380: d525 103b 77c9 ee3d 547f ab3d 7521 10bf
00000390: d21f 6abe 5553 29be bf21 dabd 53fc 983c
000003a0: 335f 303d 9dc4 a93d a079 34bd cd61 913d
000003b0: 6a7b 05bd 0630 903e 67a8 343e 0639 8c3d
000003c0: 159f 673e be12 123d 1745 d5bd 2241 89bd
000003d0: 3694 42be b769 153e 83d8 86bd 5070 5a3d
000003e0: 26f7 b1be 5e7e 34be 76b1 14bc 8232 563e
000003f0: efb9 553d db7d 94b9 88a2 b33d a31a cb3d

model.0.bias f4 [480]
1.185185e-05 -7.0148662e-06 -5.687582e-06 -1.1192158e-05 1.0878318e-05 3.895527e-05 1.0962172e-05 8.936309e-06
5.2246643e-05 1.0978018e-05 1.1064546e-05 6.438966e-06 -7.5798753e-06 7.977671e-05 -1.0379215e-05 4.3338638e-05
5.0503015e-05 1.873626e-05 -1.8983574e-05 7.713541e-05 3.5419544e-07 -6.2197716e-05 -5.1538173e-06 -6.2774285e-05
8.184488e-06 2.182774e-05 6.186098e-06 -3.516684e-05 -2.4731216e-05 1.609025e-05 4.9966373e-05 3.185391e-05
-0.00040749 -7.2584207e-06 -2.9900189e-06 -2.8110819e-05 3.5499738e-07 4.3291457e-06 1.1210461e-05 1.0509855e-06
-1.1399937e-05 -1.1253901e-05 -6.7960304e-06 4.2185547e-06 1.4137679e-05 3.2867123e-05 -1.9192546e-05 -2.3486713e-05
9.625635e-06 -2.1697067e-06 7.011598e-05 -1.5688154e-05 1.114845e-05 -3.1098243e-06 7.378929e-06 -5.059823e-06
7.0606e-05 2.441851e-05 1.0103207e-05 -2.6760717e-06 -1.0324517e-05 -6.670204e-06 -4.852259e-05 -1.2760618e-05
-1.0573074e-05 1.999658e-05 4.2388667e-05 -2.5495232e-05 -2.4696352e-05 -3.9829676e-05 -3.0228883e-05 5.442559e-05
2.4800856e-05 1.3327475e-05 -5.131369e-08 3.1151598e-05 -2.0439709e-06 8.307716e-06 4.9170067e-06 1.6956837e-06
2.4479248e-05 1.6054188e-05 -3.430994e-05 9.769155e-06 5.8228034e-07 -1.1323669e-05 -6.6985085e-06 -1.2873805e-05
-3.2262218e-05 1.1949289e-05 -7.676466e-06 -7.951927e-06 -2.4637064e-05 3.0955947e-05 2.6023456e-05 1.8255123e-05
-2.859857e-06 1.9205677e-06 4.742506e-06 -1.2041846e-06 3.1456562e-05 -1.6541571e-05 -1.9459882e-05 1.0305807e-05
-7.517255e-05 6.1826955e-05 -2.7193073e-05 -7.1708724e-05 -6.3902444e-05 2.1869942e-05 5.024309e-05 2.9895826e-05
-9.428376e-06 -1.7094115e-05 -5.9853894e-05 1.5270605e-05 -1.0643935e-05 -2.7605645e-05 7.801489e-06 -7.156593e-05
3.34704e-05 -1.2757908e-05 -4.256094e-05 -4.3437845e-05 1.2292834e-05 3.4603254e-06 -5.1048315e-05 1.5208832e-05
8.948571e-06 1.4038407e-05 0.00020422567 6.412097e-05 3.423368e-05 -0.000119993165 -3.0327628e-06 6.4356177e-06
-1.8164603e-05 -3.8097296e-06 -1.0707436e-05 6.7979227e-06 3.0541265e-05 -2.51785e-05 5.7152465e-06 5.2318746e-06
3.6230984e-05 -1.3867099e-05 6.167772e-05 5.391659e-06 1.9857647e-05 9.963003e-06 -1.6392392e-05 6.454659e-05
-4.191904e-06 -4.1536514e-06 1.0405746e-05 2.4491117e-05 -1.3281755e-05 -1.055748e-05 3.4177687e-05 2.6324296e-05
3.8001355e-05 8.177552e-05 -7.3085044e-05 2.5680498e-05 -8.550655e-06 -7.351163e-05 -8.910507e-06 5.0841595e-06
8.834808e-06 4.2387255e-06 3.3579054e-05 -3.238763e-05 -1.452052e-05 4.3376567e-06 2.577708e-05 -6.749691e-05
1.1954669e-05 -2.6068918e-05 2.940429e-05 3.964356e-05 -3.971542e-05 -1.7047705e-05 -2.6874033e-05 -1.6108179e-05
2.447615e-05 -8.250762e-06 2.6067978e-06 -5.716875e-05 1.9976542e-05 1.9433113e-05 -7.237216e-05 -1.6598387e-05
-2.4595003e-05 -1.43541765e-05 -4.93774e-05 3.5903913e-06 3.1748703e-05 2.2208578e-05 2.742081e-05 -8.217584e-06
-3.1859323e-05 8.279283e-06 -2.4570327e-05 1.6928681e-05 -2.67734e-05 3.563031e-05 8.061355e-06 -7.5242974e-06
8.9726445e-06 1.8086143e-05 4.7160625e-05 -1.0808808e-05 1.6638216e-05 8.656558e-06 -8.26433e-06 -2.3797686e-05
-7.3005634e-05 -2.4235962e-05 -2.4897103e-05 -1.7857051e-06 -3.9306497e-06 -3.1511136e-05 -1.784807e-05 6.1326566e-05
4.503655e-05 -5.119614e-06 0.00013852227 1.3101291e-05 -2.532411e-05 1.6676838e-06 -1.1198776e-05 5.159741e-06
1.0532912e-05 -2.0652176e-05 2.7431319e-05 2.9895064e-05 -4.274276e-05 5.038719e-06 -2.3319055e-05 -1.1488955e-05
-1.4496387e-05 -2.2746408e-06 1.8580486e-05 1.7085225e-05 6.9297515e-05 2.4412351e-05 1.1575592e-05 -3.5405068e-05
-1.8546833e-05 -7.1898816e-05 -1.8765845e-06 1.9845065e-06 2.3786792e-05 5.111605e-06 1.5225134e-05 -2.2502522e-06
00000000: 4fd7 4637 3e61 ebb6 f5d7 beb6 f4c5 3bb7
00000010: 0582 3637 e763 2338 2cea 3737 28ed 1537
00000020: 6823 5b38 3a2e 3837 dda1 3937 4c0e d836
00000030: a256 feb6 cc4d a738 6422 2eb7 82c6 3538
00000040: 33d3 5338 d02b 9d37 ea3e 9fb7 c2c3 a138
00000050: 4028 be34 2570 82b8 f4ee acb6 b0a5 83b8
00000060: 1c50 0937 b71a b737 2d92 cf36 1b80 13b8
00000070: e275 cfb7 8cf9 8637 fc92 5138 e09a 0538
00000080: 62a4 d5b9 5c8d f3b6 22a8 48b6 86cf ebb7
00000090: 7896 be34 1443 9136 9014 3c37 960f 8d35
000000a0: 5b42 3fb7 23cf 3cb7 7509 e4b6 1c8d 8d36
000000b0: de30 6d37 ceda 0938 aeff a0b7 5505 c5b7
000000c0: ca7d 2137 479b 11b6 3b0b 9338 0e9a 83b7
000000d0: 3a0a 3b37 60b2 50b6 8498 f736 8cc7 a9b6
000000e0: 4f12 9438 5ad6 cc37 f280 2937 9096 33b6
000000f0: 7637 2db7 9ed0 dfb6 bc84 4bb8 7016 56b7
00000100: 0263 31b7 54be a737 7cca 3138 98de d5b7
00000110: 032b cfb7 ca0e 27b8 0894 fdb7 0847 6438
00000120: 6f0b d037 1299 5f37 0064 5cb3 c6a8 0238
00000130: 272b 09b6 5e61 0b37 c4fc a436 4097 e335
00000140: c958 cd37 1bac 8637 04e8 0fb8 34e6 2337
00000150: 004e 1c35 cafa 3db7 c0c3 e0b6 92fc 57b7
00000160: 4b51 07b8 ce79 4837 2cca 00b7 4469 05b7
00000170: b1ab ceb7 b2d6 0138 f24c da37 9422 9937
00000180: f8eb 3fb6 1ae3 0036 d121 9f36 789f a1b5
00000190: 3af0 0338 c1c2 8ab7 c73d a3b7 1be7 2c37
000001a0: f5a5 9db8 18a9 8138 ae1c e4b7 5462 96b8
000001b0: 5d03 86b8 5875 b737 1bbc 5238 ccc8 fa37
000001c0: 912e 1eb7 5565 8fb7 a10b 7bb8 6019 8037
000001d0: 5a93 32b7 ac92 e7b7 24e3 0237 ab15 96b8
000001e0: 9162 0c38 cc0a 56b7 7683 32b8 0831 36b8
000001f0: 523d 4e37 f037 6836 b61c 56b8 7029 7f37
00000200: d221 1637 8086 6b37 6925 5639 af78 8638
00000210: 2296 0f38 d7a4 fbb8 7886 4bb6 89f1 d736
00000220: 3060 98b7 a8aa 7fb6 16a4 33b7 b619 e436
00000230: 6f19 0038 6b36 d3b7 98c5 bf36 768d af36
00000240: b9f6 1738 bda6 68b7 f958 8138 00ea b436
00000250: f993 a637 c626 2737 6582 89b7 305d 8738
00000260: 2ea8 8cb6 985f 8bb6 5794 2e37 4672 cd37
00000270: b4d4 5eb7 0820 31b7 035a 0f38 ffd2 dc37
00000280: a563 1f38 e67e ab38 3c45 99b8 736c d737
00000290: c974 0fb7 412a 9ab8 567e 15b7 9998 aa36
000002a0: 3639 1437 603a 8e36 3cd7 0c38 f4d7 07b8
000002b0: 299d 73b7 308c 9136 dc3b d837 218d 8db8
000002c0: ea90 4837 93ae dab7 3ba9 f637 f346 2638
000002d0: 1c94 26b8 ab01 8fb7 8c6f e1b7 0d20 87b7
000002e0: 2252 cd37 c16c 0ab7 72f0 2e36 7ac8 6fb8
000002f0: 4c93 a737 4b04 a337 82c6 97b8 c43c 8bb7
00000300: 5e51 ceb7 b8d2 70b7 941a 4fb8 74f2 7036
00000310: e929 0538 8f4c ba37 be05 e637 41de 09b7
00000320: b0a0 05b8 40e7 0a37 601c ceb7 1102 8e37
00000330: 7097 e0b7 c171 1538 423f 0737 3979 fcb6
00000340: 3789 1637 b2b7 9737 56ce 4538 7a57 35b7
00000350: 4c92 8b37 a23b 1137 07a7 0ab7 24a1 c7b7
00000360: 9a1a 99b8 554e cbb7 1fda d0b7 5cac efb5
00000370: 06e4 83b6 d32a 04b8 70b8 95b7 739c 8038
00000380: a1e5 3c38 26c9 abb6 4a40 1139 9ecd 5b37
00000390: 1d6f d4b7 2ed5 df35 60e2 3bb7 d621 ad36
000003a0: 83b6 3037 363e adb7 4f1c e637 29c7 fa37
000003b0: b046 33b8 4412 a936 4a9d c3b7 b0c0 40b7
000003c0: 8235 73b7 08a6 18b6 4add 9b37 3e52 8f37
000003d0: d253 9138 20c9 cc37 ca34 4237 e77f 14b8
000003e0: 0595 9bb7 62c8 96b8 f4de fbb5 902d 0536
000003f0: bf89 c737 5a84 ab36 746f 7f37 0a03 17b6

model.1.weight f4 [480]
0.6780828 0.698334 0.6858742 0.68209976 0.81050336 1.0035433 0.7078071 0.72655034
0.7519043 0.62542653 0.6046577 0.90391695 0.73233414 0.85918874 0.70280707 1.0338849
0.66670346 0.6613192 0.7028765 0.9357413 0.583585 0.70999825 0.93972194 0.6786873
0.7618493 0.80097103 0.8301459 0.6149588 0.76394004 0.63385636 0.76442385 0.6759473
1.0795622 0.76229924 0.7778399 0.98917073 0.6432982 0.9733158 0.75889176 0.63711923
0.7150406 0.8557767 0.7490425 0.85678256 0.6933055 0.67949903 0.77343106 0.6334975
0.81878656 0.6637812 0.9729216 0.72844577 0.67593426 0.6769614 0.7935106 0.7258486
0.7834597 0.7053724 0.6008491 0.68408024 0.5786414 0.76830393 0.7295794 0.8522706
0.8572749 0.8101415 0.72637886 0.71715426 0.61011857 0.84732425 0.7137505 0.63151324
0.733742 0.74600637 0.61179584 0.6593852 0.76890415 0.7594694 0.75554204 0.56299657
0.7266644 0.8085633 0.7805644 0.8348916 0.47383475 0.6812418 0.69861656 0.676477
0.5723978 0.7085447 0.73497814 0.7096801 0.5412217 0.96822304 0.79739916 0.64516956
0.6367696 0.6847032 0.70895296 0.7941395 0.7236944 0.7405832 0.7083791 0.65500325
1.0017885 0.8351153 0.79796046 0.7414538 0.9344047 0.82131356 0.788547 0.61504316
0.7345919 0.7082729 0.894685 0.68245786 0.7501762 0.697625 0.5456116 0.8320567
0.7536909 0.60713613 0.83147717 0.72691643 0.7890878 0.8399161 0.77019894 0.6083213
0.50539047 0.6990799 1.0750184 0.7794706 0.79842323 0.8385388 0.6151811 0.8374681
0.7799467 0.7374167 0.7234042 0.7621336 0.7731478 0.7701635 0.7178636 0.8307026
0.7917706 0.8446739 0.92912614 0.79086375 0.6568255 0.8134164 0.7736706 0.77672875
0.7709763 0.5151661 0.7588042 0.7873539 0.6559075 0.60077494 0.7772908 0.7090406
0.7848372 1.2772843 0.8306713 0.6547271 0.79282385 1.0506655 0.74988973 0.9318387
0.71721 0.82120717 0.80849403 0.79361033 0.63596034 0.6187313 0.7150684 0.84491503
0.81369203 0.79609483 0.75127995 0.85166436 0.7645076 0.6882655 0.79248285 0.82365847
0.84127563 0.7259094 0.82744443 0.83481354 0.8510976 0.7135836 0.8891877 0.73667
0.8266948 0.8997241 0.775254 0.635433 0.76292706 0.7518124 0.530376 0.66621995
0.85979795 0.77329683 0.7822755 0.75889987 0.6826292 0.6612695 0.8733836 0.7133873
0.79489803 0.77013856 0.7677796 0.64697284 0.65660393 0.80698895 0.6732359 0.7220617
0.7832194 0.7735274 0.8667801 0.6624932 0.7206066 0.7955399 0.62853956 0.8489307
0.714418 0.7116176 0.76105464 0.75385916 1.2367878 0.70552063 0.65635806 0.7594959
0.64618015 0.7396375 0.50230813 0.68215376 0.7818847 0.72079766 0.5836707 0.70542824
0.75059134 0.77623934 0.6840152 0.8638219 0.75205016 0.6954377 0.55169934 0.7318354
0.91276157 0.9175037 0.7040188 0.6835955 0.9726115 0.736834 0.7826377 0.74416155
00000000: d696 2d3f 04c6 323f 7495 2f3f 179e 2e3f
00000010: 267d 4f3f 1b74 803f d932 353f 34ff 393f
00000020: cd7c 403f f41b 203f d9ca 1a3f 1a67 673f
00000030: 407a 3b3f cbf3 5b3f 2aeb 333f 5756 843f
00000040: 14ad 2a3f 374c 293f b7ef 333f be8c 6f3f
00000050: d465 153f 72c2 353f 9e91 703f 73be 2d3f
00000060: 8e08 433f 700c 4d3f 7184 543f f16d 1d3f
00000070: 9391 433f 6944 223f 48b1 433f e20a 2d3f
00000080: 182f 8a3f 0b26 433f 8420 473f 4b3a 7d3f
00000090: 31af 243f 392b 793f bb46 423f 3f1a 233f
000000a0: e70c 373f 2f14 5b3f 40c1 3f3f 1a56 5b3f
000000b0: 787c 313f a6f3 2d3f 94ff 453f e42c 223f
000000c0: ff9b 513f 91ed 293f 6411 793f 6c7b 3a3f
000000d0: 070a 2d3f 584d 2d3f 8323 4b3f 37d1 393f
000000e0: d190 483f 4993 343f 3fd1 193f e21f 2f3f
000000f0: d821 143f 91af 443f b7c5 3a3f 682e 5a3f
00000100: 5e76 5b3f 6f65 4f3f f7f3 393f 6c97 373f
00000110: bb30 1c3f 3eea 583f 5ab8 363f daaa 213f
00000120: 84d6 3b3f 46fa 3e3f a79e 1c3f 78cd 283f
00000130: e7d6 443f 966c 423f 346b 413f 8b20 103f
00000140: ae06 3a3f 01fe 4e3f 12d3 473f 75bb 553f
00000150: 789a f23e dd65 2e3f 89d8 323f 992d 2d3f
00000160: aa88 123f 2f63 353f 8727 3c3f 98ad 353f
00000170: 818d 0a3f 77dd 773f 5a22 4c3f d529 253f
00000180: 5503 233f b548 2f3f f17d 353f ba4c 4b3f
00000190: 0944 393f dc96 3d3f 5558 353f 4bae 273f
000001a0: 9b3a 803f 1eca 553f 2347 4c3f ebcf 3d3f
000001b0: 2535 6f3f 9b41 523f 37de 493f 7873 1d3f
000001c0: 370e 3c3f 5f51 353f 130a 653f 8fb5 2e3f
000001d0: 8c0b 403f 8d97 323f 34ad 0b3f ab01 553f
000001e0: e3f1 403f 466d 1b3f b0db 543f 3217 3a3f
000001f0: a801 4a3f be04 573f c22b 453f f2ba 1b3f
00000200: 4561 013f e6f6 323f 349a 893f 638b 473f
00000210: 7765 4c3f 7baa 563f 827c 1d3f 4f64 563f
00000220: 96aa 473f 57c7 3c3f 0531 393f 301b 433f
00000230: 04ed 453f 6f29 453f e9c5 373f eda8 543f
00000240: 7ab1 4a3f 8c3c 583f 36db 6d3f 0c76 4a3f
00000250: b725 283f 0f3c 503f 470f 463f b2d7 463f
00000260: b45e 453f ede1 033f fe40 423f 0690 493f
00000270: 8ee9 273f 63cc 193f 88fc 463f af83 353f
00000280: 17eb 483f 0d7e a33f e0a6 543f 329c 273f
00000290: 81f6 4a3f 357c 863f c6f8 3f3f fb8c 6e3f
000002a0: 139b 373f a23a 523f 77f9 4e3f 0c2a 4b3f
000002b0: 4cce 223f 2d65 1e3f b90e 373f 5a4c 583f
000002c0: 1f4e 503f dfcc 4b3f e253 403f ad06 5a3f
000002d0: c5b6 433f 2b32 303f 28e0 4a3f 48db 523f
000002e0: d75d 573f 33d5 393f 66d3 533f 57b6 553f
000002f0: 88e1 593f 6aad 363f cea1 633f 6896 3c3f
00000300: 45a2 533f 5254 663f 0c77 463f bdab 223f
00000310: 304f 433f c776 403f b9c6 073f 648d 2a3f
00000320: b81b 5c3f c8f6 453f 3543 483f 4347 423f
00000330: cac0 2e3f f548 293f 1196 5f3f 8da0 363f
00000340: 707e 4b3f cd27 453f 348d 443f 03a0 253f
00000350: 3217 283f d496 4e3f 3059 2c3f 09d9 383f
00000360: 1181 483f e405 463f 4de5 5d3f 2899 293f
00000370: ad79 383f 81a8 4b3f f8e7 203f 8653 593f
00000380: 19e4 363f 922c 363f 7ad4 423f eafc 403f
00000390: 104f 9e3f 009d 343f 1507 283f 536e 423f
000003a0: 106c 253f e258 3d3f 4497 003f a1a1 2e3f
000003b0: 9829 483f 3286 383f 716b 153f f296 343f
000003c0: c126 403f 9fb7 463f 9f1b 2f3f 6f23 5d3f
000003d0: 5c86 403f 3508 323f 2b3c 0d3f 9159 3b3f
000003e0: beaa 693f 86e1 6a3f 933a 343f 1d00 2f3f
000003f0: 11fd 783f 27a1 3c3f f25a 483f 5f81 3e3f

model.1.bias f4 [480]
-0.42404872 -0.24220222 -0.124659896 -0.3025429 -0.08818054 -0.3937966 -0.2054168 -0.21562123
-0.21967214 -0.19915438 -0.18970287 -0.19601509 -0.1128155 -0.25430983 -0.49047178 -0.23235756
-0.42570695 -0.40117377 -0.31766364 -0.4813537 -0.2773146 -0.18398334 -0.39519018 -0.54438365
-0.28251034 -0.11896243 -0.31823173 -0.10086764 -0.34988865 -0.28797704 -0.2901289 -0.37385383
-0.12945837 -0.2037825 -0.36341476 -0.42514583 -0.2815941 -0.32481432 -0.23137186 -0.23852928
-0.32997096 -0.20961228 -0.37656522 -0.30587927 -0.23748621 -0.24489899 -0.32757708 -0.1734995
-0.43121672 -0.31872046 -0.42690426 -0.3431849 -0.29703385 -0.31142762 -0.24839813 -0.4404309
-0.4348175 -0.2505297 -0.18144676 -0.38589326 -0.35030904 -0.41489863 -0.21820177 -0.44620237
-0.1913202 -0.38236243 -0.36714098 -0.27007794 -0.2689742 -0.1947298 -0.34001487 -0.2577071
-0.2570207 -0.46791735 -0.27601546 -0.18956102 -0.2230674 -0.255133 -0.42637014 -0.25640047
-0.2913078 -0.11241045 -0.16009593 -0.2987025 -0.014197861 -0.41358924 -0.3344676 -0.19930418
-0.18642673 -0.2897633 -0.3176738 -0.23410009 -0.20237173 -0.32906142 -0.34747496 -0.1567802
-0.44797072 -0.35375398 -0.26198187 -0.37311792 -0.23205887 -0.1872892 -0.28271106 -0.20158462
-0.47249484 -0.3100298 -0.3991526 -0.33664486 -0.45685953 -0.4422423 -0.45879737 -0.16919048
-0.28290132 -0.14177719 -0.19625157 -0.49228516 -0.31560776 -0.35941356 -0.10704463 -0.65829384
-0.45310637 -0.48384193 -0.40475824 -0.3812866 -0.4626848 -0.3839722 -0.37265986 -0.22338577
-0.21624629 -0.28847292 -0.424265 -0.36617485 -0.21476537 -0.19666849 -0.19062102 -0.2578337
-0.41912392 -0.20908299 -0.22271587 -0.41496566 -0.3247222 -0.28174764 -0.2754372 -0.09187452
-0.2699078 -0.33534434 -0.1279286 -0.4052237 -0.12914765 -0.21960819 -0.14720143 -0.30059224
-0.33271804 -0.33964074 -0.46781105 -0.46301135 -0.14529343 -0.2718134 -0.5545631 -0.16149205
-0.23586687 -0.3322412 -0.38540548 -0.47735485 -0.39343923 -0.21421055 -0.28840932 -0.23789203
-0.12424733 -0.28408188 -0.28242084 -0.5856843 -0.1690612 -0.37512702 -0.43228146 -0.1820347
-0.25056264 -0.26583156 -0.1790002 -0.3727665 -0.19230238 -0.267963 -0.23115993 -0.6159558
-0.30052742 -0.2151618 -0.20402493 -0.4430554 -0.51388913 -0.5099076 -0.18863645 -0.19813375
-0.316543 -0.3192139 -0.2695725 -0.31330773 -0.34629473 -0.23799053 0.0044259024 -0.3317037
-0.2592424 -0.41029292 -0.30637118 -0.370641 -0.26353252 -0.2125816 -0.3045195 -0.188331
-0.31015605 -0.40864304 -0.14185068 -0.18576516 -0.3994737 -0.3587036 -0.4082545 -0.13891797
-0.4371018 -0.28027722 -0.24333258 -0.35210338 -0.22368975 -0.30593842 -0.27733427 -0.81929404
-0.21656436 -0.29291356 -0.31013846 -0.3071316 -0.29496115 -0.39597312 -0.14238839 -0.39515767
-0.20660312 -0.39219755 -0.1797079 -0.23171718 -0.15499553 -0.5389228 -0.085674085 -0.124962986
-0.11609857 -0.14818774 -0.25937262 -0.28245094 -0.22139451 -0.27668875 -0.31801087 -0.17336607
-0.3959533 -0.18441208 -0.3395578 -0.45438007 -0.36818758 -0.34218296 -0.5603892 -0.41416925
00000000: ea1c d9be dc03 78be b04d ffbd e7e6 9abe
00000010: 0098 b4bd b59f c9be c858 52be d0cb 5cbe
00000020: bcf1 60be 20ef 4bbe 7841 42be 2eb8 48be
00000030: d00b e7bd e634 82be 1e1f fbbe 24ef 6dbe
00000040: 43f6 d9be a666 cdbe cfa4 a2be fe73 f6be
00000050: 2efc 8dbe 2166 3cbe 5e56 cabe ba5c 0bbf
00000060: 32a5 90be 93a2 f3bd 45ef a2be b193 cebd
00000070: 9b24 b3be ba71 93be c68b 94be c569 bfbe
00000080: bc90 04be 5cac 50be 8011 babe b7ac d9be
00000090: 1a2d 90be 104e a6be bfec 6cbe 0541 74be
000000a0: f4f1 a8be 9aa4 56be 28cd c0be 359c 9cbe
000000b0: 962f 73be cdc6 7abe 2fb8 a7be daa9 31be
000000c0: 70c8 dcbe 542f a3be 3293 dabe eeb5 afbe
000000d0: d214 98be 7173 9fbe 145c 7ebe 2980 e1be
000000e0: 66a0 debe 6e45 80be 2ecd 39be cd93 c5be
000000f0: b55b b3be 986d d4be 4970 5fbe a374 e4be
00000100: 71e9 43be 02c5 c3be e7f9 bbbe a847 8abe
00000110: fdb6 89be 4067 47be 6e16 aebe 2ff2 83be
00000120: 3898 83be dd92 efbe e651 8dbe 491c 42be
00000130: c86b 64be cba0 82be 304d dabe ec46 83be
00000140: 4c26 95be 7337 e6bd 30f0 23be 89ef 98be
00000150: 259e 68bc f8c1 d3be 563f abbe 6516 4cbe
00000160: a6e6 3ebe db5b 94be 24a6 a2be efb7 6fbe
00000170: 893a 4fbe bd7a a8be 3de8 b1be fd8a 20be
00000180: 6b5c e5be 3e1f b5be 7d22 86be 5009 bfbe
00000190: d7a0 6dbe bdc8 3fbe 81bf 90be 336c 4ebe
000001a0: d8ea f1be 3abc 9ebe bb5d ccbe b75c acbe
000001b0: 7ee9 e9be 956d e2be 7de7 eabe 4540 2dbe
000001c0: 71d8 90be 0a2e 11be 2cf6 48be cd0c fcbe
000001d0: 5797 a1be 0e05 b8be 373a dbbd f285 28bf
000001e0: 8ffd e7be 21ba f7be 793c cfbe ff37 c3be
000001f0: 06e5 ecbe 0198 c4be 46cd bebe 3dbf 64be
00000200: ab6f 5dbe b9b2 93be 4339 d9be 457b bbbe
00000210: 74eb 5bbe 7763 49be 2832 43be c702 84be
00000220: 6997 d6be da19 56be a10f 64be 6176 d4be
00000230: fd41 a6be 3a41 90be 1b06 8dbe b528 bcbd
00000240: 5b31 8abe 41b2 abbe b7ff 02be 7b79 cfbe
00000250: 483f 04be f8e0 60be f9bb 16be 3ae7 99be
00000260: 055a aabe 64e5 adbe ee84 efbe d30f edbe
00000270: cdc7 14be 202b 8bbe d9f7 0dbf 2c5e 25be
00000280: 1687 71be 851b aabe de53 c5be db67 f4be
00000290: de70 c9be 035a 5bbe 63aa 93be f899 73be
000002a0: 6275 febd 2e73 91be 7799 90be 68ef 15bf
000002b0: 611e 2dbe a610 c0be ff53 ddbe 4e67 3abe
000002c0: bf49 80be 131b 88be d44b 37be 40db bebe
000002d0: eaea 44be 7232 89be 30b5 6cbe 48af 1dbf
000002e0: bbde 99be 6053 5cbe e9eb 50be 28d8 e2be
000002f0: 3d8e 03bf 4e89 02bf ea29 41be 93e3 4abe
00000300: ed11 a2be 0170 a3be 6805 8abe df69 a0be
00000310: 8b4d b1be cab3 73be 2907 913b 11d5 a9be
00000320: 6bbb 84be ea11 d2be afdc 9cbe a8c4 bdbe
00000330: bced 86be feae 59be fbe9 9bbe d7d9 40be
00000340: c6cc 9ebe a939 d1be 4e41 11be 3939 3ebe
00000350: d187 ccbe 00a8 b7be bc06 d1be 8340 0ebe
00000360: cfcb dfbe 7f80 8fbe 2d2c 79be e546 b4be
00000370: ed0e 65be f6a3 9cbe c2fe 8dbe 41bd 51bf
00000380: 0cc3 5dbe c4f8 95be 78ca 9ebe 5a40 9dbe
00000390: 2605 97be fdbc cabe 43ce 11be 1b52 cabe
000003a0: c58f 53be 1ece c8be 5905 38be 4547 6dbe
000003b0: 26b7 1ebe d8f6 09bf e575 afbd 98ec ffbd
000003c0: 16c5 edbd 87be 17be 7dcc 84be 699d 90be
000003d0: 3eb5 62be 26aa 8dbe 52d2 a2be e086 31be
000003e0: 64ba cabe 85d6 3cbe 85da adbe 81a4 e8be
000003f0: 1583 bcbe 9b32 afbe ab75 0fbf fe0d d4be

model.1.running_mean f4 [480]
0.0045004347 -0.00081148045 -0.010165549 0.0056901886 0.0007024305 0.00993374 -0.002038335 -0.0012853846
-0.0061782105 0.0103175435 -0.0026809126 0.008003133 0.0031681983 0.018326547 -0.004916942 0.006398096
0.0035828487 -0.0058429893 -0.021290312 0.007941602 -0.0063764052 0.007627995 0.00751879 0.004611187
-0.0008137 0.0011031181 0.020317204 -0.014201507 -0.0059069926 -0.01198225 0.00084748317 0.00039737532
0.0011738345 -0.011415295 0.0076709935 0.004025281 0.008412139 0.00028444477 0.013236876 0.0005438356
0.0016924031 0.011548857 0.007431661 0.010886587 -0.012766282 -0.015853949 0.003537877 -0.0046713008
-0.0014261228 0.007073522 0.0035138137 0.0061641266 0.0023094732 -0.003973768 0.0071848845 0.0068827886
-0.0058258018 -0.00927712 -0.0022983958 -0.0022834742 -0.003789199 -0.0085547445 0.0029943578 -0.005232637
0.002749131 0.003355168 0.015103662 -0.009325409 0.0032323375 0.0020368677 -0.0009023378 -0.005617637
-0.0013538895 -0.0067946324 0.0067304685 -0.011227804 0.0028670013 -0.00091649266 -0.006289689 -0.00095379713
0.0019962257 0.009289907 0.01518755 0.01128662 -0.014275454 -0.00037139142 -0.007997711 0.0077564144
-0.009122366 0.0069040395 -0.0017720945 -0.0019669372 -0.008780869 0.003969484 -0.0016328851 0.0013128842
0.0006020862 -0.0057468507 -0.004718947 -0.004612972 0.0040107216 -0.0105187185 0.012206901 -0.011509187
0.005904566 0.0017250055 0.006123581 -0.00013665663 0.008029579 -0.0047717565 -4.7398382e-05 -0.008364554
0.017690297 0.0032682875 0.01446569 -0.00922764 -0.0043172957 0.0019321493 -0.017457811 -0.00906489
-0.0023703203 -0.00645044 0.010335917 -0.009737214 0.0018855133 0.007304532 0.007400709 0.0015292151
0.0023793662 0.0059272507 0.003761353 -0.00051770406 0.00025550695 -0.0039317114 0.0028906795 -0.006316223
-0.003150268 0.018731728 -0.008320873 0.00440536 0.005161525 0.015251601 0.0040532826 -8.019386e-06
-0.016588524 0.015494234 0.0038913283 -0.0052742558 0.00022176991 0.00872349 0.010887284 0.0016106217
-0.001849879 -0.0070792087 -0.008768209 -0.0027779646 -0.011616054 -0.0037258693 0.002275261 0.008464681
0.0012278263 0.00037768972 0.008702852 0.001986282 0.0016257246 -0.000549898 0.018580537 0.015241165
0.0024863994 -0.00079963054 0.0013390994 0.002235946 -0.014334466 -0.0026079929 0.0035890636 0.007738815
-0.005006225 0.008881936 -0.00077140785 0.0077728843 -0.0040349113 -0.006129623 0.00024528324 6.960996e-06
0.0206215 0.005351272 0.0022688233 -0.009601997 -0.0048397346 0.006465488 -0.002266664 0.007568706
0.0072335443 0.0065195994 0.016359244 0.0021249196 0.0041997894 0.0037738269 -0.014472014 -0.0021589997
0.003617425 -0.006949858 0.0073666563 -0.0034268573 -0.00060558785 0.0023603113 0.021817446 0.0025005643
0.0017211518 -0.005707672 0.01041319 -0.004669605 -0.020817382 -0.0018016037 -0.00125714 -0.0047621857
0.005274755 0.0037580344 0.0012024343 -0.002303453 -0.0021709134 0.0076306444 0.006847747 -0.0032513277
0.00040501996 0.00079516205 0.00042931456 -0.0071631144 -0.00049040327 -0.019725712 -0.0052738893 -0.009048317
0.0020028437 0.0024964027 -0.0032165002 -0.010506243 -0.0022477538 -0.0028271882 -0.015538309 0.005536701
0.013893412 0.008389666 0.004447786 0.009304179 -0.0013198872 -6.313046e-05 0.0015723705 0.00825826
0.013095424 0.007017393 0.010799499 -0.0059058215 0.0077438797 0.003304272 0.0068312557 -0.0028094319
00000000: 6278 933b 88b9 54ba 678d 26bc c374 ba3b
00000010: 5023 383a 20c1 223c 9695 05bb 5a7a a8ba
00000020: 9672 cabb ea0a 293c 40b2 2fbb 931f 033c
00000030: 8ca1 4f3b 8e21 963c 4d1e a1bb 1fa7 d13b
00000040: 3ace 6a3b 8c76 bfbb 0569 aebc 7e1d 023c
00000050: 2af1 d0bb 43f4 f93b 2f60 f63b 7119 973b
00000060: 7c4e 55ba 8096 903a 4470 a63c 70ad 68bc
00000070: 728f c1bb 3351 44bc a229 5e3a d056 d039
00000080: 5adb 993a 3807 3bbc f55c fb3b 81e6 833b
00000090: 11d3 093c 8821 9539 7bdf 583c 3090 0e3a
000000a0: a0d3 dd3a 6b37 3d3c 4a85 f33b a85d 323c
000000b0: ab29 51bc 24e0 81bc badb 673b b611 99bb
000000c0: beec baba 01c9 e73b 0348 663b 71fc c93b
000000d0: 885a 173b 6236 82bb 2e6f eb3b 0489 e13b
000000e0: 5ee6 bebb 10ff 17bc afa0 16bb 57a6 15bb
000000f0: 3654 78bb 3329 0cbc fd3c 443b 8a76 abbb
00000100: c42a 343b 61e2 5b3b 5a75 773c 9ac9 18bc
00000110: a0d5 533b f87c 053b dd8a 6cba 2814 b8bb
00000120: fe74 b1ba 82a5 debb 438b dc3b d3f4 37bc
00000130: 4de4 3b3b c840 70ba bc19 cebb 3e08 7aba
00000140: 1cd3 023b b234 183c 34d5 783c 84eb 383c
00000150: 98e3 69bc 50b7 c2b9 d508 03bc 8529 fe3b
00000160: fa75 15bc 483b e23b a045 e8ba bbe7 00bb
00000170: a2dd 0fbc 7212 823b 8806 d6ba 1515 ac3a
00000180: 52d5 1d3a 1450 bcbb 66a1 9abb 6a28 97bb
00000190: 5f6c 833b b456 2cbc 74ff 473c 0791 3cbc
000001a0: 177b c13b 9419 e23a 52a8 c83b 7c4b 0fb9
000001b0: 7f8e 033c 655c 9cbb a0cd 46b8 7b0b 09bc
000001c0: 3eeb 903c c430 563b 8001 6d3c 872f 17bc
000001d0: 1a78 8dbb 2c40 fd3a af03 8fbc e884 14bc
000001e0: 6057 1bbb 365e d3bb fa57 293c d688 1fbc
000001f0: 5423 f73a db5a ef3b a681 f23b f26f c83a
00000200: 24ef 1b3b 6239 c23b 0881 763b 88b6 07ba
00000210: 90f5 8539 96d5 80bb 8e71 3d3b 52f8 cebb
00000220: ba74 4ebb 4873 993c 4554 08bc d75a 903b
00000230: 0322 a93b dae1 793c 66d1 843b 008b 06b7
00000240: a8e4 87bc 87db 7d3c a805 7f3b aad3 acbb
00000250: e88a 6839 f8ec 0e3c 9460 323c 7f1b d33a
00000260: a477 f2ba b5f8 e7bb 89a8 0fbc 830e 36bb
00000270: 4351 3ebc b72d 74bb 8c1c 153b 72af 0a3c
00000280: 04ef a03a a804 c639 6896 0e3c 482c 023b
00000290: 4416 d53a 0827 10ba 3636 983c 14b6 793c
000002a0: dcf2 223b 4c9e 51ba b884 af3a f388 123b
000002b0: 1cdb 6abc dcea 2abb 7f36 6b3b e395 fd3b
000002c0: 420b a4bb 8a85 113c 4e38 4aba aeb3 fe3b
000002d0: 4a37 84bb 01db c8bb 5c99 8039 8092 e936
000002e0: 6cee a83c b959 af3b 8ab0 143b b251 1dbc
000002f0: a396 9ebb 72dc d33b 508c 14bb e802 f83b
00000300: 5e07 ed3b 5da2 d53b d203 863c 3c42 0b3b
00000310: 639e 893b 4f52 773b 071c 6dbc 017e 0dbb
00000320: 5212 6d3b a2bb e3bb fe63 f13b 2095 60bb
00000330: 50c0 1eba 74af 1a3b 80ba b23c 82e0 233b
00000340: 4598 e13a 6c07 bbbb 169c 2a3c 7c03 99bb
00000350: 3789 aabc ca23 ecba 9ec6 a4ba 1c0c 9cbb
00000360: dad7 ac3b 5b49 763b 009b 9d3a 87f5 16bb
00000370: e245 0ebb 7c0a fa3b 1163 e03b 3a14 55bb
00000380: dc58 d439 6c72 503a a015 e139 8fb8 eabb
00000390: 688e 00ba d197 a1bc 97d0 acbb 643f 14bc
000003a0: 2442 033b b09a 233b ebcb 52bb 6122 2cbc
000003b0: 0d4f 13bb 5948 39bb 6494 7ebc 376d b53b
000003c0: 32a1 633c cf74 093c bcbe 913b 8e70 183c
000003d0: 1100 adba e864 84b8 0018 ce3a a74d 073c
000003e0: 308e 563c 29f2 e53b 62f0 303c 9f85 c1bb
000003f0: 5fc0 fd3b 7c8c 583b bad8 df3b 721e 38bb

model.1.running_var f4 [480]
0.29596943 0.30424023 0.3828826 0.30497748 0.35583866 0.940466 0.28162262 0.29170725
0.19415548 0.28093693 0.282131 0.514546 0.21553285 0.30596694 0.19874242 0.36878696
0.4384408 0.17349637 0.29279345 0.5323877 0.47732905 0.2161177 0.46951407 0.35529312
0.34777883 0.30853793 0.59291476 0.24907999 0.20553522 0.20555755 0.1975809 0.36498284
0.24366003 0.26446322 0.40257996 0.33422264 0.32018632 0.39283645 0.23413429 0.22418927
0.16922048 0.43487078 0.29021716 0.2890712 0.3241819 0.47460425 0.3312983 0.40394968
0.42003697 0.35805428 0.32468817 0.20906858 0.36340684 0.33270836 0.2641308 0.39147207
0.17915708 0.27964827 0.34382215 0.37741125 0.3153217 0.31048825 0.11026012 0.42026445
0.17121297 0.31256095 0.5700786 0.438464 0.44497842 0.4334987 0.25426224 0.30991864
0.13037339 0.34440255 0.37042296 0.34297064 0.22093417 0.32313025 0.23302855 0.19611256
0.26158136 0.30875134 0.37548995 0.20092046 0.30357856 0.40923607 0.36695138 0.28889927
0.40540656 0.28814235 0.5105461 0.27928558 0.5222881 0.4265012 0.17566314 0.35502923
0.21985626 0.4824632 0.7408684 0.22813694 0.13712147 0.21283758 0.4565736 0.2339561
0.48652387 0.28993124 0.3796967 0.34901386 0.73099273 0.3191449 0.12664345 0.382505
0.36870944 0.23420452 0.2750815 0.16502358 0.32342342 0.29724696 0.33661374 0.086379156
0.21149684 0.21406071 0.424329 0.1499965 0.26168188 0.52795136 0.14614348 0.3628523
0.21595435 0.2574512 0.3818545 0.16921443 0.29476467 0.11675283 0.44356486 0.33333024
0.16414972 0.32173187 0.33272228 0.18417445 0.36290962 0.51664525 0.24816068 0.31947002
0.28073502 0.35396296 0.23165217 0.20651016 0.28253764 0.27175137 0.27269608 0.346081
0.36481774 0.23797554 0.23011535 0.11648153 0.21640429 0.28371444 0.39181498 0.3498886
0.053378135 0.24482918 0.1790625 0.3767504 0.35808071 0.26952803 0.38527617 0.24747452
0.22819152 0.06903556 0.40311757 0.1565552 0.4990102 0.5511664 0.24638867 0.28427163
0.25492597 0.30843508 0.21579085 0.72389954 0.35591143 0.4802886 0.15474837 0.16369106
0.36353076 0.29560286 0.3689198 0.17053257 0.05709745 0.30939195 0.21116689 0.27187094
0.390212 0.5051642 0.23474732 0.3652118 0.40720528 0.30709603 0.22465673 0.3119876
0.15877242 0.2687242 0.18541338 0.36256582 0.40951562 0.25138497 0.4250825 0.27112672
0.12644462 0.22470063 0.19713691 0.2906012 0.37294975 0.199693 0.29447958 0.4099327
0.12926218 0.13167068 0.22770014 0.3365062 0.27172238 0.22930242 0.40445933 0.041108053
0.25614995 0.37286088 0.047728408 0.39812514 0.3014761 0.48484695 0.23112793 0.19197167
0.2923539 0.24946286 0.2268115 0.32175028 0.43937114 0.15871193 0.30909163 0.47052512
0.28657103 0.39006644 0.24730739 0.35872597 0.22689375 0.12351226 0.2670287 0.3178047
0.7205938 0.26374486 0.242406 0.3318194 0.49939227 0.52992654 0.15847555 0.43457365
00000000: 4e89 973e 60c5 9b3e 3009 c43e 0226 9c3e
00000010: 7c30 b63e 61c2 703f d730 903e a75a 953e
00000020: b2d0 463e f7d6 8f3e 7973 903e 49b9 033f
00000030: a5b4 5c3e b3a7 9c3e 2283 4b3e a5d1 bc3e
00000040: 507b e03e 08a9 313e 06e9 953e 8f4a 083f
00000050: 7964 f43e f54d 5d3e 2664 f03e fbe8 b53e
00000060: 1110 b23e aff8 9d3e 43c9 173f d30e 7f3e
00000070: d377 523e ae7d 523e a652 4a3e 08df ba3e
00000080: 0482 793e b967 873e f61e ce3e 3b1f ab3e
00000090: 76ef a33e dc21 c93e e6c0 6f3e df91 653e
000000a0: 2248 2d3e 62a7 de3e 5897 943e 2401 943e
000000b0: 2cfb a53e 54ff f23e ee9f a93e 7ed2 ce3e
000000c0: 160f d73e e452 b73e 873d a63e 1316 563e
000000d0: 7610 ba3e c058 aa3e 273c 873e 076f c83e
000000e0: f474 373e 0f2e 8f3e 7509 b03e 0c3c c13e
000000f0: d971 a13e 51f8 9e3e 0fd0 e13d e72c d73e
00000100: 7452 2f3e fd07 a03e acf0 113f 5a7e e03e
00000110: 36d4 e33e 8bf3 dd3e a92e 823e a8ad 9e3e
00000120: 9a80 053e 8855 b03e 14a8 bd3e d999 af3e
00000130: 913c 623e 5471 a53e 099f 6e3e bbd1 483e
00000140: feed 853e a814 9e3e 3840 c03e 18be 4d3e
00000150: a66e 9b3e 6487 d13e 0de1 bb3e 9bea 933e
00000160: 7391 cf3e 6587 933e 26b3 023f 85fe 8e3e
00000170: acb4 053f 5e5e da3e 0ae1 333e 64c6 b53e
00000180: 0022 613e 6b05 f73e 8da9 3d3f bb9c 693e
00000190: 9269 0c3e 18f2 593e 04c4 e93e 3092 6f3e
000001a0: a819 f93e de71 943e 9b67 c23e f2b1 b23e
000001b0: 5722 3b3f f666 a33e d2ae 013e b2d7 c33e
000001c0: 7cc7 bc3e 4fd3 6f3e 7bd7 8c3e f1fb 283e
000001d0: c197 a53e c130 983e a358 ac3e 8ee7 b03d
000001e0: a192 583e bb32 5b3e a741 d93e af98 193e
000001f0: 2bfb 853e d227 073f a3a6 153e c7c7 b93e
00000200: 2323 5d3e a5d0 833e 6f82 c33e 8c46 2d3e
00000210: 65eb 963e 1c1c ef3d ef1a e33e 43aa aa3e
00000220: dd16 283e 0aba a43e 935a aa3e 3a98 3c3e
00000230: 4acf b93e dd42 043f d51d 7e3e 9391 a33e
00000240: 80bc 8f3e a23a b53e 3a36 6d3e 6677 533e
00000250: c6a8 903e ff22 8b3e d29e 8b3e 8731 b13e
00000260: 64c9 ba3e dcaf 733e 5ca3 6b3e de8d ee3d
00000270: 1699 5d3e 0543 913e f99b c83e 9924 b33e
00000280: 08a3 5a3d 80b4 7a3e 295c 373e 6ee5 c03e
00000290: 5b56 b73e 94ff 893e eb42 c53e f669 7d3e
000002a0: 0aab 693e 8462 8d3d 6d65 ce3e 0250 203e
000002b0: 447e ff3e 3e19 0d3f 504d 7c3e 0d8c 913e
000002c0: a885 823e 34eb 9d3e 47f8 5c3e 7b51 393f
000002d0: 063a b63e 63e8 f53e 5b76 1e3e a19e 273e
000002e0: b420 ba3e 4259 973e 0ee3 bc3e 17a0 2e3e
000002f0: 04df 693d 9f68 9e3e 223c 583e ab32 8b3e
00000300: dec9 c73e 7152 013f 9a61 703e 0bfd ba3e
00000310: 367d d03e b13b 9d3e 6a0c 663e d7bc 9f3e
00000320: 3d95 223e 3896 893e 01dd 3d3e 3aa2 b93e
00000330: 08ac d13e 88b5 803e 6aa4 d93e 1fd1 8a3e
00000340: b37a 013e ec17 663e 42de 493e aec9 943e
00000350: 45f3 be3e 527c 4c3e 07c6 963e b3e2 d13e
00000360: 4e5d 043e aed4 063e 3a2a 693e 8a4a ac3e
00000370: 321f 8b3e 41ce 6a3e 4b15 cf3e eb60 283d
00000380: 1626 833e 9fe7 be3e dd7e 433d 0fd7 cb3e
00000390: 135b 9a3e dc3d f83e cdac 6c3e 3994 443e
000003a0: 69af 953e 3173 7f3e 4641 683e 74bc a43e
000003b0: 41f5 e03e 6185 223e 4241 9e3e abe8 f03e
000003c0: 70b9 923e cab6 c73e 263e 7d3e eeaa b73e
000003d0: d656 683e fff3 fc3d fcb7 883e 4cb7 a23e
000003e0: d678 383f 9109 873e 4739 783e 3be4 a93e
000003f0: 58b0 ff3e 44a9 073f 6a47 223e 7080 de3e

model.4.weight f4 [320, 480]
0.00030975498 0.01939514 0.11926683 0.019136071 0.031541273 0.07991163 -0.12008027 -0.091801204
-0.16489457 0.08283235 0.098423004 -0.09390027 0.08006624 0.030144986 -0.04448389 0.027405435
-0.03683857 0.04318197 -0.024303006 -0.025636625 0.033577237 0.029871816 0.056968424 -0.04310275
0.122703664 0.044578705 0.07724244 -0.04650353 0.027581776 -0.021793498 0.06735169 0.033160552
0.10251206 -0.14624517 0.029558169 0.0046308786 -0.17304492 0.04167943 0.019870114 -0.028865257
0.058652867 -0.001468384 0.023484586 0.04390066 0.07295249 -0.041195646 0.06920527 0.0972348
0.08190015 0.018360965 -0.012233104 0.055938482 -0.05590472 -0.09927763 0.049206622 0.07917963
-0.0851357 -0.12667026 -0.05873509 -0.11174401 0.027200008 0.04565281 0.040820546 0.023177337
0.053853523 -0.12811957 0.084016696 -0.024064872 -0.0006354812 0.028267052 0.0416586 -0.1310714
0.06504204 0.0018850503 -0.17528096 -0.035397325 -0.011479697 -0.025146699 -0.051270932 0.10655992
0.054056805 -0.052823704 -0.05009443 -0.0104954885 -0.0042685494 0.07502859 0.041574784 -0.17422193
-0.02156274 0.0020919486 0.009757488 -0.049691357 -0.003283584 0.026084881 -0.043860037 -0.08711288
0.07305871 0.010817716 0.033669118 0.03863813 0.056842785 0.12875967 0.057952013 -0.1041329
0.091707595 -0.05688955 -0.0070731626 -0.09735874 0.15631776 -0.12598164 -0.0022089095 -0.005938038
0.0035815458 -0.016769938 -0.011844747 -0.19414732 0.09854071 -0.082667924 -0.05430666 0.05756347
-0.1191756 0.03537057 0.054547157 0.049972855 -0.1193249 -0.017729804 -0.037061222 -0.028265754
-0.1436855 -0.07508289 0.07117521 -0.037405 -0.013494869 -0.017459318 -0.025109775 -0.10010451
0.042244952 -0.10725131 0.1375503 -0.0026450702 -0.05817699 0.0151958475 0.011904404 0.097979955
0.06336845 -0.026102075 0.060800124 -0.056537464 -0.0842401 0.081981264 0.020913085 0.096931644
-0.030530855 0.045220915 0.044200983 -0.042130034 -0.13002653 0.031072158 -0.04030359 -0.03216154
0.120232016 0.03808845 0.03174819 0.02123766 -0.013351758 0.09278114 0.080247864 0.05627513
-0.11416328 0.050128814 0.054310292 -0.061975967 -0.13148549 -0.027228132 -0.054982398 0.022851566
0.034297477 0.06306269 0.095175266 0.106305666 0.10163638 0.03001352 -0.00022961122 -0.0008154577
-0.031800322 0.15822844 0.0152304685 0.037586335 -0.18269768 0.085225224 0.011086206 -0.06341978
0.05293005 -0.006775187 0.09566548 -0.14885195 0.08581499 0.0024946183 -0.100075565 -0.1224731
-0.06802326 -0.056857154 0.09484903 0.05909376 -0.11239391 -0.06084409 -0.08821169 -0.12374484
0.0702889 0.08593403 0.019990327 0.057505038 -0.052339148 -0.059734877 0.07863939 -0.098962516
-0.004335708 -0.0030473333 0.026306547 -0.014388885 0.064506166 0.078112826 0.08876478 -0.08236473
-0.12071294 0.05667779 0.02808877 0.008758215 0.09647487 -0.06286394 -0.0011663055 0.020191085
0.006593819 -0.09358057 -0.012565767 -0.14726472 0.007996095 0.108481355 -0.072522685 0.06695259
0.10641644 0.024147809 0.095654435 0.024949951 0.04161824 -0.023620851 0.015215696 -0.06847404
0.060347896 0.040216435 -0.067185834 -0.07450157 0.1366508 -0.0926035 0.069788925 0.15587275
00000000: 9c66 a239 8fe2 9e3c 2b42 f43d 40c3 9c3c
00000010: 6c31 013d b5a8 a33d a5ec f5bd 4502 bcbd
00000020: 1fda 28be 02a4 a93d 0092 c93d c94e c0bd
00000030: c5f9 a33d 9ef2 f63c bd34 36bd 5d81 e03c
00000040: 0ae4 16bd 94df 303d 1917 c7bc e603 d2bc
00000050: 4988 093d bdb5 f43c b957 693d 828c 30bd
00000060: 0f4c fb3d 2998 363d 4931 9e3d 7c7a 3ebd
00000070: 2df3 e13c 4788 b2bc afef 893d 5cd3 073d
00000080: d8f1 d13d 4bc1 15be f923 f23c a0be 973b
00000090: b032 31be 0db8 2a3d a6c6 a23c d576 ecbc
000000a0: fd3d 703d cb76 c0ba bf62 c03c 2ed1 333d
000000b0: 1d68 953d c4bc 28bd 7ebb 8d3d 0a23 c73d
000000c0: 44bb a73d bc69 963c 5b6d 48bc c01f 653d
000000d0: 59fc 64bd 1252 cbbd e28c 493d ee28 a23d
000000e0: a05b aebd d9b5 01be 3594 70bd 0bda e4bd
000000f0: 8dd2 de3c 71fe 3a3d 7233 273d 66de bd3c
00000100: 8395 5c3d c731 03be f210 ac3d b223 c5bc
00000110: 6c96 26ba 4e90 e73c 35a2 2a3d 9537 06be
00000120: c334 853d cb13 f73a da7c 33be c9fc 10bd
00000130: 5715 3cbc 7300 cebc 7801 52bd 163c da3d
00000140: ab6a 5d3d ab5d 58bd d12f 4dbd 45f5 2bbc
00000150: 30df 8bbb 97a8 993d 524a 2a3d 3c67 32be
00000160: 58a4 b0bc 1319 093b dfdd 1f3c 2a89 4bbd
00000170: 6631 57bb f6af d53c 95a6 33bd 3d68 b2bd
00000180: ce9f 953d ca3c 313c a1e8 093d 0443 1e3d
00000190: fbd3 683d 93d9 033e 175f 6d3d a143 d5bd
000001a0: 31d1 bb3d 0405 69bd fdc5 e7bb 0564 c7bd
000001b0: c311 203e 5501 01be 5ac3 10bb e093 c2bb
000001c0: 5eb8 6a3b 1c61 89bc 7810 42bc 8ece 46be
000001d0: b6cf c93d cd4d a9bd a970 5ebd acc7 6b3d
000001e0: 5612 f4bd bbe0 103d d76c 5f3d 56b0 4c3d
000001f0: 9d60 f4bd 183e 91bc 82cd 17bd 958d e7bc
00000200: 4b22 13be 0fc5 99bd 4fc4 913d fc35 19bd
00000210: 9519 5dbc d806 8fbc 04b3 cdbc 9803 cdbd
00000220: 0b09 2d3d 93a6 dbbd fcd9 0c3e ea58 2dbb
00000230: ff4a 6ebd 01f8 783c b00a 433c b7a9 c83d
00000240: 51c7 813d 05d4 d5bc 8d09 793d d493 67bd
00000250: 1386 acbd cbe5 a73d eb51 ab3c 1984 c63d
00000260: d81b fabc 9139 393d 170c 353d 8b90 2cbd
00000270: ad25 05be 0a8b fe3c 6115 25bd d2bb 03bd
00000280: 343c f63d a202 1c3d 640a 023d 9afa ad3c
00000290: 55c1 5abc 0a04 be3d fe58 a43d c080 663d
000002a0: 70ce e9bd df53 4d3d 7874 5e3d 83da 7dbd
000002b0: 22a4 06be 880d dfbc 3935 61bd 3533 bb3c
000002c0: 837b 0c3d 0327 813d 40eb c23d c9b6 d93d
000002d0: bc26 d03d eade f53c cbc3 70b9 71c4 55ba
000002e0: 0e41 02bd a306 223e 3789 793c 21f4 193d
000002f0: 1a15 3bbe 908a ae3d eba2 353c 3be2 81bd
00000300: 2ecd 583d 6302 debb 43ec c33d a56c 18be
00000310: c5bf af3d c07c 233b 6bf4 ccbd 2dd3 fabd
00000320: c74f 8bbd 0ce3 68bd 3540 c23d 4c0c 723d
00000330: c72e e6bd a737 79bd 55a8 b4bd ef6d fdbd
00000340: a0f3 8f3d 2efe af3d c1c2 a33c 678a 6b3d
00000350: 9361 56bd 8fac 74bd b00d a13d dcac cabd
00000360: 8e12 8ebb c5b5 47bb d480 d73c 5cbf 6bbc
00000370: cf1b 843d 9ef9 9f3d 4fca b53d d7ae a8bd
00000380: 5938 f7bd f826 683d 6c1a e63c 9e7e 0f3c
00000390: 9e94 c53d cfbe 80bd b8de 98ba c667 a53c
000003a0: f610 d83b 2ba7 bfbd a6e0 4dbc 90cc 16be
000003b0: 0e02 033c 792b de3d c686 94bd 711e 893d
000003c0: ddf0 d93d a0d1 c53c 79e6 c33d d763 cc3c
000003d0: e377 2a3d 8480 c1bc 414b 793c 1e3c 8cbd
000003e0: 5b2f 773d fdb9 243d ba98 89bd 4794 98bd
000003f0: 30ee 0b3e e7a6 bdbd 7fed 8e3d 1b9d 1f3e
