models/bench_model.pth (torch, 49270 bytes, 13 tensors)

model.0.weight f4 [192, 19]
0.13082768 -0.49316776 -0.0034673708 -0.0072729713 -0.09025424 0.02736536 -0.047983818 0.029782575
-0.23083122 0.043955322 0.0396549 0.029291784 0.001787024 -0.04222485 0.07833122 0.009362591
0.30094692 -0.08790783 -0.14533418 0.21148947 -0.009196229 -0.10056429 -0.6697757 -0.08048071
-0.102730356 0.14995551 -0.024981013 -0.09544017 0.028767698 -0.13841361 0.150255 0.03914475
0.03091724 -0.15227363 -0.04950793 -0.10214193 0.1625052 -0.06496848 0.2446847 -0.3553769
0.15598138 0.077819325 0.08605629 0.019822994 -0.043275844 -0.059472535 0.05230441 -0.06154775
-0.066014744 -0.035416324 0.3763723 -0.061859272 0.022744494 0.01707096 0.08324817 -0.13576917
-0.30723947 0.029668937 -0.086269595 -0.11157107 -0.33196387 -0.20948875 0.083125584 -0.005230049
0.0054586325 -0.058020648 0.032570045 -0.17859274 0.13441855 0.2761246 0.04079955 -0.08820189
0.2347135 -0.17801172 -0.04623706 -0.041754983 0.19112086 -0.23729041 0.16010194 -0.0111411875
-0.20644559 0.14474846 -0.07872172 -0.08846526 -0.027494095 -0.032166608 -0.016847389 -0.09719415
-0.14297628 -0.023461062 -0.13493541 0.11733952 0.0016015077 -0.07270281 0.3179275 -0.26191977
-0.09989923 -0.022408394 -0.085914806 0.24946517 0.04169293 0.17198241 0.2329596 -0.12693349
0.31621647 0.017434953 0.094747625 -0.033435833 -0.24441284 -0.07854937 -0.07750425 0.12679777
0.085425265 -0.19572811 0.33007008 0.40465277 -0.077359065 0.059023555 -0.16113888 0.12145787
0.01151266 -0.089813344 -0.1258019 -0.030846339 -0.13934286 -0.030385777 0.06965747 0.14507681
0.11465902 0.08690131 0.060123775 -0.31118307 0.016432347 -0.01534811 0.0911739 -0.06599344
-0.12424073 0.080079906 -0.07097097 -0.08809127 -0.073709145 0.1932739 -0.07480556 0.107842356
0.064700566 0.39523208 0.10368417 0.13240652 0.11531436 -0.40743223 0.08777811 0.1655801
0.3805677 -0.17094038 0.12146618 0.0011137262 -0.08093927 0.12798674 0.06087666 0.09186797
-0.13445817 0.14185555 -0.04169114 -0.048108853 0.09823882 0.03415921 -0.1542303 -0.005166349
-0.089530624 0.11699387 0.38730648 0.041998412 -0.057180144 -0.2228266 0.1571439 -0.11791196
-0.12233758 0.4228186 0.23844698 0.05342511 0.08352529 0.04999855 0.108227536 0.074786164
0.00049050775 -0.089824714 0.026437484 -0.32318342 0.100322895 0.16960888 0.09048892 0.07752349
0.113883995 -0.040911913 -0.34120005 0.040963273 -0.13530658 -0.13661659 -0.16476549 -0.077408835
-0.11996321 0.00887368 -0.1414291 0.09177303 0.028421381 0.22743285 -0.014049864 -0.20227778
0.11799281 -0.018581763 -0.0150120165 0.12361745 0.051975843 0.11994277 0.2828793 -0.13261177
0.1643124 -0.111312784 -0.00037823914 -0.1292871 -0.3231215 0.035218105 0.0559226 -0.07669003
0.041244883 -0.13793655 -0.19608624 -0.3948746 -0.026742166 0.1508929 -0.005596524 -0.14237617
-0.4595388 0.056278322 -0.06139345 -0.16503441 0.039721053 -0.09334037 -0.03162489 -0.058281627
0.24677487 -0.150927 0.040913824 0.17829697 0.094923235 -0.2422657 -0.042670548 0.15814245
-0.08404439 -0.15481034 -0.031340655 -0.19638626 0.026407596 0.12578179 -0.055373766 -0.27918667
00000000: b1f7 053e 7c80 fcbe d43c 63bb 1b52 eebb
00000010: 37d7 b8bd 522d e03c ae8a 44bd 96fa f33c
00000020: 055f 6cbe 7f0a 343d 2d6d 223d 53f5 ef3c
00000030: 933a ea3a f7f3 2cbd 1e6c a03d 8e65 193c
00000040: b715 9a3e 0509 b4bd 7cd2 14be b290 583e
00000050: c8ab 16bc a7f4 cdbd 6c76 2bbf 12d3 a4bd
00000060: 4b64 d2bd f08d 193e fba4 ccbc 2376 c3bd
00000070: 3caa eb3c 4cbc 0dbe 72dc 193e 3f56 203d
00000080: 2746 fd3c 9eed 1bbe d4c8 4abd ca2f d1bd
00000090: c367 263e 320e 85bd a08e 7a3e f6f3 b5be
000000a0: 95b9 1f3e bd5f 9f3d 483e b03d d563 a23c
000000b0: 0342 31bd 7999 73bd 263d 563d 7e19 7cbd
000000c0: bd32 87bd b510 11bd dfb3 c03e 2660 7dbd
000000d0: a952 ba3c 66d8 8b3c 047e aa3d 1307 0bbe
000000e0: 7e4e 9dbe 450c f33c 1dae b0bd 607f e4bd
000000f0: 2bf7 a9be 3884 56be bf3d aa3d d560 abbb
00000100: 54de b23b 0fa7 6dbd 2b68 053d 04e1 36be
00000110: 04a5 093e 3460 8d3e 6e1d 273d 31a3 b4bd
00000120: bc58 703e b448 36be 1263 3dbd 4607 2bbd
00000130: 30b5 433e 42fc 72be c3f1 233e 8789 36bc
00000140: 7966 53be f138 143e da38 a1bd 462d b5bd
00000150: 4c3b e1bc 22c1 03bd 8903 8abc ba0d c7bd
00000160: 6068 12be 6a31 c0bc 822c 0abe b44f f03d
00000170: aee9 d13a 36e5 94bd 65c7 a23e 591a 86be
00000180: f897 ccbd cf91 b7bc 1af4 afbd cc73 7f3e
00000190: 35c6 2a3d 281c 303e f68c 6e3e dafa 01be
000001a0: 20e7 a13e bfd3 8e3c 0b0b c23d 03f4 08bd
000001b0: 5c47 7abe 7ede a0bd 8cba 9ebd 46d7 013e
000001c0: 71f3 ae3d f36c 48be f2fe a83e a62e cf3e
000001d0: 6e6e 9ebd afc2 713d 9701 25be e7be f83d
000001e0: 999f 3c3c 0ff0 b7bd 37d2 00be 76b1 fcbc
000001f0: e5af 0ebe 98eb f8bc 93a8 8e3d 048f 143e
00000200: 59d2 ea3d 50f9 b13d 5944 763d 6353 9fbe
00000210: 219d 863c a476 7bbc 62b9 ba3d 9227 87bd
00000220: ed71 febd ef00 a43d 3a59 91bd 3269 b4bd
00000230: d2f4 96bd 98e9 453e a833 99bd 74dc dc3d
00000240: bb81 843d dc5b ca3e 5e58 d43d 9395 073e
00000250: ef29 ec3d f59a d0be 02c5 b33d d48d 293e
00000260: c5d9 c23e ff0a 2fbe 43c3 f83d 73fa 913a
00000270: 7dc3 a5bd f50e 033e ce59 793d 4625 bc3d
00000280: 67af 09be 9542 113e 54c4 2abd ca0d 45bd
00000290: 6f31 c93d 87ea 0b3d 8cee 1dbe 7a4a a9bb
000002a0: d55b b7bd 7b9a ef3d 094d c63e 8706 2c3d
000002b0: ba35 6abd a82c 64be 55ea 203e d37b f1bd
000002c0: 208c fabd ae7b d83e 722b 743e 4ad4 5a3d
000002d0: 4f0f ab3d 48cb 4c3d 66a6 dd3d 7d29 993d
000002e0: 6b95 003a 05f6 b7bd 6c93 d83c 4c78 a5be
000002f0: 1776 cd3d f3ad 2d3e 4152 b93d a3c4 9e3d
00000300: 033c e93d 4093 27bd c6b1 aebe 1bc9 273d
00000310: cf8d 0abe 38e5 0bbe 49b8 28be 8688 9ebd
00000320: 45af f5bd e962 113c cad2 10be 80f3 bb3d
00000330: f5d3 e83c 28e4 683e 6731 66bc e821 4fbe
00000340: 37a6 f13d c838 98bc f6f4 75bc 252b fd3d
00000350: 9fe4 543d 8ea4 f53d 8ed5 903e 61cb 07be
00000360: 8341 283e f5f7 e3bd 664e c6b9 d663 04be
00000370: 2e70 a5be dc40 103d 190f 653d aa0f 9dbd
00000380: 65f0 283d 3d3f 0dbe d5ca 48be 012d cabe
00000390: 6312 dbbc ab83 1a3e 0c63 b7bb 0fcb 11be
000003a0: ab48 ebbe 1984 663d b377 7bbd c8fe 28be
000003b0: 8bb2 223d 3c29 bfbd 1a89 01bd b7b8 6ebd
000003c0: 8db2 7c3e 9c8c 1abe 4195 273d 7b93 363e
000003d0: 1d67 c23d 8014 78be 50c7 2ebd 18f0 213e
000003e0: 771f acbd 9a86 1ebe 0f5f 00bd 7b19 49be
000003f0: be54 d83c f1cc 003e 9acf 62bd 8ef1 8ebe

model.0.bias f4 [192]
0.00012124014 4.157464e-05 9.474584e-06 3.9030965e-06 -4.9584156e-05 4.928208e-06 5.015302e-05 -2.6154352e-05
6.291557e-05 -6.8709032e-06 -2.1515232e-05 -6.696304e-06 4.1938474e-06 6.432473e-05 -4.107707e-06 -2.3787377e-05
3.598202e-05 -1.940225e-05 -4.6657202e-05 -2.677348e-05 1.544441e-05 -8.6796004e-05 5.9925576e-05 -0.00011035266
0.00011926919 4.2374755e-05 4.7454272e-05 6.415239e-06 -0.00010832788 -0.00010789625 7.5948614e-05 -7.672543e-05
2.9266184e-05 9.985902e-05 -9.821125e-05 -0.00017502284 3.1921598e-05 5.781203e-05 1.2539347e-05 -9.0201705e-05
-4.1765248e-05 3.890731e-06 -2.7702268e-05 0.00010318261 -3.0317824e-07 -6.2542786e-05 4.7073103e-05 1.0421784e-05
5.528557e-05 -2.1992382e-06 -3.1347903e-05 -1.6411805e-05 2.143831e-06 -2.0896796e-05 1.9280931e-05 -4.5880843e-06
2.2381022e-05 -4.854956e-05 -5.094576e-05 -0.000169083 -9.671323e-05 4.9273665e-05 -2.0808027e-05 3.9160448e-05
-5.9106787e-06 5.4090582e-05 -3.7995058e-05 4.317829e-05 -1.9878067e-05 -0.0001538162 0.00024734973 -7.60417e-05
-0.000118437645 2.8072664e-05 7.091865e-06 -2.289414e-05 -8.282571e-05 -5.0695126e-06 0.00022195722 4.4668242e-05
5.815308e-06 -2.0295474e-06 5.3525895e-05 0.00010458079 6.3821644e-05 -1.8846798e-05 2.039875e-07 -9.0735426e-05
2.278695e-05 3.031296e-05 4.6983496e-07 3.2039272e-05 1.4002599e-06 0.00024647315 4.3142718e-05 -3.3261706e-05
1.6406608e-05 3.4264827e-05 -3.6428628e-06 -3.9984618e-05 3.0595093e-05 8.984684e-05 0.000112577785 0.000111069865
-6.2888495e-05 3.900217e-06 -3.6351877e-05 4.7929978e-05 6.7476376e-06 -9.276737e-06 0.0001280524 -1.8801478e-05
-2.6391877e-05 -7.908423e-05 8.866475e-05 -0.00010531179 5.605608e-05 1.1604832e-05 1.5786823e-05 0.00015249448
-4.8763046e-05 6.677041e-05 -3.9902297e-05 -3.5139e-05 -6.06026e-06 0.000104429186 9.724777e-05 4.1749627e-06
4.008766e-05 1.5260357e-05 -4.1760668e-05 4.2916152e-05 -1.8058745e-06 2.3473127e-05 9.965392e-05 -1.5018322e-05
-5.095827e-05 3.9755563e-05 6.2186446e-06 -2.3557677e-05 3.5899517e-05 0.00032317208 9.9488796e-05 -4.6661407e-06
-0.00020433827 3.4732155e-05 3.0000758e-05 -4.5986002e-05 -1.5116261e-05 -5.0019524e-05 1.770173e-05 7.1064896e-06
-1.3587945e-05 -0.000119066666 2.204309e-05 5.1615316e-05 2.2926182e-05 -3.9112918e-05 -2.1109929e-05 -2.1544147e-05
-4.70876e-05 -4.937811e-05 6.251528e-05 2.7541317e-05 5.9148064e-05 -8.065833e-05 -1.3365818e-05 -1.687963e-06
-4.5210472e-05 -1.2394876e-05 0.000108811044 2.24763e-05 -8.771056e-05 3.3692282e-05 -0.00011757039 -1.9544039e-05
3.203034e-05 -7.695693e-06 7.712725e-05 1.49605e-05 0.00013899911 5.9455437e-05 -8.438081e-05 -5.3104923e-05
0.00011627767 -0.00012705302 5.9469792e-05 -8.070405e-06 -3.4470948e-05 4.617556e-05 -0.0001081791 1.1629891e-05
00000000: 4e42 fe38 6e60 2e38 07f5 1e37 58f7 8236
00000010: 95f8 4fb8 fc5c a536 655b 5238 0b66 dbb7
00000020: 8af1 8338 9c8c e6b6 9c7b b4b7 d0b0 e0b6
00000030: e0b8 8c36 14e6 8638 efd4 89b6 018b c7b7
00000040: 66eb 1638 04c2 a2b7 cab1 43b8 9c97 e0b7
00000050: 9e8e 8137 4006 b6b8 9958 7b38 226d e7b8
00000060: 2920 fa38 8cbb 3138 a309 4738 7c42 d736
00000070: 162e e3b8 5c46 e2b8 9a46 9f38 a7e7 a0b8
00000080: a780 f537 676b d138 c3f6 cdb8 5686 37b9
00000090: 8ee3 0538 327b 7238 1660 5237 ac2a bdb8
000000a0: 182d 2fb8 208d 8236 2b62 e8b7 be63 d838
000000b0: 80c4 a2b4 6729 83b8 5c70 4538 39d9 2e37
000000c0: 6ee2 6738 a096 13b6 8e7b 03b8 15ac 89b7
000000d0: bcde 0f36 874b afb7 7cbd a137 58f3 99b6
000000e0: e1be bb37 b1a1 4bb8 98ae 55b8 df4b 31b9
000000f0: 85d2 cab8 32ab 4e38 e68c aeb7 3640 2438
00000100: 5854 c6b6 52df 6238 e25c 1fb8 561a 3538
00000110: d3bf a6b7 b949 21b9 b8ae 8139 9478 9fb8
00000120: ba61 f8b8 967d eb37 a8f6 ed36 cb0c c0b7
00000130: b7b2 adb8 c81a aab6 30bd 6839 295a 3b38
00000140: 1e21 c336 5c33 08b6 fe80 6038 6252 db38
00000150: fcd7 8538 3119 9eb7 a807 5b34 3649 beb8
00000160: 9a26 bf37 9648 fe37 a03d fc34 e861 0638
00000170: 90f0 bb35 1139 8139 24f4 3438 7c82 0bb8
00000180: eca0 8937 94b7 0f38 e877 74b6 28b5 27b8
00000190: 3b53 0038 286c bc38 bd17 ec38 2eee e838
000001a0: 01e3 83b8 9cde 8236 8878 18b8 6c08 4938
000001b0: c469 e236 48a3 1bb7 ce45 0639 deb7 9db7
000001c0: 2064 ddb7 06da a5b8 86f1 b938 d6da dcb8
000001d0: c21d 6b38 60b2 4237 f26d 8437 ede6 1f39
000001e0: ec86 4cb8 1707 8c38 c45c 27b8 3762 13b8
000001f0: 3d59 cbb6 fe00 db38 80f1 cb38 a816 8c36
00000200: cc23 2838 5e03 8037 2d28 2fb8 de00 3438
00000210: 6061 f2b5 28e8 c437 4afd d038 34f7 7bb7
00000220: 07bc 55b8 36bf 2638 c0a9 d036 ba9d c5b7
00000230: d092 1638 6c6f a939 a4a4 d038 d891 9cb6
00000240: a343 56b9 5ead 1138 23aa fb37 18e1 40b8
00000250: d99b 7db7 0ecc 51b8 2d7e 9437 4874 ee36
00000260: c8f7 63b7 6eb3 f9b8 2de9 b837 867d 5838
00000270: 9a51 c037 2d0d 24b8 3a15 b1b7 b4b9 b4b7
00000280: ed7f 45b8 581b 4fb8 a31a 8338 8708 e737
00000290: c015 7838 1c27 a9b8 c03d 60b7 f88d e2b5
000002a0: 60a0 3db8 96f3 4fb7 7c31 e438 7d8b bc37
000002b0: 40f1 b7b8 d050 0d38 1f90 f6b8 81f2 a3b7
000002c0: 5158 0638 c01c 01b7 61bf a138 dcfe 7a37
000002d0: 4ac0 1139 ca5f 7938 9af5 b0b8 fabc 5eb8
000002e0: 19da f338 8939 05b9 346f 7938 2066 07b7
000002f0: e694 10b8 a1ac 4138 36de e2b8 001e 4337

model.1.weight f4 [192]
0.77474964 0.70300263 0.6668901 0.6347582 0.46217382 0.45971152 0.6138562 0.4941074
0.5294133 0.6082022 0.5191444 0.638641 0.5054558 0.61893076 0.38468668 0.59348136
0.6523628 0.7776568 0.46536356 0.5212735 0.5251209 0.48759487 0.6826993 0.6481059
0.6560832 0.7328275 0.54692894 0.5200469 0.64307946 0.8610244 0.5721389 0.6798944
0.7053662 0.42194203 0.83918804 0.91969043 0.6160584 0.5574063 0.68736327 0.49944568
0.5781904 0.55106944 0.58584255 0.59692276 0.6472799 0.49529287 0.61486447 0.60504526
0.80343604 0.39852443 0.80065006 0.6117442 0.39713806 0.56156445 0.5997097 0.6179801
0.7334032 0.5876679 0.6609181 0.6020581 0.45741475 0.46979666 0.40360034 0.6807497
0.37757254 0.51868093 0.71198064 0.4916846 0.6866176 1.0082355 0.87583303 0.50027955
0.6262679 0.56504023 0.75498044 0.41714132 0.6290774 0.91189104 0.63558203 0.71706784
0.59655637 0.45023996 0.50099635 0.4997998 0.52698725 0.41121843 0.5804043 0.6137695
0.4859786 0.5516944 0.49665526 0.56517076 0.6804487 0.8232657 0.66437554 0.5498538
0.6643884 0.72590387 0.53542244 0.5559402 0.75594735 0.67901534 0.7908284 0.53487986
0.6753153 0.57532734 0.65985495 0.5623973 0.48047417 0.58785355 0.5918855 0.49002922
0.5490292 0.7217754 0.74757093 0.7985911 0.5630138 0.6329242 0.50964767 0.65891486
0.5836859 0.7365787 0.6231901 0.6335723 0.34274405 0.57183 0.62431854 0.683335
0.6411435 0.6193656 0.51145786 0.6317689 0.61812496 0.7201493 0.5377698 0.52847564
0.53919363 0.7592342 0.46359095 0.7561615 0.5318753 0.7376358 0.6103002 0.57305735
0.50847363 0.81760657 0.5985135 0.50670904 0.4780127 0.6089119 0.5153388 0.67914194
0.50983745 0.6399121 0.60756433 0.46415886 0.7494242 0.4625318 0.6920461 0.6906798
0.71679646 0.58907354 0.7182945 0.6268946 0.6172509 0.36744633 0.5637166 0.7399059
0.65038186 0.6644277 0.5955114 0.6428323 0.7037327 0.5332366 0.84285545 0.5632188
0.6281301 0.6902765 0.6956242 0.6001456 0.8467624 0.66412866 0.74051493 0.6311354
0.6529179 0.5176396 0.39149958 0.61855996 0.6528043 0.6097432 0.6544547 0.60172385
00000000: fe55 463f fbf7 333f 4fb9 2a3f 837f 223f
00000010: 0ca2 ec3e 4f5f eb3e ae25 1d3f a5fb fc3e
00000020: a187 073f 24b3 1b3f a6e6 043f fa7d 233f
00000030: 8d65 013f 3f72 1e3f a7f5 c43e 65ee 173f
00000040: 4001 273f 8414 473f 2244 ee3e 2e72 053f
00000050: 536e 063f 09a6 f93e 62c5 2e3f 45ea 253f
00000060: 12f5 273f 959a 3b3f 8903 0c3f cb21 053f
00000070: dba0 243f 186c 5c3f b277 123f 8f0d 2e3f
00000080: e192 343f c908 d83e 07d5 563f d570 6b3f
00000090: 01b6 1d3f 2eb2 0e3f 0af7 2f3f 58b7 ff3e
000000a0: 4904 143f e312 0d3f c7f9 153f eecf 183f
000000b0: 23b4 253f 0797 fd3e c267 1d3f 3fe4 1a3f
000000c0: fcad 4d3f 650b cc3e 67f7 4c3f 459b 1c3f
000000d0: ae55 cb3e b0c2 0f3f 9386 193f f233 1e3f
000000e0: 50c0 3b3f 6771 163f ee31 293f 7b20 1a3f
000000f0: 4432 ea3e 3089 f03e b4a4 ce3e 9d45 2e3f
00000100: 3051 c13e 46c8 043f 5d44 363f 15be fb3e
00000110: 2cc6 2f3f dc0d 813f 9836 603f 5212 003f
00000120: 1853 203f 7aa6 103f 6646 413f 8c93 d53e
00000130: 370b 213f b171 693f 81b5 223f c291 373f
00000140: ebb7 183f da85 e63e 4c41 003f c2e5 ff3e
00000150: a3e8 063f 398b d23e 6095 143f ff1f 1d3f
00000160: 30d2 f83e d83b 0d3f 9949 fe3e 08af 103f
00000170: e331 2e3f 8ac1 523f 8414 2a3f 38c3 0c3f
00000180: 5c15 2a3f d6d4 393f 7211 093f 1952 0e3f
00000190: c485 413f f3d3 2d3f bb73 4a3f e3ed 083f
000001a0: 77e1 2c3f a748 133f 41ec 283f 45f9 0f3f
000001b0: b600 f63e 927d 163f cf85 173f 1ce5 fa3e
000001c0: 2d8d 0c3f 46c6 383f cf60 3f3f 7770 4c3f
000001d0: ac21 103f 5207 223f 4578 023f a5ae 283f
000001e0: 706c 153f 6c90 3c3f 6389 1f3f cb31 223f
000001f0: 267c af3e 7363 123f 57d3 1f3f 0bef 2e3f
00000200: fb21 243f be8e 1e3f e7ee 023f 9bbb 213f
00000210: 703d 1e3f b45b 383f 48ab 093f 2e4a 073f
00000220: 9808 0a3f 2c5d 423f cb5b ed3e cd93 413f
00000230: fb28 083f b3d5 3c3f a23c 1c3f e3b3 123f
00000240: 542b 023f aa4e 513f 2e38 193f afb7 013f
00000250: 15be f43e a6e1 1b3f 3eed 033f 3fdc 2d3f
00000260: b584 023f 48d1 233f 5689 1b3f 3ba6 ed3e
00000270: 44da 3f3f f8d0 ec3e ef29 313f 64d0 303f
00000280: f97f 373f 86cd 163f 26e2 373f 2a7c 203f
00000290: 2804 1e3f ed21 bc3e bb4f 103f 796a 3d3f
000002a0: 6d7f 263f ef17 2a3f 6f73 183f a890 243f
000002b0: d427 343f 3282 083f 60c5 573f 1b2f 103f
000002c0: 22cd 203f f6b5 303f 6d14 323f 24a3 193f
000002d0: 6cc5 583f 5604 2a3f 6392 3d3f 1792 213f
000002e0: a125 273f 0784 043f a272 c83e f259 1e3f
000002f0: 2f1e 273f 2118 1c3f 588a 273f 930a 1a3f

model.1.bias f4 [192]
-0.44567612 -0.20914918 -0.40605283 -0.29653236 -0.3754039 -0.0661075 -0.3140223 -0.29275477
-0.11779363 -0.15773161 -0.18656452 -0.47909033 -0.38957676 -0.3778765 -0.27284798 -0.20474142
-0.2883897 -1.4115844 -0.16902962 -0.10615032 -0.18468034 -0.10564522 -0.50261587 -0.004083592
-0.08246653 -0.49433592 -0.20528091 -0.07984364 -0.3110189 -0.7349173 -0.27554327 -0.4341011
-0.7851389 -0.0044469954 -0.3402379 -0.77229065 -0.18052375 -0.18198425 -0.5428908 -0.16324486
-0.17175771 -0.28347167 -0.25916553 -0.3284761 -0.74394476 -0.05850003 -0.17931077 -0.54256743
-0.73687303 0.08843447 -0.46243584 -0.31166968 -0.07726682 -0.14611599 -0.4486523 -0.6525098
-0.46959442 -0.37813845 -0.21321294 -0.20226383 -0.08558704 -0.13469635 -0.13385598 -0.43598536
-0.012908443 -0.15278073 -0.3387685 0.007952291 -0.38250613 -0.8567263 -0.5231231 -0.2445233
-0.32074985 -0.5310567 -0.53471535 0.0015331281 -0.3333457 -0.7256245 -0.08014558 -0.38748887
-0.3648061 0.009823161 -0.3737506 -0.1615693 0.03325891 -0.008657076 0.007353439 -0.13371284
-0.021698236 -0.25661847 -0.37410244 -0.35943222 -0.40274394 -0.4544413 -0.3889184 -0.25184834
-0.39363393 -0.3878117 -0.23069341 -0.46073633 -0.5019314 -0.34172744 -0.6975076 -0.36614043
-0.48703408 -0.33948302 -0.27444285 -0.40300858 -0.04747314 -0.1271216 -0.36530352 -0.20277654
-0.15392758 -0.6887825 -0.93748623 -0.61457556 -0.17410766 -0.4669165 -0.22177264 -0.05996783
-0.25408724 -0.8039358 -0.48589304 -0.384361 -0.14285298 -0.363006 -0.44518343 -0.4660175
-0.3602536 -0.22404 -0.21733926 -0.2676861 -0.5080635 -0.5311289 -0.12875924 -0.26692626
-0.26588002 -0.6014284 -0.20495759 -0.31986496 -0.35568562 -0.6220661 -0.25206634 0.0010747218
-0.06095907 -0.33639213 -0.29779932 -0.028966203 -0.40960723 -0.19256297 -0.3963422 -0.48985034
-0.2361829 -0.2709352 -0.21628419 -0.130452 -0.16933113 0.062664494 -0.32883137 -0.15139318
-0.70182365 -0.53934973 -0.84838015 -0.34893128 -0.17143466 0.044412386 -0.21309061 -0.42854145
-0.44239464 -0.5662866 -0.07835972 -0.19441688 -0.5524443 -0.43042982 -0.18312623 -0.21711673
-0.3311778 -0.26873097 -0.3745137 -0.5562325 -0.75773585 -0.4106427 -0.31886715 -0.31516668
-0.24366254 -0.078045845 0.030842395 -0.4808992 -0.34459564 -0.2789199 -0.20827065 -0.4518178
00000000: a92f e4be 342b 56be 28e6 cfbe 17d3 97be
00000010: f134 c0be 5e63 87bd 88c7 a0be f4e3 95be
00000020: c93d f1bd 6584 21be c50a 3fbe 544b f5be
00000030: 9b76 c7be 0779 c1be bbb2 8bbe bca7 51be
00000040: d1a7 93be ccae b4bf 1a16 2dbe 5765 d9bd
00000050: d81c 3dbe 855c d8bd 6fab 00bf a7cf 85bb
00000060: 36e4 a8bd 9919 fdbe 2935 52be 1085 a3bd
00000070: df3d 9fbe 8a23 3cbf 0214 8dbe 8042 debe
00000080: ddfe 48bf 1ab8 91bb a933 aebe d7b4 45bf
00000090: 38db 38be 145a 3abe e4fa 0abf a929 27be
000000a0: 41e1 2fbe 3323 91be 58b1 84be 052e a8be
000000b0: 2a73 3ebf ba9d 6fbd 3e9d 37be b3e5 0abf
000000c0: b6a3 3cbf 221d b53d 64c4 ecbe 2b93 9fbe
000000d0: 113e 9ebd 6e9f 15be c1b5 e5be e20a 27bf
000000e0: ae6e f0be 5d9b c1be 7e54 5abe 401e 4fbe
000000f0: 4248 afbd d7ed 09be 8b11 09be 7939 dfbe
00000100: ef7d 53bc 8d72 1cbe 1173 adbe 534a 023c
00000110: d8d7 c3be 6a52 5bbf 65eb 05bf 5164 7abe
00000120: 5339 a4be 55f3 07bf 1be3 08bf 3ef3 c83a
00000130: 4aac aabe 87c2 39bf 5e23 a4bd f164 c6be
00000140: ddc7 babe 53f1 203c 3d5c bfbe 6c72 25be
00000150: 7f3a 083d 69d6 0dbc 1ef5 f03b 05ec 08be
00000160: 80c0 b1bc 7f63 83be 5b8a bfbe 8007 b8be
00000170: 7434 cebe 88ac e8be 5020 c7be 44f2 80be
00000180: 638a c9be 418f c6be e53a 6cbe a2e5 ebbe
00000190: 947e 00bf e6f6 aebe dc8f 32bf c276 bbbe
000001a0: 885c f9be b8d0 adbe c683 8cbe 2457 cebe
000001b0: 3273 42bd 2a2c 02be 1009 bbbe a7a4 4fbe
000001c0: 319f 1dbe 0d54 30bf 19ff 6fbf d354 1dbf
000001d0: 4749 32be ae0f efbe 5e18 63be d4a0 75bd
000001e0: b917 82be bdce 4dbf f9c6 f8be f7ca c4be
000001f0: 0d48 12be ecdb b9be 15ef e3be d999 eebe
00000200: 2973 b8be be6a 65be 2f8e 5ebe 270e 89be
00000210: 7310 02bf 10f8 07bf 76d9 03be 8faa 88be
00000220: 6d21 88be 36f7 19bf 67e0 51be 57c5 a3be
00000230: 6d1c b6be b93f 1fbf d70e 81be aedd 8c3a
00000240: 38b0 79bd 973b acbe 2779 98be 884a edbc
00000250: 0ab8 d1be 3a2f 45be 5ded cabe aacd fabe
00000260: eed9 71be 05b8 8abe 9a79 5dbe 3695 05be
00000270: 2465 2dbe 3e56 803d 965c a8be d006 1bbe
00000280: b7aa 33bf d312 0abf 712f 59bf 1fa7 b2be
00000290: 918c 2fbe c3e9 353d 6d34 5abe c969 dbbe
000002a0: 8d81 e2be 29f8 10bf 107b a0bd 3815 47be
000002b0: fd6c 0dbf 4c61 dcbe 7185 3bbe d953 5ebe
000002c0: 2390 a9be 1b97 89be 42c0 bfbe 4165 0ebf
000002d0: fafa 41bf c33f d2be 8e42 a3be 875d a1be
000002e0: ac82 79be 80d6 9fbd 31a9 fc3c 6c38 f6be
000002f0: d76e b0be 97ce 8ebe e744 55be aa54 e7be

model.1.running_mean f4 [192]
-0.0011639913 0.0014120782 -8.424927e-05 -0.001255651 -0.0023000774 0.0011291006 -0.0024353648 0.0013422816
-0.0024972484 -0.007086305 -0.0024299964 -9.4120376e-05 -0.0019069379 -0.0025799554 5.7894435e-05 -0.004706017
-0.00028372073 -0.0002487506 -0.0024033107 -0.00044811974 0.0035451837 -0.0011749392 -0.0025676163 -0.000978722
0.0043445765 0.0038566834 -0.0011272508 -0.0031983333 0.0032971688 -0.0028818396 -0.0018007542 -0.0045286026
0.0021143905 -0.003904379 0.0019208351 -0.002533529 -0.00026524247 -0.00053801603 0.002543199 -0.0013510208
-0.0012521943 -0.000843344 -0.0017106164 -0.0006857891 0.0009153505 -0.0005976059 -0.0015700032 0.0013471831
-0.003863011 0.00032969663 0.00011904552 -0.0013920808 -0.0018446951 -0.0039850767 -0.00014424714 -0.0048703253
0.0028257675 -0.004429905 0.00081621826 -2.4876192e-05 0.0018723012 -0.00042558013 -0.0019054002 -0.004287593
0.003903277 -0.0043443665 -0.005637349 0.0027182824 0.0039059953 -0.002602231 0.0033929695 -0.00061157596
-0.0014682736 -0.0027679366 0.001550029 0.00019660643 0.0030940408 -0.003968584 -0.0001599931 -0.0047633653
0.0018196868 -0.0002387177 0.001176425 0.0022345956 0.002369936 0.0029548593 0.00079183286 -0.0011112868
-0.00068048725 -0.0039448333 -0.0006306517 0.00053696294 -0.002830368 0.0012281605 0.0011014277 -0.0017622834
0.0003913687 -0.0013392138 -0.0018760029 0.0023727478 0.00032883897 -0.00077121286 -0.0017111397 -0.002273261
0.0025586768 -0.000882531 -0.0042683748 1.6156328e-05 -0.0015830267 -0.0042506293 -0.0024989322 0.00063425826
-0.0029930382 9.382636e-05 -0.0017948522 -0.004422109 -0.0007145943 0.00057434564 0.00015250643 -0.0009839435
-0.0028752226 0.004130188 0.007395015 -0.00046957814 0.0003422448 -0.0024230904 0.003176586 -0.0027871635
-0.0023729077 -0.0011071262 0.0028605082 -0.0027371647 -0.0008150924 -0.002196822 0.00036758886 0.0007878247
-0.0026884098 0.0011438548 0.0015680678 0.00083412253 -0.00041193832 -0.0022991884 -0.002382062 0.0046274494
-0.0010218234 0.0028016937 -0.0025344836 0.0017620503 -0.0021886071 -0.0046858587 0.0025341555 0.0022783673
-0.0037199263 0.002913614 -0.00123531 0.0016944096 -0.0018906328 -0.00623517 -0.00030285816 0.003587505
-0.0027197467 -0.00061130413 -0.0047309482 -0.0029224053 0.0015454814 0.0036040142 -0.0021833084 0.0034898238
-0.0035743052 -0.00077390077 -0.0026831015 -0.002374417 -0.001084206 -0.0034394062 -0.0014017761 0.003802913
-0.0025812467 0.0022484188 -0.0013723804 -0.0065308455 -0.00045440902 -0.0039589116 0.0022180628 -0.002172708
0.0014984488 0.003421976 -0.0013286299 0.0014769847 -0.0027008273 0.0007080404 -1.683349e-05 0.00032895943
00000000: 1191 98ba 7b15 b93a fbae b0b8 a894 a4ba
00000010: e5bc 16bb 54fe 933a a49a 1fbb 7fef af3a
00000020: e0a8 23bb 3c34 e8bb 9340 1fbb 7e62 c5b8
00000030: 38f2 f9ba 7814 29bb add3 7238 ef34 9abb
00000040: 5ac0 94b9 be6a 82b9 dd80 1dbb 9df1 eab9
00000050: 5056 683b 6b00 9aba 7445 28bb 7648 80ba
00000060: f35c 8e3b 69c0 7c3b 43c0 93ba 219b 51bb
00000070: 5015 583b 3fdd 3cbb 4907 ecba ac64 94bb
00000080: 9691 0a3b 9ce0 7fbb 88c4 fb3a 9009 26bb
00000090: 3e10 8bb9 a509 0dba cdab 263b bc14 b1ba
000000a0: ab20 a4ba dc13 5dba c336 e0ba 87c6 33ba
000000b0: 22f4 6f3a a7a8 1cba 91c8 cdba f793 b03a
000000c0: 922a 7dbb 22db ac39 14a8 f938 7b76 b6ba
000000d0: b2c9 f1ba 3f95 82bb 0c41 17b9 4097 9fbb
000000e0: 8330 393b bd28 91bb 7bf7 553a 37ad d0b7
000000f0: 0168 f53a 6620 dfb9 9fbe f9ba f07e 8cbb
00000100: 1fce 7f3b 305b 8ebb 83b9 b8bb 3625 323b
00000110: bafb 7f3b 318a 2abb 955c 5e3b 2b52 20ba
00000120: 1673 c0ba 4566 35bb 582a cb3a 2328 4e39
00000130: 64c5 4a3b e50a 82bb d2c3 27b9 0116 9cbb
00000140: 8f82 ee3a 4b50 7ab9 4632 9a3a 4b72 123b
00000150: ee50 1b3b 50a6 413b 0193 4f3a 99a8 91ba
00000160: ba62 32ba a943 81bb 5252 25ba f9c2 0c3a
00000170: b27d 39bb 3afa a03a c85d 903a 6bfc e6ba
00000180: 9e30 cd39 8f88 afba 36e4 f5ba 1a80 1b3b
00000190: 0568 ac39 382b 4aba 5248 e0ba fefa 14bb
000001a0: 79af 273b a759 67ba b9dd 8bbb 7387 8737
000001b0: 907d cfba dd48 8bbb 20c5 23bb 5a44 263a
000001c0: d926 44bb a5c4 c438 3f41 ebba 57e7 90bb
000001d0: 9d53 3bba af8f 163a 22ea 1f39 aaf7 80ba
000001e0: 3b6e 3cbb 8756 873b e251 f23b b631 f6b9
000001f0: 526f b339 b6cc 1ebb 452e 503b d8a8 36bb
00000200: c982 1bbb fe1c 91ba 5d77 3b3b 0162 33bb
00000210: edab 55ba 8ff8 0fbb f1b8 c039 0586 4e3a
00000220: 0830 30bb 66ed 953a a087 cd3a 04a9 5a3a
00000230: 6df9 d7b9 fbad 16bb 5e1c 1cbb dca1 973b
00000240: b4ee 85ba 9f9c 373b 9419 26bb 99f4 e63a
00000250: bc6e 0fbb d58b 99bb 1314 263b a950 153b
00000260: 02ca 73bb 55f2 3e3b 20ea a1ba f416 de3a
00000270: 1ccf f7ba 6650 ccbb efc8 9eb9 591c 6b3b
00000280: c73d 32bb ed3f 20ba 1206 9bbb d385 3fbb
00000290: c091 ca3a 5331 6c3b d615 0fbb 87b5 643b
000002a0: e43e 6abb 9adf 4aba f9d6 2fbb 1b9c 1bbb
000002b0: eb1b 8eba a967 61bb cdbb b7ba 4b3a 793b
000002c0: 222a 29bb 355a 133b 72e1 b3ba b400 d6bb
000002d0: bf3d eeb9 c2b9 81bb eb5c 113b fe63 0ebb
000002e0: 9967 c43a 3b43 603b 6c25 aeba 6297 c13a
000002f0: 5d00 31bb c99b 393a a535 8db7 3078 ac39

model.1.running_var f4 [192]
0.23092492 0.55790037 0.36758777 0.30104923 0.32588863 0.40653443 0.5154968 0.18174593
0.48238316 0.37542334 0.370078 0.45533043 0.37589636 0.25617662 0.2719435 0.37526885
0.5348759 0.15095854 0.65153533 0.302719 0.379169 0.43640205 0.2894491 0.25113866
0.52990913 0.33734512 0.5236946 0.31771433 0.3821063 1.1433027 0.31028187 0.3403495
0.25254682 0.3025675 0.5022939 1.0780795 0.32885218 0.26553416 0.6992632 0.3225431
0.500845 0.53862596 0.36307785 0.5052928 0.2518341 0.24886 0.39943302 0.26406348
0.7672173 0.40911847 0.38511345 0.51150924 0.32654357 0.29064968 0.631786 0.33975485
0.325342 0.4772847 0.4938594 0.28085068 0.39366022 0.54157645 0.4232619 0.5606028
0.418374 0.7360606 0.67071956 0.406657 0.28176883 1.0376109 1.1040523 0.45245168
0.2045759 0.40456572 0.42384586 0.5839737 0.39887047 0.75677985 0.42334756 0.47349954
0.39833802 0.41035903 0.3707679 0.29424644 0.4101439 0.41202226 0.44835085 0.2694327
0.6082047 0.33416915 0.3804246 0.3458062 0.60850954 0.43149817 0.3477896 0.317065
0.31927922 0.23831782 0.38190213 0.5380696 0.5476312 0.33029488 1.1103042 0.5737599
0.66995513 0.32682708 0.2958272 0.29035863 0.51508975 0.3936649 0.44188628 0.34101498
0.7596665 0.5021878 0.3577734 0.47767138 0.30767462 0.50694466 0.23940611 0.43638903
0.7272428 0.33273882 0.4543641 0.40052906 0.33759683 0.5295355 0.2769702 0.3164503
0.44265115 0.54754263 0.3703441 0.28253493 0.51599985 0.381943 0.2582011 0.36016858
0.5262959 0.23586456 0.4172685 0.59312886 0.21909471 0.9693792 0.35050336 0.5888163
0.37167323 0.61990565 0.28492025 0.49863422 0.35594442 0.4745257 0.37663224 0.4049764
0.40514308 0.27477932 0.2891107 0.34158975 0.39929408 0.69323325 0.30829614 0.63091815
0.54330885 0.29493275 0.85238713 0.4507617 0.45588064 0.3724844 0.43160787 0.34737623
0.29063877 0.58006316 0.32912013 0.31877926 0.15005016 0.29556745 0.3788099 0.35578644
0.5429937 0.39152595 0.8476864 0.7818351 0.20368534 0.17803273 0.5295847 0.2213048
0.37351122 0.45968327 0.32847473 0.5580553 0.6084424 0.24895586 0.31436387 0.20534194
00000000: 9577 6c3e 8fd2 0e3f 7734 bc3e 2023 9a3e
00000010: e0da a63e 4825 d03e 99f7 033f 9b1b 3a3e
00000020: edfa f63e 7d37 c03e dd7a bd3e 1221 e93e
00000030: 7d75 c03e 9529 833e 2e3c 8b3e 3d23 c03e
00000040: a1ed 083f e094 1a3e 05cb 263f fcfd 9a3e
00000050: 7022 c23e 1770 df3e ac32 943e 3f95 803e
00000060: 20a8 073f 80b8 ac3e d910 063f 74ab a23e
00000070: 70a3 c33e be57 923f 44dd 9e3e 4a42 ae3e
00000080: d14d 813e 21ea 9a3e 5596 003f 82fe 893f
00000090: 505f a83e 18f4 873e ea02 333f 5f24 a53e
000000a0: 6137 003f 64e3 093f 57e5 b93e de5a 013f
000000b0: 66f0 803e 28d5 7e3e 7c82 cc3e 5433 873e
000000c0: 5a68 443f fa77 d13e 972d c53e 45f2 023f
000000d0: b830 a73e 09d0 943e babc 213f 59f4 ad3e
000000e0: 3a93 a63e a95e f43e 24db fc3e a9cb 8f3e
000000f0: d58d c93e c1a4 0a3f c9b5 d83e aa83 0f3f
00000100: 1e35 d63e 786e 3c3f 47b4 2b3f 5935 d03e
00000110: 0144 903e 6fd0 843f 9651 8d3f bfa7 e73e
00000120: 587c 513e 3d23 cf3e 5302 d93e 4d7f 153f
00000130: c038 cc3e 53bc 413f 03c1 d83e 886e f23e
00000140: f6f2 cb3e 941a d23e 4ad5 bd3e 78a7 963e
00000150: 62fe d13e 95f4 d23e 3e8e e53e 15f3 893e
00000160: 4eb3 1b3f 3818 ab3e 03c7 c23e 830d b13e
00000170: 48c7 1b3f 54ed dc3e 7a11 b23e 5856 a23e
00000180: 9178 a33e 9609 743e ad88 c33e eebe 093f
00000190: 8f31 0c3f 691c a93e 731e 8e3f eee1 123f
000001a0: 2e82 2b3f e155 a73e aa76 973e e3a9 943e
000001b0: ecdc 033f 728e c93e eb3e e23e 8499 ae3e
000001c0: 8179 423f 618f 003f 132e b73e 5891 f43e
000001d0: 8787 9d3e 20c7 013f e026 753e 626e df3e
000001e0: 962c 3a3f be5c aa3e 69a2 e83e 2512 cd3e
000001f0: 7ed9 ac3e a38f 073f 0acf 8d3e c605 a23e
00000200: 2ca3 e23e c12b 0c3f be9d bd3e 6ba8 903e
00000210: 9118 043f 088e c33e ef32 843e 0468 b83e
00000220: 54bb 063f 7b86 713e 38a4 d53e 4bd7 173f
00000230: 5d5a 603e 3c29 783f 2d75 b33e aabc 163f
00000240: f44b be3e 23b2 1e3f 11e1 913e fc4c ff3e
00000250: 593e b63e 08f5 f23e f1d5 c03e 1159 cf3e
00000260: ea6e cf3e e0af 8c3e 5106 943e dae4 ae3e
00000270: 4670 cc3e bc77 313f fed8 9d3e da83 213f
00000280: 4a16 0b3f 6d01 973e 0b36 5a3f 3dca e63e
00000290: 3069 e93e 46b6 be3e b5fb dc3e 4cdb b13e
000002a0: 9bce 943e 057f 143f 6f82 a83e 0937 a33e
000002b0: c0a6 193e 9e54 973e 5ff3 c13e a429 b63e
000002c0: a301 0b3f 1776 c83e fa01 593f 5826 483f
000002d0: e492 503e 364e 363e dd92 073f ba9d 623e
000002e0: dd3c bf3e 9b5b eb3e d72d a83e b6dc 0e3f
000002f0: e2c2 1b3f 49ee 7e3e 4df4 a03e 2845 523e

model.4.weight f4 [32, 192]
-0.11524621 0.04985862 -0.1052351 -0.04704418 0.009703228 -0.06388246 0.031434827 -0.028214244
0.09746073 0.015508073 0.06863763 0.11414249 -0.07865458 0.12653549 0.0070294817 0.019201437
-0.03381072 -0.12936506 0.061583593 -0.053893965 -0.1823552 0.018156128 0.081243515 -0.16085696
-0.0031487648 -0.03949062 0.035771742 -0.091565385 0.038642075 0.14479391 -0.16991882 0.04093178
-0.2518455 -0.06964416 -0.16001691 0.02823306 0.009109131 0.083925985 0.084917635 0.004572456
-0.0096876165 0.021945534 -0.01361318 0.028199304 0.19149214 0.038086787 -0.062123414 -0.17811894
0.11815084 -0.129456 -0.042487442 0.02335212 0.09953715 0.08582545 -0.15654723 -0.062236443
-0.023314489 -0.0023389473 -0.2581163 -0.11348784 -0.030460494 0.0033526786 -0.09827256 0.005825931
-0.0030217539 -0.08842526 0.31017697 -0.14754866 0.017924123 0.08266163 -0.35667038 -0.11129208
-0.14063077 0.18308178 -0.07867892 -0.0011771107 -0.12813026 0.16412587 -0.06594735 0.18842332
-0.12190145 -0.06977718 -0.008898605 -0.120419465 -0.16068575 0.012008579 -0.03938496 0.1210532
-0.005842131 0.035403635 0.00560361 -0.014126248 -0.22162262 0.00040110922 0.022234498 0.112570815
-0.19547632 -0.009493666 0.07796298 0.06610338 0.05198973 -0.13225889 0.13395025 -0.1362686
0.14632396 0.007430284 -0.09477186 0.01295605 -0.09079979 0.033635598 0.004099947 0.025236806
-0.004698589 -0.0261602 -0.24975564 0.0065087015 -0.02565839 0.03027012 -0.048746433 -0.066542104
0.020851057 0.115011774 0.02436277 0.060150836 0.010635225 -0.04831695 -0.11961222 0.12740329
0.08052598 -0.0047212513 -0.012247075 -0.07255217 -0.19141985 0.07548279 -0.2098305 -0.16155083
-0.020620245 -0.055975024 -0.0067235236 -0.20756815 -0.070041806 0.07403299 0.016723912 -0.07425674
-0.3303569 0.10328934 0.08507062 -0.20820251 0.004286405 0.14121516 0.11954587 0.0057942127
0.004027116 0.0046180193 -0.18869945 0.06350098 0.0636891 -0.06176457 -0.09035099 -0.08678597
0.1559387 -0.15957852 0.13010827 -0.10877964 0.21433112 -0.004875581 0.02158773 -0.036899537
-0.03913743 0.08752433 -0.060711056 -0.18757316 0.16511258 -0.10680834 0.027981805 0.08141126
-0.0062666694 -0.050414454 0.022464573 -0.046717525 -0.018604683 -0.15992235 -0.071668245 -0.015554419
-0.022688057 0.03595145 0.046942424 0.16930008 0.026686568 0.08089369 -0.10841208 0.030580267
-0.023881612 0.061566584 0.000100980935 0.07924203 0.12416928 -0.1532947 0.029167615 -0.07686682
-0.036931485 0.10943408 0.045016978 -0.08394402 -0.17717661 0.08488551 0.07681073 0.044767212
0.060681902 -0.0596683 0.010744269 0.00084140647 -0.023435839 0.08918694 0.17077824 -0.115171276
-0.09015897 -0.053489145 -0.017298168 0.004787124 -0.1672695 0.37217477 -0.09510436 -0.031444576
0.13619286 0.062348273 0.035439186 0.3804288 -0.03755112 0.070425265 0.009790555 0.077089936
0.07474534 -0.022611478 -0.115037456 0.01440275 0.15325983 -0.018981852 -0.024367314 0.05550929
0.014321349 0.028762609 -0.17390208 -0.054991666 0.06850369 -0.0298972 0.09995306 0.09278526
-0.0027404053 0.014365751 -0.041806653 -0.0030664902 -0.10165011 0.053434238 0.040689 -0.11280034
00000000: 3406 ecbd 8d38 4c3d 8085 d7bd 66b1 40bd
00000010: 4afa 1e3c cfd4 82bd cec1 003d 8f21 e7bc
00000020: 7e99 c73d 9315 7e3c e391 8c3d 8ac3 e93d
00000030: a715 a1bd 8592 013e 9157 e63b 554c 9d3c
00000040: 1c7d 0abd 4678 04be 143f 7c3d ebbf 5cbd
00000050: 52bb 3abe 29bc 943c 0063 a63d b0b7 24be
00000060: 825b 4ebb ebc0 21bd 6485 123d a286 bbbd
00000070: 2747 1e3d db44 143e 33ff 2dbe 15a8 273d
00000080: e5f1 80be 99a1 8ebd 79db 23be 0549 e73c
00000090: 773e 153c 63e1 ab3d 4ce9 ad3d 8ad4 953b
000000a0: cfb8 1ebc 1fc7 b33c d109 5fbc 3a02 e73c
000000b0: 8416 443e e400 1c3d 1f75 7ebd d064 36be
000000c0: 11f9 f13d 1d90 04be 5007 2ebd f24c bf3c
000000d0: 22da cb3d 41c5 af3d eb4d 20be a4eb 7ebd
000000e0: 07fe bebc 0649 19bb d227 84be 506c e8bd
000000f0: 4988 f9bc 9db8 5b3b 2043 c9bd 74e7 be3b
00000100: 9e08 46bb 4d18 b5bd 84cf 9e3e ff16 17be
00000110: 9cd5 923c 804a a93d 809d b6be 1aed e3bd
00000120: 8301 10be ca79 3b3e 6a22 a1bd 4849 9aba
00000130: 9434 03be 9d10 283e 670f 87bd 0bf2 403e
00000140: 78a7 f9bd 57e7 8ebd 74cb 11bc 7b9e f6bd
00000150: ce8a 24be a2bf 443c 2052 21bd bdea f73d
00000160: 596f bfbb 6703 113d 7d9e b73b c771 67bc
00000170: 0af1 62be f84b d239 1f25 b63c 878b e63d
00000180: f22a 48be 528b 1bbc 0eab 9f3d 3561 873d
00000190: 2ff3 543d e06e 07be 412a 093e ff89 0bbe
000001a0: f3d5 153e bd79 f33b c017 c2bd 9d45 543c
000001b0: 3ef5 b9bd 7bc5 093d d958 863b 6bbd ce3c
000001c0: 9ff6 99bb ea4d d6bc f1bf 7fbe f246 d53b
000001d0: 8b31 d2bc 0bf9 f73c 57aa 47bd 3a47 88bd
000001e0: d6cf aa3c 4b8b eb3d 6f94 c73c b960 763d
000001f0: 5e3f 2e3c ffe7 45bd 40f7 f4bd 0276 023e
00000200: ceea a43d bab4 9abb f5a7 48bc 3b96 94bd
00000210: 9103 44be b996 9a3d cedd 56be 956d 25be
00000220: caeb a8bc 1146 65bd 0151 dcbb bf8c 54be
00000230: 1472 8fbd 9c9e 973d 9600 893c eb13 98bd
00000240: 8a24 a9be 5d89 d33d 8139 ae3d 0a33 55be
00000250: f974 8c3b b59a 103e 77d4 f43d 61dd bd3b
00000260: e6f5 833b c152 973b 6e3a 41be cd0c 823d
00000270: 6e6f 823d d9fc 7cbd f109 b9bd d8bc b1bd
00000280: 65ae 1f3e 8d68 23be 1a3b 053e dcc7 debd
00000290: 9e79 5b3e 56c3 9fbb c0d8 b03c f823 17bd
000002a0: 924e 20bd f53f b33d 28ac 78bd 2e13 40be
000002b0: 4613 293e 55be dabd 193a e53c f2ba a63d
000002c0: a258 cdbb 637f 4ebd a007 b83c e05a 3fbd
000002d0: d968 98bc afc2 23be cdc6 92bd f6d7 7ebc
000002e0: 4edc b9bc d441 133d b346 403d 005d 2d3e
000002f0: ca9d da3c 97ab a53d 2707 debd 7883 fa3c
00000300: 5fa3 c3bc 3e2d 7c3d bac5 d338 a549 a23d
00000310: 774c fe3d 49f9 1cbe ecf0 ee3c 5a6c 9dbd
00000320: 7845 17bd fa1e e03d b963 383d d8ea abbd
00000330: c96d 35be 74d8 ad3d f24e 9d3d d35d 373d
00000340: 968d 783d bf66 74bd bb08 303c d591 5c3a
00000350: 84fc bfbc a4a7 b63d 7ee0 2e3e ebde ebbd
00000360: 44a5 b8bd 6f17 5bbd e3b4 8dbc 4fdd 9c3b
00000370: b248 2bbe b18d be3e 13c6 c2bd 07cc 00bd
00000380: 2476 0b3e e760 7f3d ae28 113d 90c7 c23e
00000390: 34cf 19bd 1f3b 903d 9068 203c 54e1 9d3d
000003a0: 1614 993d b53b b9bc c298 ebbd 83f9 6b3c
000003b0: 25f0 1c3e d47f 9bbc f69d c7bc b65d 633d
000003c0: 17a4 6a3c 909f eb3c 6313 32be f13e 61bd
000003d0: aa4b 8c3d f9ea f4bc 31b4 cc3d 3306 be3d
000003e0: 5f98 33bb 545e 6b3c 743d 2bbd 2bf7 48bb
000003f0: ef2d d0bd dcdd 5a3d 82a9 263d dd03 e7bd

model.4.bias f4 [32]
0.00026984347 -7.7551675e-05 -0.00035743983 0.0002786376 9.903618e-06 0.00015061123 0.000196839 3.1216405e-05
3.26414e-06 -8.910716e-06 -8.021034e-05 -0.00026956166 -4.8135735e-06 3.9093087e-05 0.00010226997 -8.764542e-05
0.00011489649 0.00031970936 0.00023448122 8.115305e-05 0.00016039792 -8.9857844e-05 0.000121442165 -0.00013716906
2.3697386e-05 0.00040119514 0.00076690875 0.00028323854 -3.6661288e-05 0.00017911597 0.00015836369 -0.00042181066
00000000: c779 8d39 3da3 a2b8 c366 bbb9 1b16 9239
00000010: b727 2637 65ed 1d39 9166 4e39 5cee 0238
00000020: 800d 5b36 3c7f 15b7 9936 a8b8 f453 8db9
00000030: 4884 a1b6 e2f7 2338 c679 d638 47ce b7b8
00000040: 95f4 f038 aa9e a739 13df 7539 b630 aa38
00000050: 7d30 2839 1072 bcb8 c4ae fe38 0ad5 0fb9
00000060: c0c9 c637 8057 d239 600a 493a a27f 9439
00000070: c2c4 19b8 14d1 3b39 6e0e 2639 7826 ddb9

model.5.weight f4 [32]
1.2865946 1.3500483 1.1227069 1.4407649 1.2598774 1.1366585 1.1982672 1.1943935
1.2614486 1.3340437 1.2605779 1.2277683 1.3528848 1.3352675 1.0636309 1.3921947
1.3448323 1.2990357 1.3928847 1.1699723 1.2249492 1.2279034 1.2727789 1.447629
1.3709272 1.3695799 1.3308637 1.262562 1.1998259 1.2556106 1.3464352 1.3616459
00000000: 22af a43f 62ce ac3f dcb4 8f3f fc6a b83f
00000010: aa43 a13f 077e 913f d260 993f e3e1 983f
00000020: 2677 a13f f2c1 aa3f 9e5a a13f 8327 9d3f
00000030: 542b ad3f 0cea aa3f 0f25 883f 7033 b23f
00000040: 7723 ac3f cd46 a63f 0c4a b23f a7c1 953f
00000050: 23cb 9c3f f02b 9d3f 6bea a23f e84b b93f
00000060: 8b7a af3f 654e af3f be59 aa3f a29b a13f
00000070: e593 993f d9b7 a03f fd57 ac3f 6a4a ae3f

model.5.bias f4 [32]
-0.06509559 -0.07336468 -0.82440835 -0.7148668 -0.07076379 -1.1537446 -1.0260447 -0.8672414
-0.29031798 0.009954794 -0.6859723 -1.0510138 -0.26663277 2.2783875e-05 -0.81538546 -0.013887957
-0.19253881 -0.77705145 0.098629616 -0.7744047 -0.19471793 -0.6965495 -0.14079942 -0.18535137
-0.31683025 -0.24878955 -0.1027443 -1.3234665 -1.2061225 0.010019841 -0.2850394 -0.2085692
00000000: d650 85bd 3940 96bd 6d0c 53bf 8301 37bf
00000010: 9bec 90bd e7ad 93bf 6f55 83bf 8803 5ebf
00000020: 8fa4 94be 6f19 233c e19b 2fbf 9f87 86bf
00000030: 1784 88be 0020 bf37 1abd 50bf 508a 63bc
00000040: e528 45be d8ec 46bf 53fe c93d 633f 46bf
00000050: 2364 47be 1151 32bf b92d 10be c0cc 3dbe
00000060: 9337 a2be b0c2 7ebe 9b6b d2bd 5a67 a9bf
00000070: 3962 9abf 422a 243c aff0 91be 2a93 55be

model.5.running_mean f4 [32]
-0.48021442 -0.31018636 0.081434704 0.09865758 -0.07650184 0.004426595 -0.07975969 -0.3038032
-0.38195327 -0.08062993 -0.47455072 -0.004228826 -0.18274488 -0.1538424 -0.0091096675 -0.121321924
-0.3591731 -0.39762926 -0.41701236 0.072312534 -0.25284833 -0.17077017 -0.21432051 -0.27116922
-0.1590716 -0.16912729 -0.29690316 -0.11199768 -0.060469646 -0.22472581 -0.41237512 -0.6189972
00000000: aade f5be bfd0 9ebe 3dc7 a63d fc0c ca3d
00000010: ffac 9cbd f80c 913b 0c59 a3bd 188c 9bbe
00000020: 618f c3be 4e21 a5bd 50f8 f2be f791 8abb
00000030: 7921 3bbe dd88 1dbe b740 15bc a177 f8bd
00000040: 89e5 b7be 1096 cbbe a582 d5be 9818 943d
00000050: 5675 81be 60de 2ebe d676 5bbe b1d6 8abe
00000060: aae3 22be b42f 2dbe b103 98be 0a5f e5bd
00000070: 05af 77bd 861e 66be d522 d3be 9a76 1ebf

model.5.running_var f4 [32]
0.26056373 0.29717767 0.11953248 0.046173356 0.21728683 0.14149047 0.1727355 0.17195453
0.18334658 0.26303586 0.18023548 0.118282154 0.18970303 0.32501003 0.14432067 0.14194408
0.22639422 0.12987384 0.39429763 0.13163571 0.17794847 0.2096224 0.25778335 0.14732036
0.09730299 0.19890806 0.16654047 0.17035136 0.15212241 0.31965834 0.32400712 0.25797346
00000000: 9c68 853e ac27 983e 72cd f43d 4620 3d3d
00000010: 7080 5e3e e1e2 103e 93e1 303e d914 303e
00000020: 35bf 3b3e a3ac 863e a68f 383e ea3d f23d
00000030: 8341 423e b767 a63e ccc8 133e ca59 113e
00000040: e3d3 673e a6fd 043e 61e1 c93e 83cb 063e
00000050: 2038 363e 41a7 563e 2efc 833e 26db 163e
00000060: ca46 c73d 8eae 4b3e 9689 2a3e 9670 2e3e
00000070: fac5 1b3e 42aa a33e 43e4 a53e 1915 843e

model.8.weight f4 [1, 32]
0.4321677 0.48505276 -0.72156125 0.79970604 0.4242349 -0.92358136 -0.87650687 -0.73836726
0.50137675 0.36583662 -0.6822654 -0.8863701 0.44041812 0.38778374 -0.65876836 0.3846772
0.41299203 -0.75833744 0.43220505 -0.6679189 0.44340703 -0.76271176 0.4322555 0.45888317
0.54462934 0.52962214 0.46592095 -1.147759 -0.9019724 0.35456294 0.5546043 0.5106116
00000000: 1645 dd3e d658 f83e 3db8 38bf 89b9 4c3f
00000010: 5135 d93e d46f 6cbf c162 60bf a305 3dbf
00000020: 3a5a 003f f04e bb3e f2a8 2ebf 27e9 62bf
00000030: 7c7e e13e 978b c63e 0ba5 28bf 69f4 c43e
00000040: b173 d33e 6722 42bf fb49 dd3e bcfc 2abf
00000050: 3f06 e33e 1441 43bf 9850 dd3e bcf2 ea3e
00000060: d46c 0b3f 5195 073f 318d ee3e c4e9 92bf
00000070: aae7 66bf 4689 b53e 8cfa 0d3f 71b7 023f
