models/bench_model.pth (torch, 34934 bytes, 13 tensors)

model.0.weight f4 [128, 19]
0	0x3e93c8d5	0.2886416
1	0xbe982983	-0.2971917
2	0x3e653e64	0.22387081
3	0xbcd6f872	-0.026241515
4	0x3e495466	0.19661102
5	0xbc9a30fd	-0.018822188
6	0xbdc77aa8	-0.09740192
7	0x3c2295a6	0.009923374
8	0x3d7a6753	0.061133694
9	0x3ca88bc3	0.020574456
10	0xbd362a26	-0.04447379
11	0x3d93633c	0.07196662
12	0x3dd8ae76	0.10580151
13	0xbda00ddd	-0.07815144
14	0x3d9bf999	0.07615966
15	0xbdbc6b68	-0.092001736
16	0xbe27030d	-0.16309758
17	0x3dda4f52	0.106596604
18	0xbf111225	-0.5666831
19	0x3ead2f6b	0.3382524
20	0x3e2ff6a9	0.17183937
21	0x3e10a523	0.14125495
22	0xbe3f8950	-0.18704724
23	0xbe24f6aa	-0.1610972
24	0x3e35d65a	0.1775755
25	0x3d53f7c5	0.051749963
26	0xbe0aa5af	-0.13539766
27	0x3cf75cdb	0.030195644
28	0x3ece061c	0.40239036
29	0x3d063103	0.032761585
30	0x3e3c1a11	0.18369319
31	0xbe8304cd	-0.255896
32	0xbd90d94c	-0.07072696
33	0x3e05ac79	0.13054074
34	0x3d893485	0.066994704
35	0xbefa2ed9	-0.48863867
36	0xbeaf0fab	-0.3419164
37	0xbc0608ea	-0.008180836
38	0xba2db4f6	-0.00066263916
39	0x3a39e684	0.00070915394
40	0xbe67261d	-0.22573133
41	0x3bbcde3d	0.0057637976
42	0xb8833bae	-6.257683e-05
43	0x392c7c10	0.00016449415
44	0x3b22142a	0.0024731257
45	0x3a566a10	0.00081792567
46	0x3dabe887	0.083939604
47	0xbab25ce4	-0.0013608006
48	0x3b0b53e1	0.0021259713
49	0xbfa1cce9	-1.2640659
50	0xbec999d9	-0.3937519
51	0xbb673e8a	-0.003528508
52	0xba2f6b7c	-0.00066917366
53	0xbae8b3c2	-0.0017753767
54	0x3dae35ee	0.0850638
55	0x3b88479d	0.0041589276
56	0xbac9883e	-0.0015375686
57	0x3f2bff6a	0.67186606
58	0xbe423a6d	-0.189676
59	0x3dc07370	0.09397018
60	0x3dc38984	0.095477134
61	0xbf189ae1	-0.59611326
62	0xbda93942	-0.08262874
63	0x3b9cd03e	0.0047855666
64	0x3defe8a3	0.11714294
65	0x39b70da2	0.00034914637
66	0x3e2ba384	0.16761595
67	0x3e288728	0.16457808
68	0x3e8f6225	0.28004566
69	0xbced1003	-0.028938299
70	0x3d6f30f8	0.05839631
71	0xbda5c4c7	-0.08094173
72	0xbdeca340	-0.11554575
73	0xbb81ad66	-0.0039574383
74	0xbd0cd880	-0.034386158
75	0x3e223c89	0.15843405
76	0xbf0c6cf0	-0.54853725
77	0xbe2bfcc5	-0.16795643
78	0xbc6686b4	-0.014070202
79	0xbd47e7bc	-0.048804983
80	0x3e887e2e	0.26658767
81	0xbcbec848	-0.02328886
82	0x3e3809df	0.17972516
83	0xbdc52e32	-0.09627952
84	0xbdcd4b5c	-0.10024139
85	0x3d89da38	0.06731075
86	0x3e5888c8	0.21145928
87	0x3e089cee	0.13341114
88	0x3e9fb5d1	0.31193402
89	0x3eef28ed	0.4671091
90	0x3d91e33d	0.071234204
91	0x3e0d8dd8	0.1382364
92	0xbe523f88	-0.20532048
93	0xbb0b02fc	-0.0021211496
94	0x3e558a79	0.20853604
95	0xbeac14aa	-0.33609515
96	0x3d7c5479	0.061603997
97	0xbde4e3e9	-0.11176283
98	0x3e1aa4c7	0.1510192
99	0x3e9b9e11	0.30394033
100	0x3ce79ae5	0.028272102
101	0x395fa340	0.00021327753
102	0x3d577fd8	0.052612156
103	0xbdd46005	-0.10369877
104	0x3c1cb8b4	0.009565521
105	0x3e619712	0.22030285
106	0x3cdd7394	0.027032651
107	0x3ea2e65c	0.31816375
108	0x3c3ee903	0.011652234
109	0xbd08e995	-0.033425886
110	0x3c22c600	0.009934902
111	0xbc619aa8	-0.013769783
112	0x3e702760	0.2345252
113	0xbe8ef8e4	-0.27924263
114	0x3d89975b	0.06718322
115	0xbc8f5884	-0.017498262
116	0xbdde9774	-0.10868731
117	0x3d9b7823	0.07591274
118	0xbf59f8c5	-0.8514522
119	0x3a58add6	0.00082656497
120	0xbbcbf901	-0.006224752
121	0xbd84cda2	-0.06484534
122	0x3dba42fe	0.09094809
123	0x3c68e01b	0.014213587
124	0x3c3c75b3	0.011502671
125	0xbce32598	-0.027727887
126	0x3d06310c	0.03276162
127	0x3cce25d0	0.025164515
128	0x3ddc542c	0.10758242
129	0x3d3b254c	0.045689866
130	0xbd38a94e	-0.045083337
131	0x3e6558f4	0.22397214
132	0x3e6daf00	0.23211288
133	0x3f1b4061	0.6064511
134	0x3e517e7c	0.20458406
135	0x3e4d20ae	0.20031998
136	0x3c3c4c6e	0.011492832
137	0x3d6a379d	0.057181943
138	0xbe0e2397	-0.13880764
139	0x3e158d99	0.14604796
140	0xbdbd8536	-0.092539236
141	0xbdd10f6d	-0.1020802
142	0xbe052b60	-0.13004827
143	0xbe09ccb9	-0.13457002
144	0xbc29fb96	-0.010374924
145	0xbe94505e	-0.28967565
146	0x3d45c0ac	0.04827945
147	0x3d35646d	0.044285227
148	0x3e8b1e9f	0.271718
149	0x3d747149	0.05967835
150	0xbe752b20	-0.23942232
151	0x3e956441	0.2917805
152	0x3dcabc2e	0.09899174
153	0xbc94527b	-0.018105736
154	0xbe358fee	-0.17730686
155	0xbf6c5cee	-0.923293
156	0xbd6b99c4	-0.05751969
157	0x3bf6aa2e	0.007527611
158	0xbd73fbcd	-0.059566308
159	0xbd180547	-0.037114408
160	0x3e6148c9	0.22000422
161	0xbd765a25	-0.060144562
162	0x3e0485ff	0.1294174
163	0x3e4a7e87	0.19774829
164	0xbe5f9178	-0.21832836
165	0xbdbccd70	-0.092188716
166	0xbda3f833	-0.080063246
167	0x3de15021	0.110016115
168	0x3dd2ab7d	0.10286615
169	0x3c9251d7	0.01786129
170	0xbcfa9c11	-0.030591996
171	0xbeb4253c	-0.35184658
172	0x3e582c7b	0.21110718
173	0xbda717bd	-0.081588246
174	0xbe9789da	-0.2959736
175	0xbf1898df	-0.5960826
176	0xbd88e517	-0.066843204
177	0xbdcc9f4a	-0.099913195
178	0x3ce75806	0.028240215
179	0x3e661954	0.224706
180	0x3e3b54c6	0.18294057
181	0xbe344107	-0.17602931
182	0x3e34848e	0.1762869
183	0xbec9d50c	-0.39420354
184	0x3d69a779	0.05704448
185	0x3d8622b6	0.06549589
186	0xbcc4e585	-0.024035225
187	0x3ca9b1a9	0.020714598
188	0xbe2378a8	-0.15963995
189	0x3e1fa976	0.15591988
190	0x3d6e8f4a	0.05824212
191	0xbeea44b7	-0.4575555
192	0x3ea3fe05	0.3202974
193	0x3dbe755f	0.092997305
194	0x3e1b8c54	0.1519025
195	0xbd8151ce	-0.06314431
196	0x3dc4d029	0.09610016
197	0x3c432060	0.011909574
198	0xbc49387a	-0.0122815315
199	0xbc63e525	-0.013909613
200	0xbdad3dd7	-0.08459061
201	0xbcba6f68	-0.0227582
202	0x3f05dab2	0.5228683
203	0x3d62c36e	0.055362158
204	0xbd6672bf	-0.056261774
205	0xbcbbf0d9	-0.022941994
206	0xbdf37b26	-0.11888723
207	0xbdcf9d88	-0.101374686
208	0xbe89f552	-0.26944977
209	0x3dcd3f0b	0.1002179
210	0x3db81060	0.08987498
211	0xbde4981d	-0.11161826
212	0x3e19ce0a	0.15020004
213	0xbf10e751	-0.5660296
214	0xbd4a0692	-0.049322672
215	0x3c119bc3	0.008887234
216	0xbd84b9f4	-0.0648078
217	0x3e65317c	0.22382158
218	0x3d0b0a5c	0.033945426
219	0xbd9d7565	-0.07688407
220	0xbe6d57e0	-0.23178053
221	0xbe6019d7	-0.21884857
222	0x3c838701	0.016055586
223	0x3d700c55	0.05860551
224	0x3dc06071	0.09393395
225	0xbcdbfd33	-0.026854133
226	0xbe6b4d0a	-0.22978607
227	0x3e8756dc	0.26433456
228	0x3ac6bab8	0.0015161848
229	0x3a06002e	0.0005111721
230	0xbe0abb4d	-0.13548012
231	0x3b60613e	0.0034237648
232	0x3b68d62b	0.0035528045
233	0xb98c9e98	-0.00026821042
234	0x39eeec4c	0.00045570952
235	0x3aa4579e	0.0012538319
236	0x3d3da415	0.04629906
237	0x3bc2bb02	0.005942703
238	0xba005b54	-0.00048964215
239	0xbf8a7ea0	-1.0819893
240	0xbeb6795a	-0.3563946
241	0x3ae4ce32	0.001745647
242	0xbc4ec2b4	-0.012619663
243	0xbaa3bfd2	-0.001249308
244	0x3d6c67a1	0.057716016
245	0x39f659bb	0.0004698763
246	0x3a0bd009	0.0005333429
247	0x3dbfbaa0	0.09361768
248	0x3d2b49b8	0.04181835
249	0x3dd835cc	0.10557136
250	0xbdb77619	-0.08958072
251	0xbe7c7698	-0.24654615
252	0xbcd81e75	-0.02638171
253	0x3b938dc0	0.004502982
254	0x3d64d836	0.055870257
255	0xbe63ae61	-0.22234489

model.0.bias f4 [128]
0	0xb9d04099	-0.0003972098
1	0xb90a5314	-0.00013191655
2	0xbc8c7141	-0.017143847
3	0x392047ea	0.00015285579
4	0xb9cb3efb	-0.000387661
5	0xb7c112ce	-2.301615e-05
6	0xba2c8a6c	-0.0006581906
7	0xb9851d40	-0.0002538953
8	0x39ba7a56	0.00035567832
9	0xba234d6d	-0.0006229494
10	0x39677590	0.00022073672
11	0x39f04b16	0.0004583231
12	0xbbd5851e	-0.006516113
13	0xb9a04555	-0.00030569235
14	0xb8206e88	-3.8249913e-05
15	0xba0c2b23	-0.0005347004
16	0xb81b73d2	-3.7062746e-05
17	0xb8af64ff	-8.363462e-05
18	0xb98f9256	-0.00027384114
19	0x39e32665	0.0004332542
20	0xb80fa7be	-3.425008e-05
21	0x3a0dfe7c	0.0005416644
22	0x39d06e0e	0.0003975485
23	0x398a0816	0.00026327436
24	0xb9d62f60	-0.00040852558
25	0xba17849a	-0.0005779952
26	0xb8e8b4b6	-0.00011096282
27	0xb7116d2c	-8.668092e-06
28	0xba4bae45	-0.00077698036
29	0xba25dd6a	-0.0006327244
30	0xb987fc6c	-0.00025937275
31	0xb944267c	-0.00018706353
32	0xb9519804	-0.00019988423
33	0xb85c5fba	-5.254124e-05
34	0x390699e0	0.00012836559
35	0xb9107998	-0.00013778207
36	0x3ab908c5	0.0014116993
37	0x3848c7eb	4.7869904e-05
38	0xba55f94b	-0.0008162453
39	0x39cb20d1	0.00038743627
40	0x3a000bdb	0.0004884579
41	0xba204499	-0.00061137375
42	0xb98057ab	-0.0002447938
43	0x3923ed18	0.00015633216
44	0xba36a4b3	-0.0006967291
45	0x3a329172	0.0006811834
46	0xba5047e5	-0.00079452834
47	0x38364ae3	4.3461925e-05
48	0x3a0b32ed	0.0005310018
49	0x392c4a20	0.00016430812
50	0xbb9868e1	-0.0046511744
51	0xba203f46	-0.0006112944
52	0x39ae1edf	0.00033210867
53	0xb9f4350c	-0.0004657883
54	0xb90e80c8	-0.0001359015
55	0x389c4af5	7.4526215e-05
56	0xb9c49138	-0.0003749223
57	0xb98c9481	-0.00026813525
58	0xb9cb7a72	-0.00038810406
59	0x393dcf0a	0.00018101573
60	0x394b857e	0.00019409318
61	0x3991788b	0.00027746367
62	0x39e84103	0.00044298926
63	0xb96c9eaa	-0.00022565821
64	0x388f3b9b	6.829874e-05
65	0x3a03674a	0.00050126447
66	0xb7e66009	-2.7462856e-05
67	0x39c580f7	0.00037670854
68	0x39961e18	0.0002863265
69	0x39e6a7a2	0.00043993915
70	0x39d2a3ce	0.00040176365
71	0x3992f093	0.00028026532
72	0x3a189e81	0.0005821959
73	0x3a658226	0.00087550504
74	0xba3bbacf	-0.00071613205
75	0xb9b20c96	-0.00033960183
76	0xb8f493e4	-0.000116623734
77	0xba05dbaf	-0.0005106283
78	0xba06f072	-0.00051475235
79	0x3a23db58	0.00062506413
80	0xb9575df3	-0.00020538997
81	0x3aa954c7	0.0012918942
82	0x38b2ae9a	8.5202235e-05
83	0x38cf646a	9.889233e-05
84	0x381fcc78	3.809898e-05
85	0xb7a3e26a	-1.9536546e-05
86	0x39aaad8c	0.0003255423
87	0x3a46bcf6	0.0007581258
88	0xb9eca7d4	-0.0004513847
89	0xb959a662	-0.00020756715
90	0xb8bbe054	-8.958639e-05
91	0xb98fc804	-0.0002742411
92	0x386af751	5.602028e-05
93	0xb9459e55	-0.00018846367
94	0x37c8a16b	2.3917024e-05
95	0xba08af8f	-0.00052141486
96	0x3a02c469	0.0004988374
97	0x38a9b3aa	8.092013e-05
98	0x3a2909e0	0.000644831
99	0xb9556ab3	-0.00020353011
100	0xb965bc3e	-0.00021909268
101	0x3a8c6af6	0.0010713029
102	0xb82f9120	-4.185841e-05
103	0xba0f8de3	-0.000547616
104	0x3ad55b53	0.0016277827
105	0xba0a372b	-0.0005272503
106	0x390c7229	0.00013393968
107	0x3a107589	0.0005510678
108	0x399d22ec	0.00029971392
109	0xb7d88ed0	-2.5815709e-05
110	0x39c0e9f3	0.000367954
111	0x39f51213	0.00046743508
112	0x3a0a4356	0.0005274316
113	0x385c25bc	5.248723e-05
114	0x377886ac	1.4813308e-05
115	0xbac7cebc	-0.0015244107
116	0x39455643	0.00018819519
117	0xb8a91c85	-8.06386e-05
118	0xb9e077da	-0.00042813906
119	0xb908e7b0	-0.00013056281
120	0x3a7cfacc	0.0009650409
121	0x39691464	0.00022228208
122	0x3895fae1	7.1516035e-05
123	0xba88b3cc	-0.001042956
124	0x39d545a0	0.000406784
125	0x3a589f7d	0.00082635117
126	0x3972b3c2	0.00023145883
127	0xb98a4f56	-0.0002638052

model.1.weight f4 [128]
0	0x3f2c941c	0.67413497
1	0x3f2f73f6	0.6853632
2	0x3f9d5844	1.2292562
3	0x3f3bf68c	0.73423076
4	0x3f4b3a4a	0.7938582
5	0x3f1c99d1	0.61172205
6	0x3f4d3e2d	0.80173
7	0x3f153c5a	0.58295214
8	0x3f3ad363	0.729788
9	0x3f3d6c1c	0.73993087
10	0x3f4537e2	0.77038395
11	0x3f036b5f	0.5133571
12	0x3f69d8fa	0.91346705
13	0x3ed634c0	0.4183712
14	0x3f45328a	0.7703024
15	0x3f3b0188	0.7304921
16	0x3f46be67	0.7763428
17	0x3f23a811	0.63928324
18	0x3f2fc90c	0.6866615
19	0x3f18250f	0.59431547
20	0x3f3130cd	0.6921509
21	0x3f37550f	0.71614164
22	0x3f25a5c3	0.6470606
23	0x3f28b71c	0.659044
24	0x3f49d91f	0.78846925
25	0x3f38cdb7	0.72188896
26	0x3f2cf906	0.6756748
27	0x3f20a46e	0.627509
28	0x3f350195	0.7070554
29	0x3f22c0ec	0.63575625
30	0x3f22da59	0.6361442
31	0x3f659dd8	0.89693975
32	0x3f2a9d71	0.66646487
33	0x3f21e3ec	0.63238406
34	0x3f64551c	0.89192367
35	0x3f273188	0.65309954
36	0x3f36baf9	0.7137905
37	0x3f3f198a	0.74648345
38	0x3f339153	0.7014362
39	0x3f2858d5	0.65760547
40	0x3f169c05	0.58831817
41	0x3ee41735	0.44548956
42	0x3f026ec0	0.5095024
43	0x3f2c6ac5	0.6735042
44	0x3f4fe317	0.81205887
45	0x3f1e1411	0.6174937
46	0x3f5c79c3	0.86123294
47	0x3f4f7607	0.8103947
48	0x3f4f2dd5	0.8092931
49	0x3f333d78	0.7001567
50	0x3f5d1fa7	0.8637642
51	0x3f4e389c	0.8055513
52	0x3f09b6c0	0.5379448
53	0x3f30094d	0.6876419
54	0x3f16281f	0.5865497
55	0x3f1efe8e	0.6210717
56	0x3f39be0a	0.725556
57	0x3f1fc2b3	0.6240646
58	0x3f0de619	0.55429226
59	0x3f13bd3e	0.57710636
60	0x3eca896f	0.3955798
61	0x3f1bf104	0.60914636
62	0x3f5c4979	0.8604961
63	0x3f29f63a	0.66391337
64	0x3f576a60	0.8414669
65	0x3f4edc7c	0.8080518
66	0x3f0ea07d	0.55713636
67	0x3f4c0225	0.7969077
68	0x3f2d64db	0.6773202
69	0x3f35fee2	0.71092045
70	0x3f0376dd	0.51353246
71	0x3f23a580	0.6392441
72	0x3f1be639	0.60898167
73	0x3f518285	0.8183978
74	0x3f43f86b	0.7655093
75	0x3eb905d4	0.3613726
76	0x3f7eaf95	0.99486667
77	0x3f48bbef	0.78411764
78	0x3ee3f0c3	0.44519624
79	0x3f611790	0.8792658
80	0x3f323c8b	0.6962363
81	0x3f61701c	0.8806169
82	0x3f5452d2	0.82938874
83	0x3eff4061	0.49853805
84	0x3eface22	0.48985392
85	0x3f305617	0.6888136
86	0x3f0c28a9	0.5474954
87	0x3f1ece06	0.62033117
88	0x3f1b0470	0.60553646
89	0x3f641933	0.8910095
90	0x3f019370	0.50615597
91	0x3f343f54	0.7040913
92	0x3f10ab79	0.56511647
93	0x3f7de7b2	0.99181664
94	0x3f1795a4	0.5921271
95	0x3f2beea9	0.6716104
96	0x3ecdda7a	0.40205747
97	0x3f391c22	0.7230855
98	0x3f542280	0.8286514
99	0x3f1e7236	0.6189302
100	0x3f3d1286	0.7385639
101	0x3f647f9e	0.8925723
102	0x3f5f31f2	0.87185585
103	0x3f195c1c	0.5990617
104	0x3f2c6833	0.67346495
105	0x3f6450e3	0.89185923
106	0x3f5a388d	0.8524254
107	0x3f399103	0.72486895
108	0x3f248331	0.6426268
109	0x3f77a279	0.9673229
110	0x3f27c340	0.655323
111	0x3ef74a79	0.48299006
112	0x3f50c1f0	0.81545925
113	0x3f639d6f	0.889121
114	0x3f18fc37	0.5975985
115	0x3f62ead2	0.8863956
116	0x3ed8e1ff	0.4235992
117	0x3f34db3c	0.70647025
118	0x3f2a65b2	0.66561425
119	0x3f2bb3eb	0.6707141
120	0x3f341b8c	0.70354533
121	0x3f2f4640	0.6846657
122	0x3f404e0a	0.7511908
123	0x3f7c2363	0.98491496
124	0x3f3603d6	0.71099603
125	0x3f824fc6	1.0180595
126	0x3f329428	0.6975732
127	0x3f57e22b	0.8432948

model.1.bias f4 [128]
0	0xbe84ec9d	-0.25961772
1	0xbf6510b7	-0.8947863
2	0xbf888a0d	-1.066713
3	0xbf4fadcb	-0.8112456
4	0xbf0c3984	-0.5477526
5	0xbe74a305	-0.23890312
6	0xbef5c555	-0.48002115
7	0xbf0cbc59	-0.54974896
8	0xbe6ddb61	-0.23228218
9	0xbf339886	-0.7015461
10	0xbf608438	-0.8770175
11	0xbe7a42e9	-0.24439587
12	0xbf473c13	-0.7782604
13	0x3de0b0a9	0.10971195
14	0xbf061168	-0.5237031
15	0xbf1668d5	-0.5875371
16	0xbf2577e2	-0.6463605
17	0xbf416957	-0.7555136
18	0xbfc65292	-1.5493948
19	0xbdeec2c8	-0.11658245
20	0xbf208e37	-0.62717
21	0xbdfa1bdd	-0.12212346
22	0xbe4c30c9	-0.19940485
23	0xbed70faa	-0.42004138
24	0xbf505f18	-0.813951
25	0xbe5c9eef	-0.21545003
26	0xbf09a68f	-0.53769773
27	0xbee61159	-0.4493511
28	0xbea9d89d	-0.33173075
29	0xbd6a4452	-0.05719406
30	0xbe5ac3d2	-0.21363762
31	0xbf051429	-0.51983887
32	0xbf378061	-0.71680266
33	0xbedceca1	-0.43149284
34	0xbfb4b6c0	-1.4118271
35	0xbe543457	-0.20723091
36	0xbed69492	-0.41910225
37	0xbf01b15d	-0.5066126
38	0xbeb1cc40	-0.34726143
39	0xbe7f11fa	-0.24909201
40	0xbe1e1847	-0.15438949
41	0xbd0acee9	-0.03388873
42	0xbe672b26	-0.22575054
43	0xbf23a9a8	-0.6393075
44	0xbf20a5c3	-0.6275293
45	0xbe969d03	-0.29416665
46	0xbf212a54	-0.6295521
47	0xbf0137b4	-0.5047562
48	0xbfabb7e1	-1.341549
49	0xbeb19a3b	-0.3468798
50	0xbf3e4409	-0.74322563
51	0xbe8e55a7	-0.27799723
52	0xbe37a0b5	-0.17932399
53	0xbef107df	-0.47076318
54	0xbe313939	-0.17306985
55	0xbee40c57	-0.44540665
56	0xbeed2f54	-0.4632517
57	0xbf87be82	-1.0605013
58	0xbe1e364b	-0.15450399
59	0xbe16202b	-0.14660709
60	0x3e026cde	0.12736842
61	0xbec704cc	-0.38870847
62	0xbf204a17	-0.6261305
63	0xbe8d7e35	-0.2763535
64	0xbf711ca9	-0.94184357
65	0xbf44dee7	-0.7690262
66	0xbf078888	-0.52942705
67	0xbf2ee96f	-0.6832494
68	0xbe9ffc26	-0.31247061
69	0xbe84228c	-0.25807607
70	0xbe87098e	-0.26374477
71	0xbf8098af	-1.0046595
72	0xbdbd84a1	-0.092538126
73	0xbf5233a8	-0.8211007
74	0xbf2becf3	-0.6715843
75	0xbcf54e95	-0.029944697
76	0xbfb37dc5	-1.4022757
77	0xbf61024c	-0.8789413
78	0x3c85297c	0.016255133
79	0xbf418612	-0.755952
80	0xbe8dd704	-0.27703106
81	0xbeb26e45	-0.34849754
82	0xbe946ae9	-0.28987816
83	0xbe6e78d3	-0.23288278
84	0xbe46022d	-0.19336767
85	0xbeaa978e	-0.33318752
86	0xbe259a68	-0.16172183
87	0xbf174729	-0.59092957
88	0xbe5d0234	-0.21582872
89	0xbf99cd5e	-1.2015798
90	0xbe409256	-0.18805823
91	0xbefc1b74	-0.49239695
92	0xbe901840	-0.281435
93	0xbee6094a	-0.44928962
94	0xbd91e914	-0.07124534
95	0xbe75342f	-0.23945688
96	0xbdb328a8	-0.08747989
97	0xbf4f5192	-0.8098384
98	0xbf2195ae	-0.6311902
99	0xbef6ca5e	-0.4820127
100	0xbf5838d1	-0.84461695
101	0xbed41a5c	-0.4142636
102	0xbe8175e8	-0.25285268
103	0xbe067096	-0.13128886
104	0xbe69fa49	-0.22849382
105	0xbf62bb9d	-0.88567525
106	0xbf3b04cc	-0.73054194
107	0xbef75e8c	-0.4831432
108	0xbea1871e	-0.315484
109	0xbeb12fd1	-0.34606794
110	0xbed1f7c8	-0.41009355
111	0xbe0c70c0	-0.13714886
112	0xbefa5aec	-0.48897493
113	0xbfa078e5	-1.2536894
114	0xbe4f06ad	-0.2021739
115	0xbe0406c2	-0.12893203
116	0xbdc7b76c	-0.09751782
117	0xbf37382d	-0.7157009
118	0xbebf14c2	-0.37320524
119	0xbe3a6add	-0.18204828
120	0xbec6f8d3	-0.38861713
121	0xbf380e08	-0.7189641
122	0xbee01529	-0.43766144
123	0xbf913274	-1.1343522
124	0xbee6740d	-0.45010415
125	0xbee7cca5	-0.4527332
126	0xbf7e9f0f	-0.99461454
127	0xbf2dd922	-0.67909443

model.1.running_mean f4 [128]
0	0xba936c7c	-0.0011247541
1	0xbac026fe	-0.0014660058
2	0xbc137033	-0.008998918
3	0xba944d8b	-0.0011314614
4	0xb9ba94e5	-0.0003558762
5	0x3a3fdc0b	0.0007318861
6	0xb8a6db42	-7.956337e-05
7	0xbaf6f1b3	-0.0018840343
8	0xbaa41994	-0.001251983
9	0xba811309	-0.0009847592
10	0x3a206fa2	0.000612015
11	0x3a0e435a	0.0005426906
12	0x3b8c6114	0.0042840336
13	0x3a314ea6	0.00067637337
14	0xba031e6e	-0.0005001788
15	0xbad4f0bf	-0.0016246064
16	0x3a8d25db	0.0010768728
17	0xb9fad47f	-0.00047842038
18	0xbacdaf75	-0.0015692549
19	0xb9015b6a	-0.00012336453
20	0x3819e3ab	3.6690075e-05
21	0xba81d017	-0.0009903935
22	0x3a619bed	0.00086063036
23	0xba87912c	-0.0010342947
24	0xba9d931f	-0.0012021995
25	0xba8c5763	-0.0010707196
26	0x3a7df012	0.00096869573
27	0xbb09c33f	-0.0021020917
28	0xbaf4d9e6	-0.0018680661
29	0xbadec43a	-0.0016995736
30	0xb98da9bb	-0.00027020075
31	0xba1441c6	-0.0005655553
32	0xbaf7d914	-0.0018909299
33	0xba9fa135	-0.0012178781
34	0x3a1c5c91	0.0005964721
35	0xbb084167	-0.0020790936
36	0xba7d7776	-0.0009668985
37	0x3a9fab79	0.001218184
38	0xb6c50f78	-5.8728583e-06
39	0x39c2d05f	0.00037157812
40	0xb9fe7eb0	-0.00048541045
41	0xbaa487a0	-0.0012552626
42	0xb9f0c386	-0.00045922044
43	0x3af7abf5	0.0018895852
44	0xba9faa4a	-0.0012181487
45	0x3a75c073	0.00093746855
46	0x38a40ff1	7.823099e-05
47	0x396f04d9	0.00022794622
48	0xbaf975e1	-0.0019032323
49	0xbb03d901	-0.0020118358
50	0x3a4a8209	0.0007725065
51	0xba24cf2e	-0.00062869757
52	0xb6624e5a	-3.372223e-06
53	0x3ab93eb9	0.0014133073
54	0xba8ebd90	-0.0010890234
55	0xba9ab52a	-0.0011803259
56	0xbac97706	-0.0015370555
57	0x3a8f1454	0.0010916092
58	0x3addfb06	0.0016935773
59	0x3a236935	0.00062336336
60	0xba70cdbf	-0.0009185932
61	0x3a8c6482	0.0010711106
62	0xbac5501c	-0.0015053782
63	0xbab746a8	-0.0013982849
64	0x3ad609a6	0.001632978
65	0xbafc445e	-0.0019246449
66	0xb96fe44f	-0.00022877868
67	0x3aaef6c0	0.0013348684
68	0x3a2558bd	0.00063074735
69	0xbacd7639	-0.0015675492
70	0x39e4d2a2	0.00043644483
71	0x3b0e9431	0.002175581
72	0x3b094204	0.002094389
73	0xba13519b	-0.0005619765
74	0x39105aa4	0.00013766676
75	0xbb11ef64	-0.0022267932
76	0xbaf73fe0	-0.0018863641
77	0xb9f2a1ec	-0.00046278478
78	0xba4455a8	-0.00074895704
79	0xb9eab2e3	-0.0004476524
80	0x39e84e3f	0.00044308786
81	0xbb09f66a	-0.0021051415
82	0xbafe0b1b	-0.0019381972
83	0xbb2991df	-0.00258743
84	0x3a42507e	0.0007412507
85	0xba41697b	-0.00073780835
86	0xbabe54b3	-0.0014521092
87	0x3b04605c	0.0020199036
88	0xbab26f7f	-0.0013613551
89	0xba72912e	-0.0009253201
90	0x3ad6f272	0.0016399159
91	0xb97b243e	-0.00023950727
92	0x39d5ab5b	0.00040754196
93	0xbb260745	-0.0025333923
94	0x3ae0409d	0.00171091
95	0xba900a30	-0.0010989364
96	0x3aa6f17c	0.0012736763
97	0xb8b2437f	-8.5002735e-05
98	0xba7a557b	-0.0009549481
99	0x3900e4d0	0.0001229227
100	0x3ace660d	0.0015746966
101	0xbaedc641	-0.0018140749
102	0xba612c63	-0.0008589683
103	0x3a44ecb0	0.0007512076
104	0xba24f3ab	-0.0006292413
105	0xb9dae3e7	-0.0004175
106	0xba731808	-0.0009273295
107	0x39d04901	0.00039727244
108	0xba3fa975	-0.0007311323
109	0xbb889314	-0.0041679237
110	0xbaea613a	-0.0017881759
111	0x3ada370d	0.0016648486
112	0x3a085068	0.000519997
113	0x3b063628	0.0020479057
114	0x3a55edad	0.00081607216
115	0xbb54391c	-0.0032382673
116	0x39bb82eb	0.0003576496
117	0x3aedb9a9	0.0018136996
118	0x39a54c94	0.00031528308
119	0xbad9f315	-0.001662823
120	0xba2d5be5	-0.00066131196
121	0x3a35bf62	0.00069331203
122	0xb9b1b842	-0.00033897354
123	0x3b80d4bf	0.0039316113
124	0xba866c69	-0.0010255697
125	0xbaf19a20	-0.0018432774
126	0xbab78701	-0.0014002026
127	0xba02664a	-0.00049743487

model.1.running_var f4 [128]
0	0x3f05a62f	0.522067
1	0x3ef569a0	0.47932148
2	0x3ff4821e	1.9102209
3	0x3f99aa0b	1.2005018
4	0x3f0e8748	0.5567517
5	0x3ed8afb3	0.42321548
6	0x3f74fb37	0.95695823
7	0x3f23e800	0.6402588
8	0x3f7c5ab8	0.98575926
9	0x3f4e5f18	0.8061385
10	0x3ea65ee9	0.32494286
11	0x3f1a5991	0.6029292
12	0x3fb326aa	1.3996174
13	0x3f129b95	0.5726865
14	0x3f80d273	1.0064224
15	0x3ec0a47a	0.37625486
16	0x3f74a4ff	0.95564264
17	0x3f11425e	0.56741893
18	0x3eca7e40	0.39549446
19	0x3f056c31	0.5211821
20	0x3f929fd4	1.1455026
21	0x3f74a907	0.95570415
22	0x3ef9611e	0.48706907
23	0x3f71b577	0.9441752
24	0x3f336111	0.70069987
25	0x3f1139b9	0.567287
26	0x3f8bbbf6	1.0916736
27	0x3f37679e	0.7164248
28	0x3f5833df	0.8445415
29	0x3f463333	0.77421874
30	0x3f587767	0.84557194
31	0x3f17e6d8	0.59336615
32	0x3f5ff66b	0.8748538
33	0x3f4aad89	0.79171044
34	0x3e8aff3e	0.2714786
35	0x3f4c834f	0.7988786
36	0x3f94e818	1.1633329
37	0x3f0a36ea	0.5399004
38	0x3edd44ac	0.43216455
39	0x3f1ef624	0.6209433
40	0x3e64d825	0.22348078
41	0x3f30e4a3	0.6909887
42	0x3f0b95b9	0.54525334
43	0x3f1a1c80	0.6019974
44	0x3f81ad67	1.0131043
45	0x3ee5ca40	0.44880867
46	0x3f4b5859	0.7943168
47	0x3fb61abb	1.4226907
48	0x3e534459	0.20631541
49	0x3eeae1b8	0.45875335
50	0x3fd33be5	1.6502653
51	0x3f540939	0.8282657
52	0x3f095197	0.5364012
53	0x3f0f2cfc	0.55928016
54	0x3f2b4fa4	0.66918397
55	0x3f77e104	0.9682772
56	0x3f1e8702	0.61924756
57	0x3ed7674d	0.42071
58	0x3ee131ab	0.43983206
59	0x3f7ed7ad	0.99547845
60	0x3f58919a	0.8459717
61	0x3f08e0cc	0.5346801
62	0x3fb1e1c6	1.3897026
63	0x3f6ae0f1	0.91749483
64	0x3ec31ca6	0.38107795
65	0x3f532912	0.82484543
66	0x3f8801ef	1.062559
67	0x3f87a90e	1.0598466
68	0x3f2f5db0	0.6850233
69	0x3f024efb	0.50901765
70	0x3efc6b81	0.4930077
71	0x3f1f9589	0.6233755
72	0x3ef3b1c7	0.4759657
73	0x3f3f747c	0.74787116
74	0x3e9b7ff4	0.30371058
75	0x3f7f59aa	0.9974619
76	0x3f2f39a7	0.68447345
77	0x3f056571	0.5210791
78	0x3eb3379c	0.35003364
79	0x3f8f2289	1.1182414
80	0x3f15c26c	0.5849979
81	0x3f172909	0.5904699
82	0x3f85f2eb	1.0464758
83	0x3f249fc4	0.64306283
84	0x3f1be3a4	0.6089423
85	0x3eb1f3c9	0.34756306
86	0x3f02f629	0.5115686
87	0x3ecf927f	0.40541455
88	0x3f48d5f0	0.7845144
89	0x3f5651fc	0.8371885
90	0x3ec5a0bc	0.38599193
91	0x3f3aa5ad	0.7290905
92	0x3e87851b	0.2646874
93	0x3f360b93	0.7111141
94	0x3f129e1a	0.57272494
95	0x3f93ad28	1.1537218
96	0x3f0e30b4	0.55543065
97	0x3ecb2064	0.3967315
98	0x3f218f04	0.6310885
99	0x3f01eada	0.5074898
100	0x3ee793c1	0.45229915
101	0x3fa56a18	1.2923002
102	0x3f0eca2f	0.5577726
103	0x3f61daba	0.88224375
104	0x3eb5585f	0.35418984
105	0x3f982b3c	1.1888194
106	0x3f4048a0	0.75110817
107	0x3f2a8219	0.66604763
108	0x3ef9c11d	0.48780146
109	0x3f186cd8	0.5954108
110	0x3efb139e	0.49038404
111	0x3f0c98e2	0.5492078
112	0x3f1fc49e	0.6240939
113	0x3ef81b36	0.4845826
114	0x3f1ac9a4	0.6046393
115	0x3ed0695a	0.40705377
116	0x3ecf03a9	0.4043248
117	0x3f3b5a51	0.73184687
118	0x3f5eee51	0.8708239
119	0x3f27ecc7	0.6559567
120	0x3fad0f9c	1.3520389
121	0x3f16145e	0.5862483
122	0x3f3213ce	0.6956147
123	0x4007a77a	2.119597
124	0x3f606e33	0.8766815
125	0x3f32e451	0.69879633
126	0x3f87bb36	1.0604007
127	0x3f394a50	0.72379017

model.4.weight f4 [32, 128]
0	0x3e19cc91	0.15019442
1	0xbf0bf962	-0.546774
2	0xbf543479	-0.82892567
3	0xbcee7fb2	-0.029113624
4	0xbd45618a	-0.048188724
5	0x3af70edc	0.0018849033
6	0xbd7e1d62	-0.06203974
7	0xbd322101	-0.043488506
8	0xbdd3c06b	-0.10339435
9	0x3d6b0c8c	0.057385013
10	0x3d947c73	0.07250299
11	0x3e6821ab	0.22669093
12	0xbf0d85c2	-0.55282223
13	0xbe816ace	-0.25276798
14	0x3ce23d67	0.02761717
15	0x3d10cf7d	0.035354126
16	0xbdf2b684	-0.11851218
17	0xbc41ecd0	-0.011836246
18	0xbeaf8e00	-0.34288025
19	0x3d0d3095	0.03447016
20	0xbc8b1cfb	-0.016981592
21	0xbc087c0b	-0.008330355
22	0xbd76626d	-0.06015246
23	0x3b212e36	0.0024594194
24	0xbcad696c	-0.021168433
25	0xbdcd8082	-0.100342765
26	0xbdca3815	-0.09873978
27	0xbc86ae1a	-0.01644044
28	0x3b41ac65	0.0029552218
29	0xbcd73a85	-0.026273021
30	0xbdac6942	-0.08418514
31	0x3d805975	0.062670626
32	0x3dbe8c3c	0.09304091
33	0x3c829769	0.015941339
34	0x3f3361e7	0.7007126
35	0xbd8caa1a	-0.06868382
36	0xbe7c4a5b	-0.2463774
37	0xbd14b972	-0.036309667
38	0x3db3bed5	0.08776633
39	0x3db5f729	0.08885033
40	0xbc98cd2b	-0.01865252
41	0x3d754743	0.059882414
42	0x3e02c49d	0.12770315
43	0xbdbd2194	-0.0923492
44	0xbd1ff4eb	-0.03905193
45	0x3d6bc10f	0.057557162
46	0xbd0d70bb	-0.034531336
47	0x3c6eb66c	0.01456986
48	0xbed41686	-0.41423434
49	0x3bdcecd5	0.0067420998
50	0xbe5625f4	-0.20912915
51	0xbdb10580	-0.08643627
52	0x3d7a26be	0.061072104
53	0x3d1f3f62	0.038878806
54	0xbcc7523c	-0.024331205
55	0x3e0af01e	0.1356816
56	0xbe51e6ed	-0.20498247
57	0x3e25b9f4	0.16184217
58	0xbe946798	-0.28985286
59	0xbc01cc3b	-0.0079222275
60	0xbd280c54	-0.041027382
61	0xbdf0ff38	-0.11767429
62	0x3d3e517f	0.04646444
63	0x3d6a094f	0.057137784
64	0x3dd2c3aa	0.10291226
65	0x3d9f04aa	0.077645615
66	0x3d606228	0.05478111
67	0xbd874b31	-0.066061385
68	0xbc8f241c	-0.017473273
69	0xbd56e3ed	-0.05246346
70	0x3d816e90	0.06319916
71	0xbd7195e3	-0.058980834
72	0xbe9b1b27	-0.30294153
73	0xbd2a6012	-0.041595526
74	0x3e0b495e	0.13602206
75	0xbd1a29ec	-0.037637636
76	0xbf2f79ec	-0.68545413
77	0x3e62f91c	0.2216534
78	0xbc99d9e6	-0.01878066
79	0x3d4ef505	0.050526638
80	0xbcc5d0a2	-0.024147335
81	0x3c3f5fda	0.011680568
82	0xbc9c1369	-0.019052224
83	0xbcac4e00	-0.021033287
84	0x3ccb92a2	0.024850193
85	0xbbdcb312	-0.006735214
86	0xbd232b64	-0.039836302
87	0x3d740394	0.059573725
88	0xbc2a638a	-0.0103997085
89	0xbee3746d	-0.44424763
90	0xbcd017e1	-0.025402011
91	0x3d9f6510	0.07782948
92	0x3d7d9b6f	0.06191581
93	0xbd8f8940	-0.070086
94	0xbe794f0f	-0.24346565
95	0xbe8a083e	-0.26959413
96	0xbe147b70	-0.14500213
97	0x3e04d6f2	0.1297262
98	0xbca643ec	-0.02029606
99	0x3c9e15ff	0.019297598
100	0x3cf60673	0.030032372
101	0x3e0eb20d	0.13935108
102	0xbdc255e8	-0.094890416
103	0xbe01e637	-0.12685476
104	0x3d9ebb3a	0.077505544
105	0x3e31baa5	0.17356355
106	0xbd49c129	-0.049256478
107	0x3d9e178f	0.07719337
108	0x3d835dca	0.06414373
109	0x3d716702	0.058936127
110	0x3e34f1a0	0.17670298
111	0xbe1dc5d0	-0.1540749
112	0xbe435f59	-0.19079341
113	0x3ca67918	0.020321414
114	0x3d555b39	0.05208895
115	0xbc9ae813	-0.01890949
116	0xbd3c97e0	-0.046043277
117	0x3de5b27d	0.112156846
118	0xbd86acbc	-0.06575915
119	0x3db0b6cc	0.08628616
120	0xbeb971a1	-0.36219504
121	0xbcd2b239	-0.025719749
122	0xbd337c5a	-0.043819763
123	0xbedf4e80	-0.43614578
124	0x3ce76e68	0.028250888
125	0x3cdc47b5	0.026889661
126	0x3e501c55	0.20323308
127	0xbce338b4	-0.027737
128	0x3c6e9e07	0.014564044
129	0xba8ba709	-0.0010654639
130	0x3f75310b	0.9577796
131	0x3c64d022	0.013965638
132	0xbda443a0	-0.08020711
133	0xbd848d78	-0.064722955
134	0x3dcc9cd5	0.09990851
135	0x3db4bf08	0.08825499
136	0x3d6e60a1	0.05819762
137	0xbee13390	-0.43984652
138	0xbe01dae7	-0.12681161
139	0x3ca765d4	0.020434298
140	0x3ec89069	0.39172676
141	0xbd7e70fc	-0.06211947
142	0x3dc3dcca	0.095635965
143	0xbcedfd36	-0.029051404
144	0xbe81e8f7	-0.2537305
145	0x3e3fef91	0.18743731
146	0x3db8f4a7	0.09031039
147	0xbcd5196c	-0.026013099
148	0xbe994b4e	-0.29940265
149	0xbc2a5d5f	-0.010398238
150	0x3d84c821	0.06483484
151	0xbd996d84	-0.074915916
152	0x3e2094bf	0.15681742
153	0xbcfd1a48	-0.030896321
154	0x3dad9f34	0.08477631
155	0x3d9c2cb9	0.07625718
156	0x3cc8754a	0.02446999
157	0xbc1181a9	-0.008881011
158	0xbced6340	-0.02897799
159	0xbce3c0fe	-0.027801987
160	0xbdc4bb42	-0.09606029
161	0x3def57d1	0.116866715
162	0xbcb48989	-0.022038238
163	0x3d8c0d53	0.06838479
164	0x3dfaa915	0.12239281
165	0xbd02d6ef	-0.031943258
166	0x3b9c2e7a	0.0047662826
167	0xbd858d49	-0.06521089
168	0xbc7a712f	-0.015285774
169	0xbb9456b5	-0.004526938
170	0x3c9ffa5d	0.019528562
171	0xbdf43279	-0.119236894
172	0x3cf8f624	0.030390806
173	0xbce65319	-0.028115796
174	0x3d201bfa	0.03908918
175	0xbd8b6a51	-0.068073876
176	0x3db63ce2	0.08898331
177	0xbc9b9ae6	-0.01899476
178	0x3ddbfcb1	0.107415564
179	0xbe14a6aa	-0.14516702
180	0x3c05e050	0.008171156
181	0xbe88fe43	-0.26756486
182	0x3c1d6a94	0.00960793
183	0x3cbe0ccc	0.023199461
184	0x3e012ccc	0.12614745
185	0xbe5f85cd	-0.21828385
186	0xbc84cc50	-0.016210705
187	0x3d2d4ac5	0.042307634
188	0xbb5b62db	-0.003347567
189	0x3c843a1a	0.016140986
190	0xbeb72710	-0.3577199
191	0xbd781bc4	-0.060573354
192	0xbe475c78	-0.19468868
193	0xbe9bd5e1	-0.30436614
194	0x3df6943c	0.12039992
195	0xbf20470c	-0.6260841
196	0xbcdd70d0	-0.027031332
197	0xbe220304	-0.15821463
198	0x3c713cb7	0.014723948
199	0xbc8daae3	-0.0172934
200	0x3d0a83d6	0.033817135
201	0x3da90189	0.08252246
202	0x3dc327c4	0.09529069
203	0xbd7c0d47	-0.0615361
204	0x3e008136	0.1254929
205	0xbdb9ad8b	-0.09066304
206	0x3c6c1f4f	0.014411761
207	0xbea94d42	-0.33066756
208	0x3cf0f042	0.029411439
209	0xbc04f6d9	-0.008115494
210	0xbd8ce5ba	-0.06879754
211	0xbd746795	-0.059669096
212	0x3daebc96	0.08532064
213	0xbc41832a	-0.011811057
214	0x3d17a0c4	0.037018552
215	0x3da1f8a5	0.07908753
216	0x3caae7e9	0.020862537
217	0xbd32f1f7	-0.043687787
218	0x3d9a8094	0.075440556
219	0x3dfe39e9	0.12413389
220	0xbd6aa036	-0.057281695
221	0x3dbdb423	0.09262874
222	0x3d3fdadc	0.04683958
223	0x3ce8d722	0.028422896
224	0xbc3dcfe8	-0.011585213
225	0xbccb9c75	-0.024854878
226	0xbdefcb08	-0.11708647
227	0x3d910281	0.07080556
228	0xbe7fc7b0	-0.24978518
229	0xbe34bf2e	-0.17651054
230	0xbdee692d	-0.116411544
231	0x3ba1cd87	0.004937831
232	0x3d24ad64	0.04020442
233	0x3e8534f0	0.2601695
234	0x3d7ca9ab	0.061685245
235	0xbd4b8cd0	-0.049694836
236	0x3d9c5a15	0.07634369
237	0xbe0f2549	-0.13979067
238	0x3a143d7c	0.0005654914
239	0x3c8b3909	0.01699497
240	0x3dc35c80	0.09539127
241	0xbef76b1c	-0.48323905
242	0x3c927676	0.017878752
243	0xbc6e49c6	-0.014543956
244	0xbcaadb27	-0.020856453
245	0xbe6d4fff	-0.23175047
246	0x3d19a015	0.03750618
247	0x3bf99bcb	0.007617449
248	0x3dcc71dc	0.099826545
249	0xbdb10745	-0.08643965
250	0xbd0ad57e	-0.03389501
251	0x3f086eb2	0.5329391
252	0x3b90fca3	0.004424648
253	0xbe0782d0	-0.13233495
254	0x3daf96e7	0.08573704
255	0xbdf1d646	-0.118084475

model.4.bias f4 [32]
0	0x38272e1c	3.9858845e-05
1	0x3b1870f9	0.0023260696
2	0xb9caf703	-0.0003871248
3	0x3b54b537	0.0032456645
4	0x3ada4b9c	0.0016654613
5	0xbab7757a	-0.0013996803
6	0xbb9a759c	-0.004713727
7	0xba16967c	-0.000574447
8	0xb9f71f5b	-0.00047134873
9	0x39ee8176	0.00045491353
10	0x3bb02dd8	0.0053765588
11	0x39821984	0.00024814543
12	0xbadfadce	-0.0017065348
13	0xba4f39a7	-0.0007905014
14	0xb932ca59	-0.00017050783
15	0xbb4bbfa2	-0.0031089564
16	0x3a55c080	0.000815399
17	0x3aa5a560	0.0012637787
18	0x3a32ba81	0.00068179524
19	0x3a184fd4	0.0005810235
20	0x3b269362	0.0025417437
21	0xba93b5db	-0.0011269407
22	0xb8f9bc28	-0.00011908292
23	0x3b3a690e	0.0028443965
24	0x3985377c	0.00025409076
25	0x39e954c1	0.0004450437
26	0xbb77b03b	-0.003779425
27	0xb9f2f4f8	-0.00046340353
28	0x38d16c98	9.986124e-05
29	0xbb3806d8	-0.002808025
30	0xbb3b7c61	-0.002860807
31	0xbaa1fab6	-0.0012358043

model.5.weight f4 [32]
0	0x3fac5d0f	1.3465899
1	0x3f9ef259	1.2417709
2	0x3fb52c4a	1.4154141
3	0x3fab14da	1.3365738
4	0x3fa1cf0e	1.2641313
5	0x3fabfb23	1.3436016
6	0x3fac2dce	1.3451478
7	0x3f9b0851	1.2111913
8	0x3f9d7e15	1.2304102
9	0x3fb475a0	1.4098396
10	0x3fbb6ce1	1.4642602
11	0x3fad5111	1.3540365
12	0x3fa56543	1.2921528
13	0x3fa11519	1.2584563
14	0x3fa29aba	1.2703469
15	0x3faccaae	1.3499353
16	0x3fb2c9e8	1.3967867
17	0x3fabf536	1.3434207
18	0x3fa81ba8	1.313344
19	0x3fbcd0a0	1.4751167
20	0x3f9ce79c	1.2258182
21	0x3fa9a55d	1.325359
22	0x3fbf713d	1.4956433
23	0x3fbbe848	1.4680262
24	0x3fafb2e1	1.3726465
25	0x3fa57a03	1.292786
26	0x3fab95bc	1.340507
27	0x3f9e1748	1.2350855
28	0x3faa99bf	1.332817
29	0x3fafa54f	1.3722323
30	0x3fa5d68a	1.2956097
31	0x3fb35fc4	1.40136

model.5.bias f4 [32]
0	0xbec87227	-0.3914959
1	0xbe2abb50	-0.16673017
2	0xbcb2b319	-0.021813916
3	0xbceece1d	-0.029151017
4	0xbe121403	-0.14265446
5	0xbe1d3152	-0.15350845
6	0xbe902707	-0.28154776
7	0xbf2146b1	-0.6299849
8	0xbdda63b5	-0.10663549
9	0x3da93547	0.08262115
10	0xbf07d2e3	-0.5305616
11	0xbfc1c5bd	-1.513847
12	0xbf1db8ae	-0.61609924
13	0xbe27d802	-0.16390994
14	0x3dc58495	0.09644429
15	0x3da617f5	0.08110038
16	0xbf3785a9	-0.71688324
17	0xbe497659	-0.19674052
18	0xbf35e106	-0.71046484
19	0xbf4d4b2a	-0.80192816
20	0xbdd99a19	-0.10625095
21	0x3c073f31	0.008254812
22	0xbf86699b	-1.0500978
23	0x3d134259	0.035951946
24	0x3d620cfa	0.055188157
25	0xbc2e88f4	-0.010652769
26	0x3d4b7899	0.049675558
27	0xbe176da5	-0.1478792
28	0x3d920894	0.071305424
29	0x3e357fad	0.17724486
30	0xbd3c0a5c	-0.045908317
31	0xbe296ae7	-0.16544686

model.5.running_mean f4 [32]
0	0xbeb140c3	-0.34619722
1	0xbe2af436	-0.16694722
2	0xbe83f19e	-0.25770277
3	0xbe704e46	-0.23467359
4	0xbe1f93b7	-0.15583692
5	0xbc837c14	-0.016050376
6	0xbe900615	-0.2812964
7	0x3cd656b3	0.026164388
8	0xbe22801b	-0.15869181
9	0xbe2aa51f	-0.16664551
10	0xbf193168	-0.5984101
11	0x3babc622	0.005242125
12	0xbd13b65d	-0.036062587
13	0xbe4edcd1	-0.20201422
14	0xbe5ce502	-0.21571735
15	0xbe0ce88a	-0.13760582
16	0xbe6eff24	-0.23339516
17	0xbe0a6c00	-0.13517761
18	0x3c2f7800	0.010709763
19	0xbe90ab74	-0.28255808
20	0xbe155554	-0.14583331
21	0xbe890f20	-0.26769352
22	0xbe1dd678	-0.15413845
23	0xbe2e4cbd	-0.17021461
24	0xbe8ec6a8	-0.27885938
25	0xbedf78be	-0.43646806
26	0xbe819de3	-0.2531577
27	0xbe5e4349	-0.21705355
28	0xbe61907e	-0.22027776
29	0xbe440d61	-0.19145729
30	0xbe25b08f	-0.16180633
31	0xbec56e76	-0.38560838

model.5.running_var f4 [32]
0	0x3edc359b	0.43009648
1	0x3e59be69	0.21264042
2	0x3e6e5a87	0.23276721
3	0x3e90d39f	0.28286454
4	0x3e49aa2f	0.19693826
5	0x3cd235d0	0.025660425
6	0x3e8ec526	0.27884787
7	0x3e62993a	0.22128764
8	0x3dea966a	0.114544705
9	0x3e64e14b	0.22351567
10	0x3f0aa63e	0.54159915
11	0x3e69806b	0.22802894
12	0x3e96cb5f	0.29452035
13	0x3e6dda65	0.23227842
14	0x3ed329f8	0.41242957
15	0x3e0cc10f	0.13745521
16	0x3eacd692	0.33757454
17	0x3e48332c	0.1955077
18	0x3eb33b26	0.35006064
19	0x3e5e12f5	0.21686919
20	0x3dce671d	0.10078261
21	0x3f09d913	0.53846854
22	0x3e7f94f5	0.24959166
23	0x3e3e3026	0.18573055
24	0x3eac1d1b	0.33615956
25	0x3f135e04	0.5756533
26	0x3e85c1aa	0.26124316
27	0x3e31455c	0.17311615
28	0x3e67f172	0.22650698
29	0x3ee3a522	0.44461924
30	0x3e245670	0.16048598
31	0x3ea91796	0.33025807

model.8.weight f4 [1, 32]
0	0xbf04feb6	-0.5195116
1	0x3eb11e5c	0.34593475
2	0x3e9dc0e6	0.30811232
3	0x3eb22925	0.34797016
4	0x3eb86bb4	0.3601967
5	0x3e978e27	0.2960064
6	0x3ed92c70	0.42416716
7	0xbed2baa6	-0.41158026
8	0x3ebc884d	0.3682274
9	0x3e95b771	0.29241517
10	0xbf18ffc1	-0.5976525
11	0xbf2e24d4	-0.68024945
12	0xbee1de70	-0.4411502
13	0x3eba3367	0.36367342
14	0x3ea3fa15	0.32026735
15	0x3e9b5fce	0.3034653
16	0xbf0e9337	-0.5569338
17	0x3eb33dc4	0.3500806
18	0xbf1d4386	-0.6143116
19	0xbf26b4cf	-0.6511964
20	0x3eb59198	0.35462642
21	0x3eae4ff3	0.3404537
22	0xbf3f453e	-0.7471503
23	0x3ea6716e	0.32508415
24	0x3eb1c275	0.3471867
25	0x3ecdc3f5	0.40188566
26	0x3ebcdb4e	0.36886066
27	0x3eb1605c	0.3464383
28	0x3eb6da7f	0.35713574
29	0x3e88284c	0.26593244
30	0x3eb7a7cf	0.35870215
31	0x3ea63e78	0.32469535
