models/deadlift_model.pth (torch, 780514 bytes, 37 tensors)

model.0.weight f4 [320, 19]
0.35376891 -0.035658635 -0.010048776 0.29395702 -0.4144544 -0.03030754 0.1494094 0.027331952
0.016280444 -0.093110114 -0.02663254 -0.009907187 0.1931899 -0.00822581 -0.07279271 -0.119325206
0.08389146 -0.11831289 0.06448576 0.22776848 -0.25406706 -0.20965329 0.09665296 0.33637825
0.09236916 0.05753836 -0.038947463 -0.038717285 -0.008217866 0.07165246 0.11887503 -0.073693715
0.105332226 -0.032223433 -0.024357209 0.23916419 -0.050038934 -0.26116827 -0.14116447 0.19239324
-0.026349552 -0.5119322 -0.29600412 0.14946954 -0.054461982 0.05358639 -0.016127335 0.03309654
0.021115895 -0.1812018 -0.11728752 0.020579731 -0.016229525 0.12963372 0.10508999 0.030615175
0.04774497 0.14999226 0.11884365 -0.07972751 0.21854682 -0.07560152 -0.027204053 0.054701697
0.13693045 0.17911524 -0.023386337 0.083700754 0.07141896 0.12915729 -0.039920375 -0.11217934
-0.21525681 -0.41888022 -0.023112979 0.2022567 0.35353026 -0.038811497 -0.09392969 0.13509952
-0.6061491 0.042116083 -0.037575506 0.0015027476 -0.0051294994 -0.010629545 0.018702297 0.043816924
0.14270481 0.01525484 -0.0099116955 -0.03812614 0.12082467 -0.13423683 0.04566137 0.41008633
-0.031402547 -0.029775042 0.22456391 -0.54250157 0.017268216 0.022664987 0.1218546 -0.008044628
-0.06558899 -0.016682312 0.0068921964 0.18917745 0.013456921 -0.033262152 -0.010994513 0.173331
-0.16156876 0.0875686 -0.08777892 0.18037304 0.058176022 0.17370358 0.2021419 -0.052603286
0.12529995 -0.03214921 -0.011688865 0.10024633 0.096692614 -0.13333264 0.010338188 0.1194166
0.056673218 -0.004641732 0.08400701 -0.08829834 0.009279218 0.25962594 -0.060729183 -0.08228316
0.1424968 -0.64431494 0.043992672 -0.020706803 -0.03453005 0.0043591848 0.027492223 -0.035978124
0.004677891 0.22078456 0.113543525 0.0111078005 -0.022154093 -0.1857092 0.08978119 0.1012487
0.38176933 -0.03552913 -0.0818564 0.2623295 0.011763394 0.036690302 0.07913183 -0.051568683
0.18000288 0.086104035 0.027568048 -0.07512443 0.14756145 -0.031496402 -0.13368064 -0.073775165
-0.04060976 -0.20607637 0.056922287 -0.020682922 0.1029436 0.032289717 -0.4877228 -0.000736525
0.16912302 -0.035171356 -0.020010527 -0.056354325 -0.027190983 0.0072715255 -0.016936958 -0.18834566
0.102413766 0.21417287 -0.15489925 0.052794926 -0.18014365 -0.043670304 -0.31075048 0.31505084
0.17216295 0.043963872 0.21527533 -0.13235228 -0.08185586 0.0035459169 0.13185231 -0.023024071
0.01709417 0.10202194 -0.30762756 -0.03196645 -0.09131755 0.041724037 0.27491042 0.063451365
0.05980067 -0.037414473 -0.010507139 -0.012990392 -0.39229313 0.1739353 0.0074453335 0.013935742
0.12773454 0.04509368 0.13354307 0.18666099 0.1625598 0.0945456 -0.020730466 -0.12001048
-0.17020814 -0.33905232 0.02030077 0.1922163 -0.07223632 -0.06365594 -0.09745473 0.0708227
0.061400697 -0.037910543 -0.01687508 -0.1773928 0.27088708 0.0046648933 -0.01587251 -0.07604908
0.23849156 -0.06737258 -0.067643136 -0.1516558 -0.49693912 -0.12940039 0.10341643 -0.00071811373
-0.08262787 -0.17787851 -0.21314766 -0.05421624 0.09645266 -0.052940577 0.16042295 -0.26424953
00000000: 3321 b53e ca0e 12bd 9fa3 24bc 8981 963e
00000010: 5e33 d4be 8547 f8bc c7fe 183e 42e7 df3c
00000020: 915e 853c 84b0 bebd 7c2c dabc c151 22bc
00000030: 93d3 453e 8cc5 06bc 5814 95bd c660 f4bd
00000040: 49cf ab3d 074e f2bd 1c11 843d 243c 693e
00000050: 1415 82be 5aaf 56be fdf1 c53d c539 ac3e
00000060: 0b2c bd3d 58ad 6b3d 6087 1fbd 0496 1ebd
00000070: 3aa4 06bc 86be 923d c074 f33d bbec 96bd
00000080: 6cb8 d73d b8fc 03bd c588 c7bc 75e7 743e
00000090: a0f5 4cbd d9b7 85be 6b8d 10be bc02 453e
000000a0: 04db d7bc fd0d 03bf da8d 97be 8b0e 193e
000000b0: 8713 5fbd 677d 5b3d 791d 84bc 3d90 073d
000000c0: 3efb ac3c f78c 39be 7034 f0bd d396 a83c
000000d0: c8f3 84bc b4be 043e 6c39 d73d adcc fa3c
000000e0: 3b90 433d 9297 193e 4d64 f33d 2d48 a3bd
000000f0: bdca 5f3e f8d4 9abd 09db debc e30e 603d
00000100: 7f37 0c3e fc69 373e b494 bfbc 4d6b ab3d
00000110: 1b44 923d cf41 043e 8c83 23bd 48be e5bd
00000120: 486c 5cbe 7877 d6be 6e57 bdbc 611c 4f3e
00000130: eb01 b53e cef8 1ebd 365e c0bd 8757 0a3e
00000140: 962c 1bbf ea81 2c3d c6e8 19bd d8f7 c43a
00000150: 5c15 a8bb 8b27 2ebc 8f35 993c 6079 333d
00000160: 3621 123e 70ef 793c aa64 22bc 282a 1cbd
00000170: ed72 f73d 6175 09be 6b07 3b3d d6f6 d13e
00000180: f59f 00bd caea f3bc 15f4 653e 62e1 0abf
00000190: 1376 8d3c ecab b93c e88e f93d 9ecd 03bc
000001a0: 8553 86bd 58a9 88bc efd7 e13b bcb7 413e
000001b0: 6b7a 5c3c e53d 08bd 5422 34bc af7d 313e
000001c0: 4872 25be 2b57 b33d 6fc5 b3bd b6b3 383e
000001d0: fb49 6e3d 5adf 313e 49fe 4e3e 8b76 57bd
000001e0: a14e 003e e4ae 03bd a782 3fbc f34d cd3d
000001f0: c706 c63d 5a88 08be 8161 293c b190 f43d
00000200: 2d22 683d ac19 98bb de0b ac3d c3d5 b4bd
00000210: dc07 183c b1ed 843e 2abf 78bd 1384 a8bd
00000220: aeea 113e d3f1 24bf a931 343d 50a1 a9bc
00000230: 626f 0dbd 7ed7 8e3b 5f37 e13c cc5d 13bd
00000240: fe48 993b 5915 623e 8289 e83d 7efd 353c
00000250: 807c b5bc 8d2a 3ebe 33df b73d 7a5b cf3d
00000260: 4577 c33e fe86 11bd 54a4 a7bd 0d50 863e
00000270: 40bb 403c 9248 163d de0f a23d af39 53bd
00000280: ad52 383e 5057 b03d 63d6 e13c d6da 99bd
00000290: 591a 173e 5f02 01bd 94e3 08be 6f17 97bd
000002a0: 6b56 26bd af05 53be 5827 693d 3b6f a9bc
000002b0: 18d4 d23d 3942 043d ceb6 f9be 5b13 41ba
000002c0: 962e 2d3e d70f 10bd 1eed a3bc cbd3 66bd
000002d0: a0bf debc fa45 ee3b 60bf 8abc afdd 40be
000002e0: 4fbe d13d 2250 5b3e e99d 1ebe 7e3f 583d
000002f0: 9477 38be a2df 32bd b01a 9fbe 584e a13e
00000300: 7c4b 303e 7613 343d 2371 5c3e 5b87 07be
00000310: 0ca4 a7bd 9d62 683b 4b04 073e fa9c bcbc
00000320: 1309 8c3c e1f0 d03d 5c81 9dbe 41ef 02bd
00000330: b204 bbbd d3e6 2a3d 0fc1 8c3e caf2 813d
00000340: 8cf1 743d eb3f 19bd 2326 2cbc a7d5 54bc
00000350: a5da c8be 181c 323e fcf7 f33b bd52 643c
00000360: d8cc 023e 27b4 383d 84bf 083e 0f24 3f3e
00000370: 1476 263e 20a1 c13d f0d2 a9bc 0ec8 f5bd
00000380: 0b4b 2ebe 4498 adbe cd4d a63c 5ad4 443e
00000390: a3f0 93bd 0c5e 82bd 5896 c7bd 7e0b 913d
000003a0: 4c7f 7b3d 1648 1bbd 9c3d 8abc 75a6 35be
000003b0: b6b1 8a3e f6db 983b 1107 82bc 9fbf 9bbd
000003c0: 2237 743e a3fa 89bd 7c88 8abd a84b 1bbe
000003d0: ce6e febe 8981 04be fecb d33d cc3f 3cba
000003e0: cd38 a9bd c925 36be 6143 5abe d911 5ebd
000003f0: f988 c53d 38d8 58bd ea45 243e b74b 87be

model.0.bias f4 [320]
-3.3737767e-06 4.614144e-06 -4.3329355e-06 3.1957563e-06 1.9201254e-05 -2.693781e-05 5.876057e-07 -1.2296487e-05
5.4438938e-06 6.951904e-07 7.563367e-07 7.309263e-06 -5.104697e-07 -5.837479e-07 3.6135325e-06 -1.6208655e-06
-1.8400123e-06 7.950097e-06 -1.0510776e-06 -7.096644e-07 -1.3699157e-05 5.881407e-06 1.4548906e-06 -1.9284977e-05
-5.1130532e-06 2.4795702e-06 -9.027727e-06 1.5603746e-08 -3.9480426e-08 -1.3458443e-06 -1.5675257e-06 -5.7275392e-06
-5.6301087e-06 3.869316e-06 3.2922544e-06 -1.0280906e-05 -3.4959103e-06 5.3795934e-06 -4.1200447e-06 -1.33632975e-05
9.071176e-06 -6.0612324e-06 -1.3717407e-05 7.956631e-07 -8.771516e-06 6.341171e-07 4.564361e-06 1.2663686e-06
-4.049492e-06 -5.582551e-06 7.878974e-07 4.2615507e-06 -1.8969322e-05 8.404103e-07 1.38594005e-05 1.6039263e-07
1.2132913e-06 -4.7164394e-07 -1.6736597e-06 -1.962166e-06 -3.4808975e-06 -1.9231127e-06 -1.969428e-06 -5.6041185e-06
9.303408e-06 -8.745467e-06 -2.3201741e-07 -3.45892e-05 -3.5258495e-07 1.05338984e-07 -1.3455816e-05 1.7195334e-06
4.961589e-06 1.77086e-06 -1.6711429e-05 -3.570665e-06 -7.550908e-06 1.3358576e-06 1.763597e-06 -4.667024e-06
-2.9707135e-06 -8.001862e-06 3.982559e-06 -1.274118e-06 2.0871818e-07 -6.9042344e-06 -9.758526e-07 -1.1927323e-05
-6.411833e-06 1.26465e-06 1.6748572e-06 2.0604264e-06 -3.911381e-06 1.976686e-05 1.272369e-05 2.8628865e-06
2.4054285e-05 7.112338e-06 -4.995706e-06 2.1723797e-06 2.6809234e-06 -4.3142336e-06 4.548638e-06 -4.012964e-07
-1.6309103e-06 -2.248658e-06 5.145412e-06 2.118853e-06 1.2983223e-06 -2.1084415e-06 -7.992443e-06 3.5846494e-07
-3.1767177e-06 4.008079e-06 2.2672295e-06 1.5677053e-05 4.0070536e-06 -5.668774e-06 2.8036382e-08 -2.5153815e-05
1.3227066e-06 -8.459865e-07 4.900063e-06 -2.2287268e-06 6.041814e-06 2.140977e-06 -5.4457746e-07 4.105344e-06
4.9076914e-07 -6.320747e-06 -1.6767068e-05 1.9724122e-05 4.7251237e-06 -1.4726888e-06 -6.317808e-07 1.0481653e-05
-3.0113183e-06 -4.554154e-06 -1.3617719e-05 1.519316e-06 -7.0220074e-07 1.9366494e-06 -1.1280548e-07 5.6617137e-06
1.2557002e-06 -1.8886578e-05 2.6533694e-06 -7.826009e-06 -1.7657123e-05 -4.7483432e-08 5.6248114e-06 -6.8412096e-06
4.4466988e-06 -4.546875e-06 6.9778316e-06 -2.5106783e-06 -2.1305365e-07 1.4535881e-06 -9.697343e-07 4.5495763e-06
5.0778135e-06 4.656758e-07 3.4064608e-06 5.1924944e-06 1.1440093e-06 2.9775335e-06 -4.576454e-06 -7.1418344e-07
-7.77458e-06 -2.974637e-06 8.588968e-06 1.4358338e-05 -1.0510331e-07 -7.3135675e-07 8.797988e-07 -3.3211923e-05
4.754694e-07 2.1415593e-05 8.993944e-07 3.4310626e-06 1.0206529e-06 1.2565186e-05 2.7419815e-06 -6.5094896e-06
-1.1313446e-05 6.187205e-06 6.837923e-06 -1.4947847e-06 3.960495e-06 1.0315976e-05 -5.7135395e-07 2.9329235e-06
7.2738017e-06 -4.247513e-07 9.823522e-06 -9.31784e-06 1.3808235e-06 -5.0743547e-06 9.898515e-07 1.3586216e-06
-2.9119171e-06 4.0925963e-05 -1.9288088e-06 3.5885253e-06 -2.483387e-06 4.4708995e-06 2.1868732e-06 -7.632562e-07
5.5623696e-06 1.2066266e-08 -3.0939832e-06 2.4312076e-06 2.881971e-05 3.3903714e-06 -2.051404e-05 1.1120928e-05
1.2872793e-05 -1.133039e-05 4.8882953e-06 -2.8360896e-06 4.959943e-06 -6.165278e-07 6.915644e-06 3.1847374e-06
6.106535e-08 -9.063473e-06 -1.3103711e-06 -1.0740048e-06 3.6261504e-06 -1.6644228e-06 4.8916186e-06 4.4720955e-06
2.191249e-06 5.6608014e-06 -6.9603293e-06 5.6308763e-06 6.8590402e-06 8.771358e-06 5.13451e-07 -1.1999246e-05
-2.3290949e-07 -1.2947821e-06 -3.3852511e-06 3.4191607e-06 6.693808e-05 6.6941593e-06 -1.5569889e-06 -2.3598949e-07
-1.4667161e-05 -1.7727517e-06 -1.2645486e-06 5.837954e-06 -7.841714e-06 -7.660797e-06 -2.6377975e-06 -2.998253e-06
00000000: 0b69 62b6 32d3 9a36 a263 91b6 ad76 5636
00000010: 6112 a137 82f8 e1b7 f5bb 1d35 024d 4eb7
00000020: b1aa b636 1f9d 3a35 1007 4b35 1742 f536
00000030: 3607 09b5 dab2 1cb5 0480 7236 848c d9b5
00000040: 57f6 f6b5 6861 0537 c012 8db5 c47f 3eb5
00000050: 6ed5 65b7 e758 c536 a945 c335 2cc6 a1b7
00000060: cb90 abb6 b166 2636 cb75 17b7 0009 8632
00000070: 3091 29b3 dca2 b4b5 c663 d2b5 302f c0b6
00000080: 44ea bcb6 2cd5 8136 80f0 5c36 287c 2cb7
00000090: 489b 6ab6 5b82 b436 ea3e 8ab6 ed32 60b7
000000a0: 6730 1837 9761 cbb6 d023 66b7 8d95 5535
000000b0: 6029 13b7 3238 2a35 9027 9936 18f8 a935
000000c0: dfe0 87b6 bf51 bbb6 e67f 5335 71fe 8e36
000000d0: 4f20 9fb7 8e98 6135 ac85 6837 6438 2c34
000000e0: 5fd8 a235 4036 fdb4 82a2 e0b5 c1ad 03b6
000000f0: 5d99 69b6 d30e 01b6 842a 04b6 030b bcb6
00000100: d515 1c37 7fb9 12b7 7620 79b4 df13 11b8
00000110: e84a bdb4 b836 e233 4ac0 61b7 b8ca e635
00000120: ba7b a636 49ae ed35 852f 8cb7 8f9f 6fb6
00000130: ce5d fdb6 b84b b335 bbb4 ec35 6e99 9cb6
00000140: 785c 47b6 bc3f 06b7 eca1 8536 5c02 abb5
00000150: 041c 6034 ecaa e7b6 0afa 82b5 761b 48b7
00000160: 3a25 d7b6 0bbd a935 a8cb e035 db45 0a36
00000170: 823e 83b6 02d1 a537 d577 5537 0420 4036
00000180: 2fc8 c937 85a6 ee36 caa0 a7b6 33c9 1136
00000190: eae9 3336 fcc2 90b6 81a0 9836 c271 d7b4
000001a0: a7e5 dab5 a6e7 16b6 c1a6 ac36 9e31 0e36
000001b0: 0442 ae35 c07e 0db6 4817 06b7 0c73 c034
000001c0: 982f 55b6 237d 8636 b526 1836 3782 8337
000001d0: 5474 8636 6636 beb6 a8d4 f032 6801 d3b7
000001e0: da87 b135 c017 63b5 386b a436 3c91 15b6
000001f0: c9ba ca36 b4ad 0f36 142f 12b5 a3c0 8936
00000200: 66bd 0335 ce16 d4b6 01a7 8cb7 3b75 a537
00000210: 818c 9e36 34a9 c5b5 a597 29b5 5bda 2f37
00000220: 0e16 4ab6 e3cf 98b6 a877 64b7 4deb cb35
00000230: de7e 3cb5 62f7 0136 783f f2b3 c0f9 bd36
00000240: 8889 a835 9e6e 9eb7 8a10 3236 744c 03b7
00000250: 621e 94b7 96f0 4bb3 c3bc bc36 8b8d e5b6
00000260: da34 9536 5c91 98b6 1e23 ea36 207d 28b6
00000270: bec3 64b4 e818 c335 d127 82b5 90a8 9836
00000280: 1662 aa36 ff01 fa34 8d9a 6436 303b ae36
00000290: dc8b 9935 a3d1 4736 718f 99b6 50b6 3fb5
000002a0: 916f 02b7 e09f 47b6 5619 1037 98e4 7037
000002b0: 28b5 e1b3 7452 44b5 502b 6c35 084d 0bb8
000002c0: 0444 ff34 a3a5 b337 ea6d 7135 3541 6636
000002d0: 5efd 8835 10cf 5237 e202 3836 176c dab6
000002e0: e1ce 3db7 b09b cf36 5071 e536 69a0 c8b5
000002f0: 65e4 8436 c812 2d37 255f 19b5 3ed3 4436
00000300: 7b11 f436 6009 e4b4 b5cf 2437 d153 1cb7
00000310: bc54 b935 6044 aab6 0adb 8435 e259 b635
00000320: 5b6a 43b6 eba7 2b38 af70 01b6 65d2 7036
00000330: 44a8 26b6 bc04 9636 32c2 1236 91e2 4cb5
00000340: 64a4 ba36 004c 4f32 3aa2 4fb6 d427 2336
00000350: dbc1 f137 2386 6336 9115 acb7 0694 3a37
00000360: 3af8 5737 a817 3eb7 2306 a436 a653 3eb6
00000370: 966d a636 787f 25b5 ee0c e836 5fb9 5536
00000380: 0823 8333 520f 18b7 02e0 afb5 8626 90b5
00000390: ca58 7336 2265 dfb5 af22 a436 020f 9636
000003a0: 5f0d 1336 eaf1 bd36 c68c e9b6 dcf0 bc36
000003b0: b526 e636 b228 1337 16d4 0935 5f50 49b7
000003c0: ac15 7ab4 60c8 adb5 2c2e 63b6 bc74 6536
000003d0: 1c61 8c38 649e e036 bbf9 d0b5 4c64 7db4
000003e0: fa12 76b7 49ef edb5 8fb9 a9b5 a5e3 c336
000003f0: e88f 03b7 df86 00b7 0405 31b6 9835 49b6

model.1.weight f4 [320]
0.4672777 0.63933575 0.68295354 0.44131705 0.6323745 0.5776964 0.34159532 0.7246053
0.41108972 0.59166753 0.6745988 0.62226355 0.6075542 0.41280216 0.64344484 0.60801804
0.4789933 0.5738389 0.5966467 0.6867619 0.635448 0.5473128 0.6838526 0.68603075
0.8046936 0.6539864 0.532928 0.57325035 0.74192446 0.6561257 0.5482588 0.5390892
0.36563206 0.5875053 0.8023951 0.48780197 0.6066309 0.626008 0.36947608 0.5215571
0.6278309 0.5724216 0.47707745 0.5091704 0.48045504 0.522658 0.39723322 0.5868428
0.6258033 0.5537042 0.4707677 0.56138754 0.58212173 0.4759684 0.55910367 0.40440536
0.5306884 0.65503097 0.67338675 0.63009626 0.6241206 0.50143284 0.6090911 0.49203134
0.59613186 0.64317644 0.3754952 0.56080073 0.6008311 0.43791342 0.6044104 0.57697475
0.63671845 0.69700134 0.50652266 0.62379265 0.6038325 0.60798323 0.6432077 0.6416983
0.73886883 0.6231866 0.66428417 0.45325217 0.5549892 0.53191537 0.6013312 0.62563837
0.40579003 0.1979231 0.5664038 0.630292 0.56188494 0.7154939 0.73422706 0.5143361
0.5156388 0.6892653 0.504497 0.40807858 0.41899657 0.5630526 0.49595362 0.5192825
0.6035231 0.66703504 0.5832824 0.48184007 0.5914252 0.5729731 0.6133115 0.6009157
0.8449081 0.5491806 0.62992686 0.4493554 0.534253 0.6198866 0.5741527 0.7425683
0.58729535 0.6687792 0.70575947 0.6007494 0.45207444 0.6552071 0.44460258 0.5274015
0.5244198 0.6411382 0.5776539 0.49790135 0.5798606 0.6331286 0.61707103 0.675949
0.5222896 0.55169857 0.6556499 0.5590478 0.5461829 0.58125556 0.6003548 0.62432015
0.5196819 0.676977 0.5280605 0.62109 0.64557785 0.37884155 0.5576659 0.6231809
0.60949844 0.52055264 0.67588216 0.43333653 0.4319093 0.58193886 0.4977949 0.44304794
0.6865054 0.245763 0.5504373 0.6140321 0.618317 0.62425846 0.6553702 0.62243515
0.5569698 0.6183383 0.56273675 0.77495104 0.42535433 0.5555652 0.5015563 0.6653438
0.57128865 0.56781656 0.5325965 0.5289123 0.57370615 0.6759889 0.455764 0.51583403
0.5419196 0.744882 0.714158 0.4200307 0.45545527 0.6920546 0.646228 0.5826171
0.49235377 0.43161526 0.5308784 0.6670654 0.5968694 0.52345127 0.49429217 0.6793339
0.58948666 0.7626281 0.4996723 0.61977535 0.67175645 0.6473353 0.5461293 0.69512075
0.69056964 0.66935754 0.5044241 0.64584875 0.5233018 0.57740587 0.77366096 0.7022653
0.5582904 0.6469918 0.53223014 0.50926536 0.46747005 0.4075482 0.37194753 0.61430305
0.4199306 0.6056166 0.51531494 0.60944444 0.9254913 0.511188 0.6272705 0.7189398
0.6767338 0.65226614 0.6692236 0.5651674 0.8503935 0.53591967 0.49570274 0.44325444
0.5686867 0.48471582 0.77338666 0.5077288 0.68367136 0.36609584 0.56255245 0.53787154
0.4294721 0.3955681 0.5784209 0.57907057 0.7416435 0.6408783 0.49534693 0.443441
00000000: 063f ef3e 82ab 233f 0bd6 2e3f 4ff4 e13e
00000010: 4ce3 213f e9e3 133f 95e5 ae3e bc7f 393f
00000020: 5a7a d23e 8677 173f 82b2 2c3f aa4c 1f3f
00000030: ac88 1b3f ce5a d33e cdb8 243f 12a7 1b3f
00000040: 9c3e f53e 1be7 123f d7bd 183f a1cf 2f3f
00000050: b8ac 223f b11c 0c3f f710 2f3f b69f 2f3f
00000060: 6600 4e3f a76b 273f f86d 083f 89c0 123f
00000070: c3ee 3d3f dbf7 273f b05a 0c3f c001 0a3f
00000080: 2034 bb3e bf66 163f c469 4d3f 2ec1 f93e
00000090: 2a4c 1b3f 0f42 203f f82b bd3e c484 053f
000000a0: 87b9 203f 398a 123f 7f43 f43e fe58 023f
000000b0: 34fe f53e eacc 053f 2762 cb3e 543b 163f
000000c0: a534 203f 8fbf 0d3f 7708 f13e 18b7 0f3f
000000d0: ee05 153f 21b2 f33e 6b21 0f3f 380e cf3e
000000e0: 32db 073f 1cb0 273f 1363 2c3f fd4d 213f
000000f0: 5ec6 1f3f e75d 003f 65ed 1b3f 88eb fb3e
00000100: 199c 183f 36a7 243f e840 c03e a390 0f3f
00000110: 11d0 193f 3036 e03e a4ba 1a3f 9eb4 133f
00000120: fbff 223f ae6e 323f 78ab 013f e0b0 1f3f
00000130: c494 1a3f caa4 1b3f 43a9 243f 5746 243f
00000140: 8226 3d3f 2889 1f3f 870e 2a3f ab10 e83e
00000150: c613 0e3f 9b2b 083f d7f0 193f d629 203f
00000160: b6c3 cf3e 5aac 4a3e d7ff 103f d15a 213f
00000170: b1d7 0f3f 9c2a 373f 4ef6 3b3f 88ab 033f
00000180: e800 043f b173 303f b726 013f adef d03e
00000190: b886 d63e 3724 103f a2ed fd3e b3ef 043f
000001a0: 7d80 1a3f cfc2 2a3f ff51 153f beb3 f63e
000001b0: a467 173f 5dae 123f fc01 1d3f 9cd5 193f
000001c0: e64b 583f 1a97 0c3f e342 213f e911 e63e
000001d0: cec4 083f e3b0 1e3f acfb 123f f518 3e3f
000001e0: fd58 163f 1d35 2b3f a7ac 343f b6ca 193f
000001f0: 4d76 e73e a7bb 273f f3a2 e33e c903 073f
00000200: 6040 063f a221 243f 20e1 133f edec fe3e
00000210: bf71 143f b714 223f 5ef8 1d3f fe0a 2d3f
00000220: c5b4 053f 1e3c 0d3f acd8 273f c21d 0f3f
00000230: a4d2 0b3f 2acd 143f dab0 193f 72d3 1f3f
00000240: df09 053f 5d4e 2d3f f92e 073f c1ff 1e3f
00000250: 9744 253f 85f7 c13e 31c3 0e3f c988 1f3f
00000260: 1708 1c3f f042 053f 9d06 2d3f 49de dd3e
00000270: 3723 dd3e f2f9 143f f9de fe3e 2ed7 e23e
00000280: d1be 2f3f 4ca9 7b3e 75e9 0c3f 3531 1d3f
00000290: 064a 1e3f 67cf 1f3f 57c6 273f e957 1f3f
000002a0: 9395 0e3f 6b4b 1e3f 840f 103f 3163 463f
000002b0: 0bc8 d93e 8539 0e3f fe65 003f f953 2a3f
000002c0: f93f 123f 6d5c 113f 3f58 083f cc66 073f
000002d0: 68de 123f 9c0d 2d3f e659 e93e b30d 043f
000002e0: 3ebb 0a3f 96b0 3e3f 0fd3 363f 440e d73e
000002f0: 6f31 e93e 7e2a 313f 336f 253f 6526 153f
00000300: cb15 fc3e adfc dc3e a6e7 073f ccc4 2a3f
00000310: 6fcc 183f e700 063f dd13 fd3e d4e8 2d3f
00000320: 99e8 163f 983b 433f 0cd5 ff3e 99a9 1e3f
00000330: 3bf8 2b3f c4b7 253f 21cf 0b3f 6ff3 313f
00000340: 2cc9 303f 045b 2b3f f021 013f 5856 253f
00000350: 1bf7 053f dfd0 133f a50e 463f a9c7 333f
00000360: 1fec 0e3f 41a1 253f 3c40 083f 375f 023f
00000370: 3c58 ef3e 28aa d03e e86f be3e f742 1d3f
00000380: 2501 d73e b109 1b3f aeeb 033f 8d04 1c3f
00000390: ffec 6c3f 37dd 023f cd94 203f 700c 383f
000003a0: 6d3e 2d3f eafa 263f 3d52 2b3f d0ae 103f
000003b0: 63b3 593f 0832 093f c0cc fd3e 3ff2 e23e
000003c0: 7495 113f ac2c f83e abfc 453f 84fa 013f
000003d0: 1605 2f3f ea70 bb3e 7003 103f f3b1 093f
000003e0: c4e3 db3e e787 ca3e 6413 143f f83d 143f
000003f0: 59dc 3d3f 9a10 243f 1d9e fd3e b30a e33e

model.1.bias f4 [320]
-0.26265067 -0.20035872 -0.25880462 -0.30069113 -0.48921522 -0.40578523 -0.23659138 -0.49995485
-0.13847278 -0.24228898 -0.34557092 -0.4305481 -0.69691956 -0.21974668 -0.23414044 -0.5570384
-0.0724926 -0.1466788 -0.26343888 -0.47337908 -0.1894666 -0.1883945 -0.25007975 -0.35868287
-0.29193985 -0.12490782 -0.40658543 -0.4389593 -0.35347697 -0.17963116 -0.23299731 -0.32044056
-0.28676292 -0.15619573 -0.33094388 -0.42113352 -0.16028307 -0.41169047 -0.30800545 -0.20139395
-0.07882043 -0.10387392 -0.33682647 -0.19592144 -0.4994926 -0.47328955 -0.28958634 -0.33715296
-0.30357546 -0.056927342 -0.46901342 -0.15003262 -0.45806697 -0.25954425 -0.31118357 -0.3042862
-0.0067634634 -0.24837478 -0.17057917 -0.3112021 -0.13514498 -0.42883438 -0.08319689 -0.055588115
-0.39672646 -0.21572766 -0.035214435 -0.37796488 -0.5087918 -0.044937413 -0.679031 -0.29805067
-0.37751883 -0.47203302 -0.41315937 -0.18195114 -0.19634567 -0.05049341 -0.41103512 -0.32065165
-0.18206106 -0.47999847 -0.099315554 -0.1405162 -0.2523656 -0.3923704 -0.47970542 -0.42138234
-0.03229918 -0.2975961 -0.37770924 -0.30439958 -0.27705172 -0.5492249 -0.26237157 -0.3970108
-0.38846427 -0.32046494 -0.30841663 -0.16467077 -0.3248128 -0.48890957 -0.23425524 -0.054097887
-0.4606256 -0.38535124 -0.12402107 -0.29113078 -0.19241077 -0.1672256 -0.24450077 -0.14090808
-0.36100107 -0.1833127 -0.4357216 -0.10297736 -0.2558847 -0.46081904 -0.4258543 -0.39721373
-0.36320508 -0.23707709 -0.39096865 -0.095240675 -0.37330207 -0.12784891 -0.09895778 -0.3034201
-0.20540957 -0.31492928 -0.2963993 -0.3524583 -0.17630927 -0.5480167 -0.3085582 -0.06822475
-0.40739942 -0.15938687 -0.18172818 -0.35657427 -0.50578266 -0.15579243 -0.41318062 -0.102177836
-0.4892009 -0.22409065 -0.07182825 -0.5928334 -0.31481323 -0.44292662 -0.38087553 -0.09358851
-0.5085401 -0.29371676 -0.18021727 -0.23888697 -0.34463784 -0.06824851 -0.21759783 -0.40606344
-0.18807438 -0.300997 -0.2700594 -0.21622007 -0.12281021 -0.319424 -0.31810293 -0.34376016
-0.31397718 -0.24970387 -0.11804511 -0.22276315 -0.48570108 -0.21977872 -0.11541981 -0.3681844
-0.4043185 -0.56432766 -0.06927491 -0.6246651 -0.22996315 -0.92238337 -0.08291396 -0.37168926
-0.01676196 -0.14328343 -0.22334546 -0.19770755 -0.17084488 -0.34938562 -0.41003644 -0.21565627
-0.19959258 -0.08128258 -0.22453627 -0.36192673 -0.48228946 -0.08422396 -0.34001538 -0.3458449
-0.44754928 -0.25390446 -0.15943556 -0.40436995 -0.33324647 -0.36914477 -0.3891434 -0.29383564
-0.37213206 -0.39373505 -0.39726073 -0.24700814 -0.20914929 -0.5498493 -0.003383018 -1.10564
-0.31531453 -0.1628569 -0.19307707 -0.2981948 -0.24358255 -0.114298046 -0.0015051835 -0.3771986
-0.2988403 -0.28801873 -0.2501885 -0.15116318 -0.36744106 -0.16757168 -0.5345517 -0.29756397
-0.07336731 -0.4946043 -0.23586069 -0.06018933 -0.3421559 -0.28080896 -0.3049818 -0.13626882
-0.19800985 -0.007619459 -0.5264104 -0.4756172 -0.017134082 -0.33363098 -0.07020487 -0.51874995
-0.037978377 -0.15827064 -0.23346941 -0.18641818 -0.20104526 -0.27402613 -0.17176914 -0.4898675
00000000: 267a 86be d62a 4dbe 0a82 84be 30f4 99be
00000010: 6b7a fabe 15c3 cfbe 0345 72be 15fa ffbe
00000020: cfcb 0dbe 9a1a 78be acee b0be cd70 dcbe
00000030: 5269 32bf 4605 61be 83c2 6fbe 129a 0ebf
00000040: 0077 94bd f832 16be 76e1 86be be5e f2be
00000050: 8803 42be 7dea 40be 740a 80be 48a5 b7be
00000060: 2479 95be accf ffbd f72b d0be 46bf e0be
00000070: effa b4be 3bf1 37be d996 6ebe c910 a4be
00000080: 97d2 92be c6f1 1fbe 7a71 a9be d09e d7be
00000090: 3f21 24be 18c9 d2be e4b2 9dbe 373a 4ebe
000000a0: 9b6c a1bd dabb d4bd 8574 acbe a19f 48be
000000b0: 7ebd ffbe 0253 f2be a944 94be 509f acbe
000000c0: 3e6e 9bbe a52c 69bd 8722 f0be 27a2 19be
000000d0: c187 eabe fce2 84be 7453 9fbe 67cb 9bbe
000000e0: 0ba0 ddbb f555 7ebe 4eac 2ebe e255 9fbe
000000f0: 7263 0abe 2e90 dbbe 2263 aabd 5db0 63bd
00000100: bb1f cbbe b6e7 5cbe 033d 10bd 9d84 c1be
00000110: 2e40 02bf 4b10 38bd fad4 2dbf 199a 98be
00000120: 264a c1be 50ae f1be a089 d3be 6651 3abe
00000130: d70e 49be 2ed2 4ebd 3273 d2be 742c a4be
00000140: 376e 3abe 5cc2 f5be f465 cbbd 7be3 0fbe
00000150: 1036 81be c6e4 c8be f39b f5be 6dbf d7be
00000160: 254c 04bd 845e 98be 1b63 c1be 43da 9bbe
00000170: b9d9 8dbe 019a 0cbf 9155 86be 0045 cbbe
00000180: cae4 c6be fb13 a4be c9e8 9dbe 749f 28be
00000190: dd4d a6be 5b52 fabe 9be0 6fbe bf95 5dbd
000001a0: 1ed7 ebbe c24c c5be c2fe fdbd 180f 95be
000001b0: 5407 45be 303d 2bbe 695e 7abe 354a 10be
000001c0: 22d5 b8be 53b6 3bbe e716 dfbe cbe5 d2bd
000001d0: 5203 83be 79f0 ebbe 9309 dabe 995f cbbe
000001e0: 04f6 b9be 56c4 72be 0b2d c8be 8b0d c3bd
000001f0: 7321 bfbe d3ea 02be 60aa cabd e159 9bbe
00000200: e356 52be 693e a1be a6c1 97be 6a75 b4be
00000210: 6b8a 34be d34a 0cbf 57fb 9dbe 6bb9 8bbd
00000220: a896 d0be 5036 23be f416 3abe e790 b6be
00000230: f97a 01bf 0d88 1fbe 698c d3be 9d42 d1bd
00000240: 8a78 fabe 0578 65be b11a 93bd eec3 17bf
00000250: 332f a1be 47c7 e2be 1e02 c3be 55ab bfbd
00000260: af2f 02bf 0b62 96be e08a 38be c99e 74be
00000270: 5f74 b0be e0c5 8bbd f7d1 5ebe 8ce7 cfbe
00000280: 9296 40be 471c 9abe 3a45 8abe cb68 5dbe
00000290: eb83 fbbd 8b8b a3be 63de a2be 5501 b0be
000002a0: 9ec1 a0be 5fb2 7fbe a2c1 f1bd 061c 64be
000002b0: d0ad f8be ac0d 61be 3961 ecbd aa82 bcbe
000002c0: d602 cfbe c777 10bf 01e0 8dbd 0dea 1fbf
000002d0: 767b 6bbe 5121 6cbf cbce a9bd 0e4e bebe
000002e0: 6150 89bc e4b8 12be acb4 64be d973 4abe
000002f0: f6f1 2ebe ace2 b2be 4cf0 d1be ffd4 5cbe
00000300: ff61 4cbe 7b77 a6bd d6ec 65be 764e b9be
00000310: a5ee f6be 9d7d acbd 7f16 aebe 9512 b1be
00000320: 2e25 e5be c4ff 81be 1343 23be 9409 cfbe
00000330: 489f aabe 8b00 bdbe ce3d c7be a071 96be
00000340: 1888 bebe a497 c9be c265 cbbe b4ef 7cbe
00000350: 3b2b 56be ecc2 0cbf a0b5 5dbb 9d85 8dbf
00000360: e870 a1be f6c3 26be ffb5 45be fdac 98be
00000370: b46d 79be 1815 eabd 9449 c5ba 2d20 c1be
00000380: 9901 99be 3177 93be b518 80be 85ca 1abe
00000390: 3c21 bcbe e997 2bbe 61d8 08bf 4e5a 98be
000003a0: 9a41 96bd c63c fdbe 7785 71be 1689 76bd
000003b0: 0f2f afbe 31c6 8fbe 9326 9cbe 0e8a 0bbe
000003c0: 18c3 4abe a8ac f9bb d5c2 06bf 1984 f3be
000003d0: c65c 8cbc aed1 aabe 92c7 8fbd cccc 04bf
000003e0: 378f 1bbd b311 22be 9b12 6fbe 68e4 3ebe
000003f0: cfde 4dbe 274d 8cbe 40e4 2fbe eacf fabe

model.1.running_mean f4 [320]
-0.00022310557 -0.00041471893 -5.3382228e-05 -0.0020793863 0.00027956004 8.901847e-06 -0.0030766374 0.003013529
-0.0034907176 -0.0020039394 -0.001214367 -0.0027066981 -0.0013204573 0.0003877906 0.0011444992 -0.002378962
0.0013959159 0.0013734993 -0.0016871559 0.0012886751 0.00061376323 0.0010730599 0.0002681388 -0.0008367192
0.00015766337 0.0002375258 0.0024750498 -0.000647213 0.0010602291 -0.0024462526 0.0026977488 -0.0021329378
-0.0010896054 0.00016208361 0.00051474705 -0.0036654333 0.0009961545 -0.0014332482 -0.00087070675 0.0024334039
-0.00087712944 2.4972767e-05 5.5969707e-05 0.0027162482 0.001440678 -0.0022796316 -0.00026017823 -0.0034911355
0.002058807 0.0006780837 -0.0019742392 -0.0008107498 -0.00029831455 0.0013405187 -0.0016326907 -0.00018757828
0.0003968468 0.0022136297 -0.0012531162 0.003180876 0.0022733267 -0.0028226376 0.0011062172 0.0007511482
-0.0018761619 0.0016957386 -0.0003048264 -9.163345e-06 0.0017268776 0.004262209 -0.002085226 0.0029162467
-0.002298693 0.0008848057 -0.0018524368 -0.00055896054 0.0015968333 0.003721126 -0.0019976143 0.0017943251
0.0018778475 0.00067065936 0.00085200917 -0.0013212458 -0.00050438335 -0.0027931877 0.00078907865 0.0010934458
0.00086902996 0.00014105342 0.0015183475 0.002324562 -0.00054180954 0.002305954 0.0023799129 0.002838925
0.0019391143 0.0041548084 0.0021370696 -0.0019712823 -0.00044690515 0.0003448122 0.00083524344 0.001170185
0.003002745 -0.00095552276 0.0010666414 0.0014727956 0.0012258727 0.0024415513 0.0039587114 0.0014134194
-0.0006310538 0.0013979528 -0.0028405115 0.0011855691 -0.002032986 0.0028421357 0.0015645655 0.0018467298
0.002015788 0.0020250545 0.0030605267 -0.0022217724 -1.1158708e-05 0.00035019603 -0.0023166484 0.002072277
0.001643543 -0.0011967057 -0.0018112509 -0.00096401566 0.004387334 0.002042819 -0.00013671927 -0.0014898784
0.0012831615 0.0036634272 -0.0014064405 0.0033630403 -1.1544358e-05 -0.0017858143 0.0044565843 0.0023352916
0.0015167895 0.0003938376 -0.0010842769 -0.0013706315 0.003557743 -0.0015441105 0.0007795041 0.001841295
0.0021149958 -0.0021702624 0.0027622744 0.0036395006 -0.0010182112 -2.1007423e-05 0.0016494608 0.00064701424
0.0005785083 0.0030070252 -0.0010630128 0.0023291921 0.0013115862 0.0027216144 0.0048493915 0.0007811089
0.0013255716 -0.0026579138 -0.0022130946 0.001968658 -0.001874916 -0.0018495858 -0.0015491844 0.0012112199
0.00071842945 -0.0010535751 0.0014588943 0.0029144501 -0.0003341031 -0.0013123043 -0.0010843157 -0.00035127727
0.0024195195 -4.288653e-05 0.0025760478 0.003690664 0.0031730991 -0.00035940533 -0.0014182586 0.00067399075
-0.0014575183 0.00029177507 0.0019566996 -0.00025169927 0.0030000033 3.835499e-05 0.00033938367 0.0050777765
0.0021373823 0.0007505638 0.0024875721 0.0031823565 0.0028678158 0.0038930203 0.0027650218 0.0025332342
0.00189608 0.00020829818 -0.0024111117 -0.00025438366 -0.0016222636 -0.0023095587 0.0014063428 0.0009572217
-0.0042883605 0.0008927768 -0.00045225408 -0.005030632 -0.00086724135 0.0011251906 0.0025567086 0.0028366887
-0.0008861852 -0.004295618 -0.001970792 0.0002068888 -0.00061328715 -0.0003976781 0.002139932 0.0021538131
-0.0008378184 0.0017529869 -4.9251274e-05 0.0028122228 -0.000576098 -4.1132425e-05 -0.0010913799 -0.0017824136
-0.0006697578 -0.0015201641 -0.0015775103 -0.0017460841 0.0012771647 0.0013542869 -0.0007673315 0.00028203148
0.0005328785 -0.00086953276 -0.0005842269 -0.0001087843 0.0010816548 -0.00082913693 -0.004011522 -0.0018756522
00000000: 72f1 69b9 a26e d9b9 bbe6 5fb8 5046 08bb
00000010: ea91 9239 2459 1537 69a1 49bb a17e 453b
00000020: 86c4 64bb 8654 03bb 652b 9fba dc62 31bb
00000030: 3213 adba 6050 cb39 0503 963a 5ce8 1bbb
00000040: 2af7 b63a fd06 b43a 8f23 ddba c3e8 a83a
00000050: f4e4 203a eaa5 8c3a fb94 8c39 4657 5bba
00000060: 7052 2539 5910 7939 7234 223b bba9 29ba
00000070: 63f7 8a3a 4f51 20bb b7cc 303b c2c8 0bbb
00000080: 17d1 8eba fdf4 2939 17f0 063a c437 70bb
00000090: 6691 823a d4db bbba 2440 64ba be79 1f3b
000000a0: 29ef 65ba 9c7c d137 04c1 6a38 1503 323b
000000b0: 22d5 bc3a df65 15bb 8868 88b9 89cb 64bb
000000c0: 0ded 063b 6dc1 313a 3d62 01bb 8088 54ba
000000d0: 1a67 9cb9 58b4 af3a 0200 d6ba a9b0 44b9
000000e0: e00f d039 8b12 113b 9a3f a4ba 3e76 503b
000000f0: 18fc 143b 00fc 38bb 7dfe 903a b4e8 443a
00000100: 8ce9 f5ba 8c43 de3a 1bd1 9fb9 44bc 19b7
00000110: 6658 e23a 00aa 8b3b 49a8 08bb 801e 3f3b
00000120: aba5 16bb 4ef2 673a 77cd f2ba 3587 12ba
00000130: d64c d13a 22de 733b 68ea 02bb 8f2f eb3a
00000140: 1b22 f63a 30cf 2f3a 5e59 5f3a a72d adba
00000150: 9838 04ba ea0d 37bb 2cda 4e3a f451 8f3a
00000160: 9dcf 633a bde7 1339 4a03 c73a ae57 183b
00000170: 3908 0eba 7d1f 173b 50f8 1b3b 420d 3a3b
00000180: e129 fe3a 0f25 883b 140e 0c3b a130 01bb
00000190: 984e eab9 e9c7 b439 3df4 5a3a e560 993a
000001a0: b4c9 443b 0c7c 7aba 8cce 8b3a d20a c13a
000001b0: 76ad a03a 6f02 203b 14b8 813b 7c42 b93a
000001c0: 4e6d 25ba 833b b73a e027 3abb 1965 9b3a
000001d0: d83b 05bb 2043 3a3b 1b12 cd3a f80d f23a
000001e0: 501b 043b c7b6 043b 1e93 483b 289b 11bb
000001f0: 4936 3bb7 849a b739 e9d2 17bb 0acf 073b
00000200: 276c d73a c8da 9cba 7f67 edba ffb5 7cba
00000210: a0c3 8f3b d1e0 053b 4d5c 0fb9 0648 c3ba
00000220: c12f a83a 1c16 703b 5058 b8ba 7466 5c3b
00000230: a4ae 41b7 fc11 eaba 8a08 923b b10b 193b
00000240: 03cf c63a fd7b ce39 4c1e 8eba c3a6 b3ba
00000250: 0629 693b c063 caba a257 4c3a 9c57 f13a
00000260: be9b 0a3b f63a 0ebb 4607 353b b084 6e3b
00000270: 8075 85ba 1939 b0b7 b832 d83a 649c 293a
00000280: 09a7 173a 8311 453b ca54 8bba 5ca5 183b
00000290: 88e9 ab3a 1d5d 323b a5e7 9e3b 55c3 4c3a
000002a0: cdbe ad3a 6530 2ebb 9109 11bb 9a04 013b
000002b0: bebf f5ba cd6d f2ba 010e cbba ccc1 9e3a
000002c0: fc54 3c3a 1d18 8aba 5f38 bf3a 5c00 3f3b
000002d0: 8f2a afb9 a001 acba 991f 8eba a32b b8b9
000002e0: cd90 1e3b 10e1 33b8 e9d2 283b 11df 713b
000002f0: c5f3 4f3b 916e bcb9 dde4 b9ba c1ae 303a
00000300: 330a bfba 63f9 9839 f93b 003b 81f6 83b9
00000310: b49b 443b 5bdf 2038 4eef b139 7a63 a63b
00000320: 5313 0c3b 7cc1 443a 8906 233b 158f 503b
00000330: f7f1 3b3b 0b22 7f3b 5e35 353b 9e04 263b
00000340: e385 f83a 9e6a 5a39 be03 1ebb cc5e 85b9
00000350: 22a2 d4ba f75b 17bb 0955 b83a 10ee 7a3a
00000360: 6085 8cbb 3d09 6a3a 841c edb9 00d8 a4bb
00000370: 9557 63ba 227b 933a 748e 273b bde7 393b
00000380: e24e 68ba 41c2 8cbb 6728 01bb 4af0 5839
00000390: 01c5 20ba 737f d0b9 1a3e 0c3b fd26 0d3b
000003a0: 0ba1 5bba 7bc4 e53a 2793 4eb8 454d 383b
000003b0: 4805 17ba 9b85 2cb8 a20c 8fba e09f e9ba
000003c0: af92 2fba 3e40 c7ba 76c4 ceba dcdc e4ba
000003d0: 8966 a73a 5482 b13a bf26 49ba a0dd 9339
000003e0: dfb0 0b3a 5bf1 63ba ce26 19ba 2023 e4b8
000003f0: 50c6 8d3a 705a 59ba 1673 83bb 72d8 f5ba

model.1.running_var f4 [320]
0.6123698 0.27139792 0.47725597 0.24606597 0.6230768 0.78352165 0.28249586 0.6041571
0.42544246 0.36528516 0.24692422 0.35017282 0.29788613 0.31010377 0.3902197 0.49588418
0.43004408 0.25526562 0.38151845 0.48667017 0.4972962 0.2701601 0.30940235 0.3819015
0.67414856 0.4752849 0.70799357 0.1510036 0.50824285 0.45752105 0.34354272 0.2049367
0.31173965 0.35373393 0.7493455 0.19865881 0.4979562 0.34266433 0.5403863 0.2796659
0.27271992 0.3919151 0.5858799 0.48421717 0.53894347 0.30666813 0.28198346 0.2649343
0.3383824 0.44154522 0.5241381 0.28080273 0.21041481 0.33316866 0.2489239 0.30770007
0.35251427 0.24825847 0.3925339 0.448201 0.29667804 0.29295585 0.26178282 0.40746546
0.40175486 0.34282616 0.27269378 0.40558574 0.52508515 0.3243335 0.33795094 0.33754992
0.3908993 0.32655153 0.39062083 0.2889209 0.2927789 0.5074523 0.43014112 0.4122942
0.39553264 0.08102572 0.5425316 0.3495178 0.30862764 0.18252665 0.25380605 0.60788256
0.36569712 0.11056088 0.35945144 0.5401743 0.23500071 0.72449905 0.328473 0.3053057
0.33069637 0.38292548 0.29690135 0.24512695 0.35651207 0.3201471 0.29833832 0.24089253
0.22827363 0.6451507 0.17868814 0.2830194 0.21989991 0.37691036 0.41382182 0.3776802
0.6957407 0.274596 0.5047914 0.26985803 0.29812345 0.31818122 0.38333222 0.41955593
0.5160115 0.47196612 0.66680235 0.36133432 0.28224564 0.21488883 0.5448163 0.4783569
0.48535398 0.24287125 0.45111698 0.34368476 0.5208863 0.5473927 0.41455954 0.47530672
0.2678638 0.28938988 0.2641331 0.38934147 0.3358127 0.28378665 0.52660066 0.2823772
0.44854423 0.36245352 0.6433457 0.32065558 0.40944743 0.27431244 0.4135478 0.23362945
0.35419753 0.70385754 0.4297864 0.42402923 0.33720654 0.1530733 0.27492473 0.2719537
0.42714512 0.200106 0.3701335 0.2822003 0.2802446 0.29174417 0.35213086 0.2780344
0.53669673 0.29192775 0.30137143 0.6159676 0.19316074 0.4178435 0.4447336 0.30168644
0.19034408 0.49750572 0.49269915 0.2590902 0.45432994 0.12586908 0.3878878 0.4261984
0.45050403 0.48191014 0.4606032 0.2840079 0.3457106 0.31187844 0.29133266 0.29469216
0.7897283 0.42816585 0.2959036 0.2300397 0.32740378 0.3959496 0.5113823 0.40586466
0.43980786 0.20895001 0.34487832 0.4104767 0.43735337 0.36595887 0.34245822 0.47410882
0.32393673 0.27346298 0.30985776 0.28023106 0.31944558 0.27303335 0.42871714 0.24841246
0.57202876 0.28187296 0.39842495 0.3347531 0.28974742 0.423822 0.37132648 0.25689262
0.24986297 0.22010303 0.27478763 0.29936022 0.76905906 0.4373533 0.462743 0.2979903
0.52939045 0.6690502 0.37997714 0.40025055 0.7581825 0.4208381 0.4812726 0.41954923
0.21010551 0.30107188 0.13429305 0.18492304 0.44818243 0.24546556 0.3750715 0.4458107
0.38818815 0.33471486 0.48034486 0.24421571 0.5748317 0.3564111 0.30967215 0.1425352
00000000: 44c4 1c3f abf4 8a3e e55a f43e b8f8 7b3e
00000010: f681 1f3f e094 483f 4ca3 903e 0aaa 1a3f
00000020: 98d3 d93e a806 bb3e b4d9 7c3e da49 b33e
00000030: 8884 983e ecc5 9e3e e0ca c73e 88e4 fd3e
00000040: bd2e dc3e 2db2 823e 6356 c33e d52c f93e
00000050: 9c9d fe3e 6d52 8a3e fc69 9e3e 9888 c33e
00000060: 0095 2c3f 8b58 f33e 113f 353f b0a0 1a3e
00000070: 341c 023f 3340 ea3e d5e4 af3e edda 513e
00000080: 579c 9f3e 9d1c b53e 1bd5 3f3f 376d 4b3e
00000090: 1df4 fe3e b371 af3e c256 0a3f 5e30 8f3e
000000a0: f2a1 8b3e 19a9 c83e 3afc 153f 50eb f73e
000000b0: 33f8 093f 9b03 9d3e 2360 903e 78a5 873e
000000c0: 7540 ad3e 3712 e23e ea2d 063f 60c5 8f3e
000000d0: fb76 573e 1595 aa3e e8e5 7e3e dd8a 9d3e
000000e0: c07c b43e 7837 7e3e 34fa c83e 9a7a e53e
000000f0: 2fe6 973e 4ffe 953e 6608 863e 509f d03e
00000100: d0b2 cd3e e986 af3e 859e 8b3e efa8 cf3e
00000110: fb6b 063f 0a0f a63e e807 ad3e 58d3 ac3e
00000120: f423 c83e c331 a73e 74ff c73e 71ed 933e
00000130: 1ee7 953e 65e8 013f 753b dc3e 3a18 d33e
00000140: 4183 ca3e d0f0 a53d 5ae3 0a3f fff3 b23e
00000150: 7104 9e3e 44e8 3a3e def2 813e 319e 1b3f
00000160: a73c bb3e be6d e23d 050a b83e dd48 0a3f
00000170: 07a4 703e c578 393f 9d2d a83e 0751 9c3e
00000180: 0951 a93e cf0e c43e 7403 983e 8f02 7b3e
00000190: c088 b63e 52ea a33e cdbf 983e 88ac 763e
000001a0: 90c0 693e 9928 253f 06fa 363e ebe7 903e
000001b0: 712d 613e 65fa c03e 74e0 d33e 4d5f c13e
000001c0: 101c 323f d997 8c3e 023a 013f d52a 8a3e
000001d0: a3a3 983e a6e8 a23e 1f44 c43e 09d0 d63e
000001e0: 5419 043f 8ba5 f13e 8fb3 2a3f d000 b93e
000001f0: 8082 903e d10b 5c3e 1579 0b3f 32eb f43e
00000200: 5180 f83e 3eb3 783e cef8 e63e 73f7 af3e
00000210: ce58 053f ee21 0c3f 2641 d43e 675b f33e
00000220: 7225 893e e92a 943e 743c 873e c457 c73e
00000230: a4ef ab3e 7c4c 913e 4dcf 063f bf93 903e
00000240: 97a7 e53e 8293 b93e 4eb2 243f f82c a43e
00000250: 18a3 d13e ae72 8c3e 8abc d33e 8f3c 6f3e
00000260: 6159 b53e 0230 343f f70c dc3e 5c1a d93e
00000270: 56a6 ac3e 3fbf 1c3e efc2 8c3e 843d 8b3e
00000280: c4b2 da3e 96e8 4c3e 2382 bd3e 8f7c 903e
00000290: 387c 8f3e 7e5f 953e 7f4a b43e 865a 8e3e
000002a0: f564 093f 8e77 953e 5b4d 9a3e 0db0 1d3f
000002b0: eecb 453e 95ef d53e 1fb4 e33e a576 9a3e
000002c0: 8fe9 423e 12b9 fe3e 1043 fc3e 78a7 843e
000002d0: ef9d e83e d3e3 003e 3b99 c63e ad36 da3e
000002e0: 77a8 e63e edbc f63e 2fd4 eb3e 7c69 913e
000002f0: fb00 b13e 88ae 9f3e 8e29 953e e4e1 963e
00000300: a22b 4a3f 8e38 db3e ad80 973e 878f 6b3e
00000310: 78a1 a73e e8b9 ca3e f3e9 023f 7ecd cf3e
00000320: 7f2e e13e fef6 553e e493 b03e 012a d23e
00000330: c8ec df3e f65e bb3e af56 af3e 64be f23e
00000340: 09db a53e 5703 8c3e ada5 9e3e 727a 8f3e
00000350: 5f8e a33e 07cb 8b3e d080 db3e d65f 7e3e
00000360: 7a70 123f a751 903e 5bfe cb3e c264 ab3e
00000370: c659 943e 32ff d83e 811e be3e 6e87 833e
00000380: 14dc 7f3e b062 613e f7b0 8c3e be45 993e
00000390: 0ee1 443f c6ec df3e a7ec ec3e 2f92 983e
000003a0: 2286 073f e046 2b3f 5d8c c23e a4ed cc3e
000003b0: 4018 423f 1778 d73e 5d69 f63e 28cf d63e
000003c0: e625 573e 1826 9a3e 1e84 093e 775c 3d3e
000003d0: 2b78 e53e 535b 7b3e 5f09 c03e 4d41 e43e
000003e0: 99c0 c63e bf5f ab3e c3ef f53e af13 7a3e
000003f0: 2c28 133f 847b b63e 598d 9e3e bff4 113e

model.4.weight f4 [256, 320]
0.0014704112 0.06557967 -0.05787204 -0.017518578 -0.030484332 0.009867387 0.00035879266 -0.0855573
0.0061973566 -0.0046272837 0.045110885 -0.06369616 -0.06905488 0.028900973 -0.06700079 -0.07294358
-0.053229045 -0.017959546 -0.04542128 -0.045910504 0.0063361586 0.030482136 0.09010468 0.017450448
-0.0009420365 0.0072429245 0.01400417 -0.07557216 -0.03664965 -0.039100487 0.07416358 0.053302616
-0.017279752 -0.027112288 -0.0107187 -0.044959404 -0.025182711 -0.12879288 0.049593218 0.036238927
-0.18068542 0.060871575 -0.037079636 -0.038084846 -0.027219173 -0.07312275 -0.009563992 -0.10492752
0.027772855 -0.034778155 0.037285283 0.079303235 -0.09734404 0.007333318 -0.11370441 -0.018270522
-0.04684827 -0.04515315 -0.013412495 -0.092021234 -0.0772738 -0.010479457 0.1138508 -0.057151727
-0.012594223 0.028894277 -0.023986025 0.0074547925 -0.025858212 -0.06583543 -0.09481776 0.050233528
0.0037463903 -0.067823224 -0.042385045 -0.0019266605 -0.05652581 -0.08014626 -0.07051444 -0.12866363
-0.091776885 -0.070574924 0.05024841 -0.14239584 -0.10854203 -0.053905915 -0.018165085 -0.0762037
0.028093245 -0.000951541 0.009332363 0.024100259 -0.0497978 -0.016741462 0.02538846 0.021869322
0.08554921 -0.04704387 0.09181059 -0.03968681 -0.00079573505 0.02906856 0.023580523 0.05326836
0.02561642 -0.07623742 0.044043202 0.04197262 0.06401908 -0.00127484 0.050141625 0.015959866
-0.008154467 -0.0129359 -0.07793847 -0.1016873 -0.012659684 0.03255956 -0.076827236 0.018405877
0.05826518 0.039410044 0.016765226 0.051163092 -0.036374416 -0.074760735 0.030064797 0.005487316
-0.01537978 -0.09863931 -0.05934089 0.024623571 -0.05437019 0.0050117583 -0.011816304 0.105129294
0.07387881 0.013957728 -0.004445025 0.018847946 0.013634159 -0.13349736 -0.015231488 0.07118902
0.006623804 0.0349712 -0.04322428 -0.045498915 0.007744013 0.003476005 0.14310844 0.019074688
0.03250426 -0.007801821 0.011463766 0.01118748 0.07028537 -0.11701189 0.07443368 0.015585887
-0.012608034 -0.027251812 -0.011116814 -0.023720484 0.03114347 -0.06095946 -0.08258564 0.10642918
-0.003353652 -0.09167858 -0.019716382 0.004712774 -0.0050721145 0.0014972378 -0.019893097 -0.024825945
-0.093848266 -0.06878371 -0.0109463 0.08879981 0.011508595 -0.014980806 0.024150187 0.03992729
0.059777245 0.0051104035 -0.02556016 -0.01835313 -0.0021984787 -0.0615936 -0.041453738 0.030948887
0.031439085 -0.06379009 -0.015683046 0.018446688 0.047673233 -0.04659383 -0.037353296 0.0051452937
0.01789883 0.061040558 0.07716192 0.081243806 0.09066112 0.03887081 -0.033254106 0.013118682
-0.013526016 -0.10749044 -0.0923145 0.046115052 -0.044880856 0.020758806 -0.0053764908 -0.16040008
-0.0819638 0.04052831 -0.034834042 -0.041995395 -0.02091684 0.04050203 -0.030867983 0.02358269
-0.040377215 -0.074871734 -0.0066630305 -0.0080647115 0.030073911 -0.049724184 -0.00734788 0.046899047
0.014648135 -0.02702972 -0.0264597 0.06069522 0.0051052063 0.03376685 -0.026889546 0.0372438
-0.028811632 0.016527893 -0.09903629 0.011527178 0.0019342108 0.07091065 0.05792676 0.07270797
-0.057892725 0.017645558 0.00932314 0.041233588 0.005173048 -0.008259296 -0.0039783237 0.021251248
00000000: d0ba c03a a24e 863d 3b0b 6dbd 1f83 8fbc
00000010: 47ba f9bc d2aa 213c 561c bc39 aa38 afbd
00000020: 3213 cb3b 78a0 97bb 31c6 383d 2273 82bd
00000030: a56c 8dbd bcc1 ec3c b637 89bd 7263 95bd
00000040: b306 5abd e61f 93bc aa0b 3abd a70c 3cbd
00000050: 8d9f cf3b acb5 f93c cd88 b83d 3ef4 8e3c
00000060: 00f3 76ba 0e56 ed3b bf71 653c 94c5 9abd
00000070: f21d 16bd d527 20bd 13e3 973d d853 5a3d
00000080: 448e 8dbc 971a debc 7c9d 2fbc 5a27 38bd
00000090: f94b cebc 48e2 03be 4222 4b3d 456f 143d
000000a0: 9905 39be 7954 793d d1e0 17bd dbfe 1bbd
000000b0: befa debc 61c1 95bd 4ab2 1cbc 3de4 d6bd
000000c0: e683 e33c 8a73 0ebd 74b8 183d bc69 a23d
000000d0: 505c c7bd 544c f03b dcdd e8bd 10ac 95bc
000000e0: f9e3 3fbd 82f2 38bd 15c0 5bbc a175 bcbd
000000f0: ba41 9ebd 07b2 2bbc 9c2a e93d ee17 6abd
00000100: 0058 4ebc b1b3 ec3c 577e c4bc 5547 f43b
00000110: 9ad4 d3bc bad4 86bd d02f c2bd acc1 4d3d
00000120: 0086 753b e7e6 8abd f19b 2dbd 0088 fcba
00000130: 9c87 67bd b923 a4bd e069 90bd 66c0 03be
00000140: 85f5 bbbd 9689 90bd 47d1 4d3d 37d0 11be
00000150: 494b debd 73cc 5cbd f2ce 94bc af10 9cbd
00000160: ce23 e63c d670 79ba c4e6 183c e86d c53c
00000170: c7f8 4bbd 6425 89bc 76fb cf3c 4b27 b33c
00000180: 6d34 af3d 13b1 40bd 3107 bc3d a38e 22bd
00000190: e098 50ba 3021 ee3c f12b c13c ed2f 5a3d
000001a0: 87d9 d13c 5d22 9cbd a566 343d 7beb 2b3d
000001b0: 6f1c 833d 8818 a7ba 4e61 4d3d 44be 823c
000001c0: 509a 05bc 19f1 53bc 349e 9fbd 6e41 d0bd
000001d0: 906a 4fbc 2c5d 053d 9957 9dbd ecc7 963c
000001e0: 78a7 6e3d 6d6c 213d 3a57 893c 6490 513d
000001f0: 57fd 14bd 281c 99bd 734a f63c f1ce b33b
00000200: 79fb 7bbc 6803 cabd 6f0f 73bd 5fb7 c93c
00000210: 47b3 5ebd ad39 a43b 2c99 41bc 074e d73d
00000220: c64d 973d f4ae 643c 93a7 91bb 0267 9a3c
00000230: cf61 5f3c 88b3 08be 7e8d 79bc 8dcb 913d
00000240: 7f0c d93b f63d 0f3d f10b 31bd 125d 3abd
00000250: 7dc1 fd3b b0cd 633b 058b 123e 8542 9c3c
00000260: 3023 053d 6ba6 ffbb 85d2 3b3c b14b 373c
00000270: c7f1 8f3d eea3 efbd af70 983d f35b 7f3c
00000280: ed91 4ebc 313f dfbc 4c23 36bc 7651 c2bc
00000290: 9720 ff3c a0b0 79bd a922 a9bd 8bf7 d93d
000002a0: f2c8 5bbb fbc1 bbbd 4084 a1bc 9d6d 9a3b
000002b0: fb33 a6bb f73e c43a d9f6 a2bc c85f cbbc
000002c0: 8533 c0bd 79de 8cbd 1c58 33bc addc b53d
000002d0: 8c8e 3c3c 0e72 75bc 9dd6 c53c cc8a 233d
000002e0: fcd8 743d 2c75 a73b 8a63 d1bc 4e59 96bc
000002f0: 5a14 10bb 9249 7cbd 65cb 29bd 8588 fd3c
00000300: 45c6 003d 61a4 82bd bb79 80bc 821d 973c
00000310: 0245 433d 2cd9 3ebd c5ff 18bd da99 a83b
00000320: 91a0 923c aa05 7a3d 1207 9e3d 2763 a63d
00000330: 8aac b93d 0037 1f3d 7535 08bd beef 563c
00000340: 399c 5dbc f323 dcbd 620f bdbd 23e3 3c3d
00000350: fdd4 37bd 5f0e aa3c 462d b0bb eb3f 24be
00000360: a3dc a7bd 0301 263d 24ae 0ebd 5d03 2cbd
00000370: cb59 abbc 75e5 253d dade fcbc 7c30 c13c
00000380: 9462 25bd 5a56 99bd 8d55 dabb da21 04bc
00000390: 905d f63c 96ab 4bbd 7cc6 f0bb 3719 403d
000003a0: bbfe 6f3c 6e6d ddbc 03c2 d8bc 8d9b 783d
000003b0: 9349 a73b 1c4f 0a3d 7747 dcbc f48c 183d
000003c0: 5f06 ecbc 8165 873c 8ad3 cabd 7ddc 3c3c
000003d0: 5885 fd3a 9a39 913d 9c44 6d3d ebe7 943d
000003e0: ec20 6dbd 6b8d 903c 15c0 183c 8de4 283d
000003f0: ac82 a93b 0052 07bc 995c 82bb 1917 ae3c
