models/deadlift_model.pth (torch, 78002 bytes, 13 tensors)

model.0.weight f4 [320, 19]
-0.12060045 0.39683682 0.24205054 0.26240227 0.41520372 0.49780762 -0.15503432 -0.1875989
0.19278708 -0.021363936 0.23090169 0.09771884 -0.5758832 -0.13343062 -0.18670309 0.16665204
0.40957776 -0.06500279 0.34528804 0.5242047 0.7377072 0.0629553 -0.12829232 0.36608678
0.14679356 -0.063050926 0.22221173 0.27012488 -0.010625165 -0.22857808 -0.011237806 -0.42809358
0.13204218 -0.018099817 0.063318826 0.5744076 -0.4062268 0.17394318 0.91806066 -0.3076186
0.014029069 0.032514162 -0.031116743 0.094575025 0.04286845 0.015658967 -0.12535506 -0.05309011
-0.052194685 -0.007411589 0.35702372 0.059350383 0.102054134 0.05653903 0.14378682 -0.3304993
1.0625046 -0.049764626 -0.07342245 -0.22930305 -0.49291888 -0.35890013 0.8354204 0.19645278
-0.012655024 -0.41860873 -0.26528594 -0.060597196 0.277053 0.5073044 -0.023604732 0.10631314
-0.17455636 -0.2923368 -0.04779639 0.49055958 0.7126637 0.36909863 -0.05397757 0.48446083
0.26356885 0.31017408 0.20002505 -0.07863481 -0.3076283 0.457501 0.2030067 0.25833526
-0.15955445 0.120872 0.079785146 0.123214476 0.30940738 0.16349162 -0.063437425 -0.6155685
0.51202416 -0.031808957 0.42300516 0.422652 -0.1039269 0.05296921 0.36484206 0.16811308
-0.032098763 -0.14515074 0.08788428 0.365959 -0.065098785 0.20532449 0.18407288 -0.38810492
0.24044523 -0.07385287 0.4023385 -0.43353307 -0.09647901 -0.39931282 0.19856194 -0.2502097
0.28351742 0.10259421 -0.25620282 0.045175847 -0.4596905 -0.09006167 -0.40533105 0.019030094
0.23943749 0.10059267 0.44227368 -0.6329221 -0.23141673 0.0018452593 -0.14945477 0.046180647
0.053235427 -0.050797366 0.021081835 -0.06886161 0.115555 0.6117153 0.12873289 -0.13877851
0.17710021 0.66299605 -0.044789042 0.04932291 0.12694046 -1.0881726 -0.05742537 0.04178894
0.73196363 -0.020682193 0.020709349 0.06309798 -0.13704407 0.10616283 0.14459679 -0.008927509
0.63973236 -0.09643368 -0.07532117 0.0025668056 0.14579375 -0.19021106 -0.033282164 -0.110888064
-0.65106153 -0.67758006 0.30086333 0.68082535 -0.58977836 0.25199097 0.10989198 0.31040332
0.14392434 -0.10375769 0.12897481 -0.22661191 0.120785184 0.14958164 -0.07075301 0.54311436
-0.018105628 0.1378336 0.030266901 -0.21193726 0.25891232 -0.32340443 0.19723983 -0.4551611
-0.07286403 0.31923583 -0.84163857 -0.07025705 0.08589706 -0.01800626 0.4869122 0.0079510715
-0.13838041 -0.0059925537 -0.004944437 0.03474049 -0.17978273 0.23470014 -0.31608748 -0.47152668
0.07567712 0.47843468 -0.049579825 -0.12611021 0.45485115 -0.7049478 -0.03802377 0.21380132
-0.06788023 0.26716837 -0.09248813 0.15313351 0.060934745 -0.392507 0.024673134 0.04449015
-0.10947993 -0.2295699 -0.5584593 0.31286868 -0.052216724 -0.15936571 -0.14229873 -0.5408339
0.08470845 0.54662293 -0.11704272 -0.15201427 0.01295077 -0.06557079 0.20221084 -0.29923695
-0.49860257 0.023913383 -0.111758895 0.31231433 0.28335163 -0.07725193 -0.8546193 -0.044244647
0.4235697 0.14256552 0.26473004 -0.37902367 0.051712554 -0.47407663 -0.585738 0.58314925
00000000: 5efd f6bd 322e cb3e 19dc 773e 9759 863e
00000010: 9595 d43e a4e0 fe3e 51c1 1ebe ed19 40be
00000020: fa69 453e 6c03 afbc 7e71 6c3e d120 c83d
00000030: 156d 13bf 09a2 08be 182f 3fbe d5a6 2a3e
00000040: 2db4 d13e 2f20 85bd 98c9 b03e 4732 063f
00000050: 61da 3c3f b5ee 803d 105f 03be ba6f bb3e
00000060: 0d51 163e d820 81bd 798b 633e cf4d 8a3e
00000070: 2c15 2ebc 5f10 6abe c61e 38bc 152f dbbe
00000080: 1136 073e 1146 94bc 4dad 813d 600c 133f
00000090: f6fc cfbe 291e 323e 0606 6b3f 2f80 9dbe
000000a0: 2eda 653c 922d 053d 8ae8 febc 8db0 c13d
000000b0: d496 2f3d 3c47 803c 145d 00be 0475 59bd
000000c0: 18ca 55bd eadc f2bb d0cb b63e 6319 733d
000000d0: c201 d13d 7895 673d da3c 133e 3437 a9be
000000e0: 2700 883f fed5 4bbd 825e 96bd 6bce 6abe
000000f0: dd5f fcbe c2c1 b7be 1dde 553f eb2a 493e
00000100: 0557 4fbc e253 d6be 8fd3 87be c434 78bd
00000110: e4d9 8d3e b3de 013f b65e c1bc b4ba d93d
00000120: e7be 32be 2bad 95be 26c6 43bd a02a fb3e
00000130: 2171 363f 7ffa bc3e 9617 5dbd 400b f83e
00000140: 7ff2 863e 23cf 9e3e 5ed3 4c3e 4a0b a1bd
00000150: 7581 9dbe 923d ea3e fde0 4f3e 8544 843e
00000160: 3e62 23be bd8b f73d 6566 a33d df57 fc3d
00000170: a56a 9e3e 596a 273e 7beb 81bd e695 1dbf
00000180: 0414 033f 1c4a 02bd 2294 d83e d865 d83e
00000190: a0d7 d4bd 3ef6 583d 94cc ba3e d625 2c3e
000001a0: fe79 03bd 65a2 14be acfc b33d fa5e bb3e
000001b0: 8352 85bd 9540 523e 9a7d 3c3e b0b5 c6be
000001c0: 4637 763e 2c40 97bd 50ff cd3e 0cf8 ddbe
000001d0: ca96 c5bd bb72 ccbe d253 4b3e 7c1b 80be
000001e0: 3229 913e ea1c d23d 042d 83be 4f0a 393d
000001f0: 8e5c ebbe 4172 b8bd 8d87 cfbe 00e5 9b3c
00000200: 1a2f 753e 8803 ce3d b271 e23e 2f07 22bf
00000210: 82f8 6cbe a1dc f13a ac0a 19be eb27 3d3d
00000220: 640d 5a3d e610 50bd d0b3 ac3c 5107 8dbd
00000230: 1aa8 ec3d 6099 1c3f 8ed2 033e f41b 0ebe
00000240: c259 353e 1cba 293f b774 37bd d206 4a3d
00000250: aefc 013e 3d49 8bbf dd36 6bbd e12a 2b3d
00000260: f861 3b3f b46d a9bc a7a6 a93c 8439 813d
00000270: 4855 0cbe e66b d93d 2e11 143e b044 12bc
00000280: 80c5 233f 057f c5bd fc41 9abd da37 283b
00000290: f54a 153e b0c6 42be e152 08bd 4819 e3bd
000002a0: f8ab 26bf e375 2dbf c20a 9a3e 924a 2e3f
000002b0: b7fb 16bf f604 813e 0c0f e13d 2fed 9e3e
000002c0: e760 133e e97e d4bd f911 043e f40c 68be
000002d0: 395e f73d ee2b 193e f4e6 90bd 8b09 0b3f
000002e0: 4152 94bc 4024 0d3e 4bf2 f73c 1506 59be
000002f0: 2890 843e 4495 a5be 3df9 493e e00a e9be
00000300: bd39 95bd e172 a33e a075 57bf eee2 8fbd
00000310: ccea af3d dd81 93bc 8e4c f93e 3645 023c
00000320: 98b3 0dbe 2f5d c4bb f204 a2bb 0b4c 0e3d
00000330: f718 38be 3c55 703e 38d6 a1be f26b f1be
00000340: 9bfc 9a3d 64f5 f43e 3714 4bbd 0923 01be
00000350: 40e2 e83e 7677 34bf d0be 1bbd bcee 5a3e
00000360: ca04 8bbd 4bca 883e 6b6a bdbd 08cf 1c3e
00000370: b696 793d adf6 c8be 501f ca3c 4e3b 363d
00000380: 0337 e0bd 5f14 6bbe 30f7 0ebf 5330 a03e
00000390: 34e1 55bd c430 23be c2b6 11be 1774 0abf
000003a0: a07b ad3d 7bef 0b3f 18b4 efbd a1a9 1bbe
000003b0: 772f 543c fa49 86bd 5c10 4f3e 9635 99be
000003c0: d648 ffbe 00e6 c33c d9e1 e4bd aae7 9f3e
000003d0: 7713 913e 4336 9ebd 55c8 5abf e039 35bd
000003e0: 21de d83e b2fc 113e b28a 873e 640f c2be
000003f0: 8bd0 533d 2cba f2be edf2 15bf 4549 153f

model.0.bias f4 [320]
0.00030343697 -0.00042425754 0.00015808322 0.00013001352 -4.9824364e-05 0.0004098977 0.00016923244 0.0004063634
-0.00011261905 5.7026242e-05 0.000331253 -0.00023299933 0.00020466172 -3.6787053e-05 0.00023173715 0.00044263183
-2.3183391e-05 -1.3108362e-05 -6.554257e-05 0.000609721 2.8680739e-05 3.956426e-05 -3.5533987e-05 -0.000107651606
0.0005799984 0.00032421193 8.863998e-05 0.00031732937 -8.0702994e-05 -0.001319246 8.373471e-05 -0.000519483
-1.5667738e-05 4.032056e-05 -0.00011011642 0.00038048325 -1.6873346e-05 2.378923e-05 0.00013604519 -3.7658803e-05
0.00014407729 0.0012927533 -0.00010569119 0.00011248599 -0.00020483162 2.4349123e-05 0.000147145 0.00026357837
-0.00026744025 -0.00011667325 5.343182e-05 0.00019294495 -0.00024885486 0.00042763128 -1.5972957e-05 -0.00018296414
0.000134591 0.00024399805 -8.678692e-05 -0.00024234367 0.00019519113 -8.993651e-05 -4.3047257e-05 0.0002546948
0.000113626345 -0.00011745754 0.00026585982 0.00018486477 3.529583e-05 2.6881862e-05 -0.00031230936 0.00023032117
0.0006058139 -0.00021714592 -0.00027374987 3.91336e-06 0.00031066922 0.0034200288 4.7787187e-05 -0.00024177978
-0.0013056016 -0.00044281897 -0.00015269284 0.000118392825 -3.1351843e-05 0.00028811756 -0.000366965 4.9664883e-05
-0.00022851865 0.0010589771 9.6584e-05 1.1624827e-05 -6.265957e-05 -0.006182078 -3.7347992e-05 0.000286012
0.00028427516 -0.0003133795 -8.1226564e-05 -0.00032968243 -0.00042736373 9.783147e-05 0.00069069286 4.248179e-05
0.00016454118 -7.752121e-05 0.00025165427 -4.1422758e-05 -0.00014172704 4.031319e-05 -0.00016702326 -8.873394e-05
-1.7176002e-05 -0.0002134686 3.1977062e-05 0.00036194356 -0.0004257373 -0.00045488874 -0.00014113025 -0.00032915553
-9.752988e-05 1.591778e-05 8.541958e-05 0.00032595528 6.530293e-05 -7.09898e-05 0.0004131008 -0.000487022
9.785695e-05 0.00021331914 7.654686e-06 3.809949e-05 0.00051754044 3.146792e-05 0.00015575666 0.0001114317
0.00032435465 -0.00020705041 -0.00016617001 0.000120116005 4.679749e-05 0.0003366894 -0.00018209111 -0.00026153983
0.00012550483 -0.00041889615 2.369429e-05 -0.00011793998 0.0004379233 -8.209619e-05 -0.00015773671 1.670621e-05
0.00060887745 0.00029162486 -0.0003864733 9.93962e-05 -0.00011489011 -3.927441e-05 0.00010361673 -0.0043634158
-5.461312e-06 -0.00011561404 -0.00027331215 0.00040869304 -0.00023690061 0.00033082493 0.00040173603 -8.253293e-06
0.00023957941 4.8850543e-05 -2.9810923e-05 -9.301395e-06 -0.00017759911 0.00013374706 -0.00054591073 4.803676e-05
-0.00021574374 -0.00013867964 -7.185357e-05 8.4027466e-05 -0.00014937272 -0.000115210314 0.00015493848 -0.0002908466
-0.000114386996 -0.0010159572 -0.00030497488 -0.0003953011 0.00075634464 2.8536124e-07 0.00027261855 0.00020805706
0.00045829924 -0.00021425982 -0.00024484028 -2.803832e-05 0.0005023988 0.00045818446 0.0003788743 -3.9801147e-05
0.0003092777 -0.000106174455 0.00044056558 0.0004595289 0.00015826928 -1.6928025e-05 6.98011e-05 -0.00037864427
-9.755568e-07 -0.00021402357 -0.00013872156 0.00016639808 -0.0007338795 0.00035069487 -9.645123e-05 0.0007076938
0.00044912554 0.0002017241 5.1105208e-06 0.00016948876 0.00033474926 -8.025977e-05 -0.00021091827 -0.00042022677
0.0005250821 -0.00027533504 -0.00028285244 -0.00016392037 -3.4028384e-05 -0.00018206096 3.1129122e-05 0.000286752
5.372276e-05 0.00019450141 0.00044518663 -0.00050121115 -0.0004936582 -0.00053330563 0.00014883143 -0.0001310071
0.0005464396 0.0010020456 0.00023093681 0.00011968041 2.7195907e-05 -2.157437e-05 2.6711623e-05 -4.5198933e-05
-4.4411863e-06 -5.7358884e-05 0.000112201946 -4.513176e-05 6.047054e-05 -9.370107e-06 -0.00036554766 -5.4869397e-06
00000000: 9f16 9f39 e26e deb9 24c3 2539 3d54 0839
00000010: 81fa 50b8 8ae7 d639 fd73 3139 2c0d d539
00000020: e42d ecb8 762f 6f38 06ac ad39 4851 74b9
00000030: 769a 5639 cc4b 1ab8 78fe 7239 0a11 e839
00000040: f479 c2b7 fceb 5bb7 e673 89b8 afd5 1f3a
00000050: 6b97 f037 cdf1 2538 540a 15b8 04c3 e1b8
00000060: 090b 183a fdfa a939 3ae4 b938 3a5f a639
00000070: 173f a9b8 8dea acba bb9a af38 ea2d 08ba
00000080: 366e 83b7 df1d 2938 4eee e6b8 997b c739
00000090: 3c8b 8db7 fc8e c737 5aa7 0e39 d5f3 1db8
000000a0: 7413 1739 9a71 a93a 87a6 ddb8 75e6 eb38
000000b0: 12c8 56b9 5841 cc37 ef4a 1a39 e430 8a39
000000c0: 3937 8cb9 79ae f4b8 fb1b 6038 4451 4a39
000000d0: bc78 82b9 b333 e039 aafd 85b7 10da 3fb9
000000e0: ff20 0d39 bad9 7f39 5f01 b6b8 a21d 7eb9
000000f0: 38ac 4c39 4c9c bcb8 a48d 34b8 8f88 8539
00000100: ae4a ee38 8953 f6b8 1a63 8b39 42d8 4139
00000110: 9c0a 1438 5c80 e137 74bd a3b9 5e82 7139
00000120: 7ccf 1e3a aab1 63b9 1686 8fb9 824f 8336
00000130: 51e1 a239 9022 603b 1a6f 4838 4486 7db9
00000140: b820 abba 282a e8b9 2c1c 20b9 aa49 f838
00000150: c97f 03b8 7c0e 9739 3565 c0b9 434f 5038
00000160: 829e 6fb9 60cd 8a3a 248d ca38 4008 4337
00000170: 1a68 83b8 0793 cabb 1aa6 1cb8 e1f3 9539
00000180: c40a 9539 164d a4b9 2e58 aab8 3ad9 acb9
00000190: ca0f e0b9 df2a cd38 9d0f 353a 7a2e 3238
000001a0: b088 2c39 e292 a2b8 77f0 8339 59bd 2db8
000001b0: 909c 14b9 f515 2938 f722 2fb9 ac16 bab8
000001c0: 2f15 90b7 8ad6 5fb9 1c1f 0638 3ec3 bd39
000001d0: 7e35 dfb9 227e eeb9 5dfc 13b9 8292 acb9
000001e0: f588 ccb8 2c87 8537 4a23 b338 fae4 aa39
000001f0: 3ef3 8838 5ce0 94b8 7395 d839 fc56 ffb9
00000200: 8d38 cd38 6cae 5f39 a06c 0037 04cd 1f38
00000210: 8dab 073a 6cfc 0338 9c52 2339 70b0 e938
00000220: 250e aa39 ac1b 59b9 ec3d 2eb9 cae6 fb38
00000230: 6c48 4438 b085 b039 b6ef 3eb9 481f 89b9
00000240: f299 0339 4a9f dbb9 1ac3 c637 8b56 f7b8
00000250: 1299 e539 0e2b acb8 2066 25b9 5024 8c37
00000260: 139d 1f3a 3ae5 9839 919f cab9 ee72 d038
00000270: 28f1 f0b8 94ba 24b8 cf4c d938 fcfa 8ebb
00000280: 5040 b7b6 d175 f2b8 564b 8fb9 da45 d639
00000290: 8668 78b9 9272 ad39 19a0 d239 a077 0ab7
000002a0: 9c37 7b39 dfe4 4c38 7812 fab7 300d 1cb7
000002b0: e639 3ab9 743e 0c39 731b 0fba 147b 4938
000002c0: 4539 62b9 886a 11b9 17b0 96b8 e737 b038
000002d0: efa0 1cb9 119d f1b8 fb76 2239 c57c 98b9
000002e0: 0de3 efb8 de29 85ba 09e5 9fb9 6a40 cfb9
000002f0: 6e45 463a c033 9934 3eee 8e39 e429 5a39
00000300: e247 f039 efaa 60b9 e85d 80b9 d533 ebb7
00000310: 6ab3 033a 7a38 f039 a6a3 c639 28f0 26b8
00000320: 8d26 a239 faa9 deb8 b6fb e639 edec f039
00000330: 16f5 2539 a800 8eb7 2e62 9238 c684 c6b9
00000340: e0ef 82b5 846b 60b9 c975 11b9 257b 2e39
00000350: d261 40ba 78dd b739 dc45 cab8 8784 393a
00000360: 9c78 eb39 e785 5339 0a7b ab36 cbb8 3139
00000370: 4981 af39 2351 a8b8 f129 5db9 e251 dcb9
00000380: aaa5 093a d85a 90b9 d04b 94b9 0ae2 2bb9
00000390: b3b9 0eb8 9ee7 3eb9 a490 0238 3457 9639
000003a0: 6054 6138 13f3 4b39 f067 e939 b663 03ba
000003b0: d768 01ba 89cd 0bba a20f 1c39 f35e 09b9
000003c0: f13e 0f3a 1257 833a a127 7239 eefc fa38
000003d0: c422 e437 9bfa b4b7 c612 e037 fc93 3db8
000003e0: 8005 95b6 a294 70b8 f64d eb38 dc4b 3db8
000003f0: bfa1 7d38 4e34 1db7 faa6 bfb9 741c b8b6

model.1.weight f4 [320]
0.5989754 0.59954834 0.39967453 0.60318613 0.32092378 0.776459 0.6918237 0.67748106
0.56777316 0.6873455 0.53804183 0.3293659 0.6038022 0.6532495 0.58131677 0.5225213
0.8149194 0.5212916 0.7371097 0.56675524 0.4937321 0.92564464 0.5336622 0.56236815
0.50539285 0.93666315 0.6484083 0.58674055 0.31673637 1.0900515 0.66248024 0.7145069
0.7600114 0.45524922 0.81912214 0.5767531 0.745701 0.66384816 0.78449225 0.4136325
0.4643686 1.0556788 0.73105264 0.43037257 0.4408517 0.6453574 0.5689286 0.74492556
0.8163813 0.79563063 0.37186718 0.6022366 0.48654547 0.48890316 0.57792157 0.8324404
0.80880857 0.57247573 0.6591757 0.665064 0.574171 0.7879695 0.801403 0.6860974
0.5615712 0.421339 0.41487038 0.6479695 0.8230084 0.6057019 0.47223285 0.7024936
0.7254103 0.6087952 0.49371558 0.7530015 0.7708672 0.98793566 0.7168452 0.60197616
0.98509747 0.9014515 0.34145528 0.75744134 0.49193454 0.5309029 0.9291621 0.7259068
0.30178052 0.6552795 0.53295535 0.5793308 0.8678126 1.1839042 0.2873091 0.5386631
0.6592643 0.5483467 0.877685 0.48097467 0.4454773 0.4278776 0.3456082 0.5460099
0.7831327 0.556471 0.9873978 0.79978335 1.0433117 0.28696504 0.69361866 0.88979715
0.44354776 0.8482509 0.84876573 0.23613466 0.8215881 0.6708692 0.6006002 0.6974962
0.5563291 0.78662103 0.6203983 0.8465295 0.5533323 0.6696391 0.7192569 0.7697309
0.7946663 0.96800166 0.82291806 0.81427455 0.61320543 0.7046847 0.6583703 0.43872857
0.3568605 0.806889 0.93445134 0.82891715 0.6123107 0.888713 0.8937128 0.52065456
0.5333233 0.5242473 0.7609372 0.56415254 0.8339412 0.5060122 0.594685 1.0246196
0.7013458 0.6323126 0.77635753 0.6650689 0.9140879 0.8762324 0.8302864 1.1940348
0.5069017 0.6307091 0.7546233 0.934765 0.4267137 0.25045058 0.98602295 0.69034284
0.68923414 0.921709 0.58123577 0.72464055 0.6135195 0.81510335 0.7119501 0.5090232
0.65797275 0.5753128 0.7139877 0.44636568 0.56754196 0.49623555 0.90177876 0.64598185
0.7980122 0.78517187 0.3756438 0.4077524 1.1466086 0.52537805 0.62808555 0.95156896
0.79617584 0.74221414 0.7853821 0.54112047 0.79778904 0.742071 0.27923247 0.21621759
0.9496064 0.37791917 0.48909414 0.54998004 0.48867118 0.7431779 0.7150307 0.5266798
0.5371528 0.627125 0.3092235 0.6906447 0.5672815 0.61206204 0.3418643 0.57379717
0.63587993 0.80365646 0.7647471 0.8136624 1.2016422 0.3646948 0.7576145 0.7198741
0.567605 0.6506448 0.2251288 0.61787313 0.6692907 0.9266167 0.6179391 0.8156536
0.865381 0.65179366 0.2556704 0.9919426 0.53790224 0.8684405 0.7681695 0.8261023
0.8225477 0.6691991 0.49569353 0.6959328 0.62930655 0.45603475 0.35961735 0.33140856
0.2692265 0.2278267 0.34796673 0.5805522 0.7373403 0.43956643 0.7243716 0.87677896
00000000: 7456 193f 007c 193f 24a2 cc3e 686a 1a3f
00000010: 1f50 a43e 04c6 463f 5c1b 313f 666f 2d3f
00000020: 9559 113f e0f5 2f3f 1cbd 093f a6a2 a83e
00000030: c892 1a3f 5c3b 273f 2dd1 143f f5c3 053f
00000040: 8f9e 503f 5e73 053f 39b3 3c3f df16 113f
00000050: 74ca fc3e 0cf7 6c3f 169e 083f 5cf7 0f3f
00000060: 6d61 013f 28c9 6f3f 16fe 253f a134 163f
00000070: 452b a23e cf86 8b3f 4e98 293f ede9 363f
00000080: 1b90 423f 6d16 e93e fdb1 513f 17a6 133f
00000090: 43e6 3e3f f4f1 293f 7cd4 483f a4c7 d33e
000000a0: b9c1 ed3e 7c20 873f 4426 3b3f cb59 dc3e
000000b0: 50b7 e13e 2436 253f 4ea5 113f 71b3 3e3f
000000c0: 5dfe 503f 73ae 4b3f 6065 be3e 2e2c 1a3f
000000d0: 7d1c f93e 8451 fa3e abf2 133f d01a 553f
000000e0: 140e 4f3f c58d 123f bdbf 283f a241 2a3f
000000f0: dffc 123f 5fb8 493f bf28 4d3f 14a4 2f3f
00000100: 21c3 0f3f bfb9 d73e e469 d43e 54e1 253f
00000110: aeb0 523f 480f 1b3f 81c8 f13e 9fd6 333f
00000120: 7db4 393f 01da 1b3f 4ac8 fc3e b5c4 403f
00000130: 8e57 453f 5ae9 7c3f 2b83 373f 1c1b 1a3f
00000140: 592f 7c3f 87c5 663f 3ad3 ae3e ade7 413f
00000150: d8de fb3e 41e9 073f 91dd 6d3f 07d5 393f
00000160: fa82 9a3e 66c0 273f c36f 083f 064f 143f
00000170: f728 5e3f 2c8a 973f 2e1a 933e d3e5 093f
00000180: 8cc5 283f 7360 0c3f f7af 603f 5042 f63e
00000190: 9a15 e43e c612 db3e 8ff3 b03e 4ec7 0b3f
000001a0: 627b 483f e274 0e3f 1ac6 7c3f 9abe 4c3f
000001b0: 3d8b 853f 15ed 923e fe90 313f bfc9 633f
000001c0: b118 e33e f926 593f b648 593f 49cd 713e
000001d0: 9953 523f 15be 2b3f efc0 193f 1c8f 323f
000001e0: 956b 0e3f ff5f 493f 6cd2 1e3f 28b6 583f
000001f0: 30a7 0d3f 786d 2b3f 3821 383f 160d 453f
00000200: 406f 4b3f f5ce 773f c2aa 523f 4c74 503f
00000210: 08fb 1c3f 3766 343f f58a 283f 08a1 e03e
00000220: 6bb6 b63e 4790 4e3f 3438 6f3f ea33 543f
00000230: 65c0 1c3f b282 633f 5dca 643f 9e49 053f
00000240: e087 083f 1235 063f c8cc 423f 4d6c 103f
00000250: 2c7d 553f 048a 013f 473d 183f bc26 833f
00000260: 668b 333f 3ddf 213f 5ebf 463f f541 2a3f
00000270: aa01 6a3f c450 603f a68d 543f 22d6 983f
00000280: 4fc4 013f 2776 213f fe2e 413f c24c 6f3f
00000290: 387a da3e 0f3b 803e 006c 7c3f 4fba 303f
000002a0: a671 303f 1ff5 6b3f decb 143f 0b82 393f
000002b0: 9d0f 1d3f 9daa 503f 5d42 363f 584f 023f
000002c0: e770 283f b347 133f e6c7 363f 0b8a e43e
000002d0: 6e4a 113f 9612 fe3e f9da 663f 115f 253f
000002e0: 874a 4c3f 0601 493f 6254 c03e ecc4 d03e
000002f0: 12c4 923f 2d7f 063f 37ca 203f 069a 733f
00000300: 2ed2 4b3f bf01 3e3f cd0e 493f df86 0a3f
00000310: e73b 4c3f 5df8 3d3f 8ff7 8e3e 2568 5d3e
00000320: 6819 733f 9f7e c13e 8c6a fa3e 7ecb 0c3f
00000330: 1c33 fa3e e840 3e3f 410c 373f 7dd4 063f
00000340: d982 093f 448b 203f 8b52 9e3e 17ce 303f
00000350: 5c39 113f 19b0 1c3f d608 af3e 5fe4 123f
00000360: 07c9 223f 6ebc 4d3f 77c6 433f 2e4c 503f
00000370: 69cf 993f 47b9 ba3e 06f3 413f ab49 383f
00000380: 904e 113f a890 263f 2a88 663e ef2c 1e3f
00000390: a356 2b3f c136 6d3f 4231 1e3f adce 503f
000003a0: 9c89 5d3f f3db 263f 3be7 823e f3ef 7d3f
000003b0: f6b3 093f 1e52 5e3f c2a6 443f 717b 533f
000003c0: 7c92 523f a250 2b3f 8bcb fd3e a728 323f
000003d0: 3c1a 213f 637d e93e c41f b83e 62ae a93e
000003e0: 0ed8 893e 674b 693e b228 b23e 129f 143f
000003f0: 55c2 3c3f da0e e13e 6b70 393f 9674 603f

model.1.bias f4 [320]
-0.83595717 -0.57413733 -0.069055505 -0.5680146 -0.15409933 -1.2585775 -0.53355545 -0.90639675
-0.50996774 -0.37617972 -0.325943 -0.16386487 -0.42002738 -0.9042295 -0.51067466 -0.095281675
-0.2975112 -0.41096115 -1.7128775 -0.47746357 -0.07080368 -1.8080448 -0.49756005 -0.39079684
-0.05613633 -1.0420728 -0.8213809 -0.26833442 -0.066228054 -0.53147095 -0.6154947 -0.5562631
-0.5970202 -0.27586886 -1.0479234 -0.32590196 -0.6906232 -0.90070707 -0.634037 -0.28618672
-0.32649726 -0.6165819 -1.0273974 -0.23813385 -0.20626733 -0.46710184 -0.32664073 -0.7278506
-0.71773005 -0.5932612 -0.026835095 -0.41249555 -0.1739962 -0.2528247 -0.4692362 -1.2823519
-1.1823401 -0.5568813 -0.43341964 -0.73848206 -0.7116286 -0.43407065 -0.2630813 -0.5088711
-0.5758222 -0.31399333 -0.23729193 -0.24893385 -0.7424828 -0.40454486 -0.09420579 -0.5749953
-0.4107146 -0.48726997 -0.3423294 -0.8849967 -0.5791176 -1.13107 -0.66848123 -0.6454151
-0.9471324 -0.377938 -0.035071805 -0.6203099 -0.34364426 -0.2993172 -0.7040864 -0.8601106
-0.16545558 -0.27915555 -0.3552848 -0.42457122 -0.83838844 -1.340445 -0.0147943515 -0.45442975
-0.46980572 -0.30948794 -0.9056369 -0.31557593 -0.28698963 -0.5217301 0.008828863 -0.14276011
-1.4889919 -0.5044114 -1.5269692 -0.53973573 -1.7123693 -0.0673572 -0.7228628 -1.0126871
-0.30641916 -1.0599986 -0.9348917 0.031105096 -0.82431364 -0.29902798 -0.45298204 -0.35405123
-0.48766696 -1.6393113 -0.50356627 -0.9792576 -0.5909228 -0.32684413 -0.6786039 -0.62176555
-0.90825635 -0.8839343 -1.0484779 -2.0239456 -0.37373358 -1.5768591 -0.4442093 -0.112799376
-0.10922953 -1.2056078 -2.6739469 -0.7026724 -0.3854527 -0.73453593 -0.53656113 -0.5347066
-0.3554842 -0.40342706 -1.3753134 -0.8387433 -0.73812294 -0.25033754 -0.7748138 -0.70743686
-0.82306045 -0.8021068 -1.2362651 -0.77556205 -0.66104805 -1.2065104 -0.39985374 -1.357535
-0.31929517 -0.67313516 -0.82882404 -0.7794287 -0.13822103 0.0471563 -1.0220426 -1.0233012
-1.0207065 -1.65412 -0.41361773 -1.1153951 -0.55247116 -0.84577024 -0.8877025 -0.29199755
-1.3009917 -0.7819789 -1.1401069 -0.39199632 -0.39403388 -0.25767183 -0.8891762 -0.3355274
-1.1678444 -0.4744517 -0.14395277 -0.07985978 -0.6653581 -0.44891652 -0.6148948 -0.78435665
-0.89658105 -0.45994562 -1.2718332 -0.49359524 -0.87647504 -0.5693398 -0.10940075 -0.09457766
-0.9351934 -0.28137532 -0.10227961 -0.3187641 -0.4143875 -0.3732892 -0.7411349 -0.2793912
-0.32360956 -0.4209356 -0.028309505 -0.97937864 -0.58946633 -0.38387865 -0.27182975 -0.30237582
-0.617658 -0.615053 -0.45724705 -0.89343965 -0.630351 -0.18773282 -0.9365846 -0.31943765
-0.35674742 -0.74480283 0.0505855 -0.6962808 -0.63148606 -0.50707144 -0.45011106 -0.65229356
-2.1384625 -0.35689044 0.04486189 -1.250535 -0.3440751 -1.3247226 -0.49020666 -0.6946631
-1.1336489 -0.14730725 -0.41873252 -0.9623685 -0.2487405 -0.14784588 -0.17469494 -0.053498924
-0.08383283 0.022895884 -0.2137441 -0.40306008 -0.34514517 -0.2683118 -0.5862589 -1.1900942
00000000: 4a01 56bf aafa 12bf f96c 8dbd 6869 11bf
00000010: 37cc 1dbe 1119 a1bf 1797 08bf 9e09 68bf
00000020: 3f8d 02bf a19a c0be 00e2 a6be 31cc 27be
00000030: d40d d7be 967b 67bf 93bb 02bf 0a23 c3bd
00000040: 6353 98be 8069 d2be 923f dbbf 1b76 f4be
00000050: 8501 91bd 036e e7bf 31c0 febe 8616 c8be
00000060: 35ef 65bd a462 85bf 0546 52bf 2163 89be
00000070: 93a2 87bd 7b0e 08bf 1091 1dbf 4267 0ebf
00000080: 51d6 18bf af3e 8dbe 5b22 86bf 9fdc a6be
00000090: afcc 30bf bd94 66bf 4050 22bf 1187 92be
000000a0: a62a a7be 50d8 1dbf c281 83bf 5cd9 73be
000000b0: be37 53be f927 efbe 743d a7be 6b54 3abf
000000c0: 28bd 37bf f7df 17bf 46d5 dbbc 9e32 d3be
000000d0: 0f2c 32be 3d72 81be ba3f f0be 1b24 a4bf
000000e0: ec56 97bf c68f 0ebf 2ee9 ddbe 290d 3dbf
000000f0: 4b2d 36bf 823e debe 98b2 86be 6045 02bf
00000100: 1569 13bf bcc3 a0be a8fc 72be 84e8 7ebe
00000110: 5a13 3ebf 8120 cfbe f7ee c0bd e432 13bf
00000120: 2f49 d2be 737b f9be cd45 afbe 258f 62bf
00000130: 0d41 14bf e7c6 90bf 9621 2bbf ed39 25bf
00000140: 4577 72bf 1781 c1be 74a7 0fbd a1cc 1ebf
00000150: 24f2 afbe 1b40 99be 023f 34bf 3530 5cbf
00000160: 306d 29be 7aed 8ebe e4e7 b5be 6661 d9be
00000170: a0a0 56bf b493 abbf 0264 72bc 04ab e8be
00000180: 608a f0be 3475 9ebe d2d7 67bf 2b93 a1be
00000190: 4ef0 92be 1b90 05bf efa6 103c b52f 12be
000001a0: 4997 bebf 1b21 01bf ba73 c3bf 1f2c 0abf
000001b0: eb2e dbbf 92f2 89bd 890d 39bf bb9f 81bf
000001c0: f9e2 9cbe 09ae 87bf 1055 6fbf 1dd0 fe3c
000001d0: 3806 53bf 321a 99be 43ed e7be 3446 b5be
000001e0: 7caf f9be f4d4 d1bf b8e9 00bf a0b0 7abf
000001f0: b746 17bf 1d58 a7be fcb8 2dbf 072c 1fbf
00000200: 7d83 68bf 8549 62bf 8634 86bf 5388 01c0
00000210: 025a bfbe 85d6 c9bf 676f e3be 5c03 e7bd
00000220: bbb3 dfbd 5b51 9abf f221 2bc0 57e2 33bf
00000230: 0e5a c5be 8c0a 3cbf 125c 09bf 88e2 08bf
00000240: 0602 b6be fe8d cebe 450a b0bf e2b7 56bf
00000250: a0f5 3cbf 3e2c 80be 325a 46bf 951a 35bf
00000260: 17b4 52bf df56 4dbf ef3d 9ebf 3c8b 46bf
00000270: 723a 29bf ef6e 9abf a1b9 ccbe b5c3 adbf
00000280: a87a a3be 9652 2cbf d02d 54bf a488 47bf
00000290: d089 0dbe f726 413d 4bd2 82bf 89fb 82bf
000002a0: 83a6 82bf 34ba d3bf b4c5 d3be 44c5 8ebf
000002b0: c06e 0dbf 6684 58bf 7940 63bf b480 95be
000002c0: e586 a6bf c52f 48bf 06ef 91bf beb3 c8be
000002d0: cfbe c9be 90ed 83be 0da1 63bf 3fca abbe
000002e0: ed7b 95bf 55eb f2be 5b68 13be 868d a3bd
000002f0: e954 2abf 63d8 e5be bf69 1dbf 99cb 48bf
00000300: 5686 65bf fe7d ebbe 6ecb a2bf 84b8 fcbe
00000310: ab60 60bf 41c0 11bf 800d e0bd efb1 c1bd
00000320: d668 6fbf 6d10 90be f977 d1bd 0c35 a3be
00000330: 992a d4be c31f bfbe 04bb 3dbf 5d0c 8fbe
00000340: 27b0 a5be df84 d7be 56e9 e7bc 8fb8 7abf
00000350: 44e7 16bf be8b c4be 452d 8bbe 01d1 9abe
00000360: d61e 1ebf 1d74 1dbf 491c eabe 76b8 64bf
00000370: af5e 21bf 083d 40be 02c4 6fbf 558d a3be
00000380: 99a7 b6be 66ab 3ebf be32 4f3d 753f 32bf
00000390: 12a9 21bf 6fcf 01bf f574 e6be b6fc 26bf
000003a0: 92dc 08c0 58ba b6be 1ac1 373d 8811 a0bf
000003b0: 9d2a b0be 8390 a9bf 5efc fabe 71d5 31bf
000003c0: 681b 91bf b6d7 16be 1c64 d6be c85d 76bf
000003d0: d4b5 7ebe e964 17be 3be3 32be b021 5bbd
000003e0: 8cb0 abbd 2690 bb3c bcdf 5abe e45d cebe
000003f0: deb6 b0be 2a60 89be 1015 16bf 0255 98bf

model.1.running_mean f4 [320]
0.0006618988 -0.002395181 0.0005311614 0.00025434312 -0.0017423643 -0.0004362946 -0.001326092 0.0012323334
-1.250725e-05 -0.0015908969 0.0024288346 0.0012616034 -0.0013436638 0.0021233028 -3.877056e-05 -0.0013733688
-0.0017638273 -0.00057955965 -0.000651 -0.0006229881 -0.002196064 -5.660353e-05 -5.4755215e-05 0.0012581472
-0.0011408988 0.00032237818 0.0013444698 0.0002003616 -0.0012995845 -0.0006488939 -7.407093e-05 0.0003182542
-0.0020822857 -0.00084369356 0.002099889 0.00084360986 0.0011310136 -0.0016699992 -0.0020732475 -0.00069630484
-0.00017542306 -0.0003942436 0.0018765351 0.0031381417 -0.0009594193 0.0020280473 0.0026840407 0.00034938086
-0.0007799639 0.0016575889 -0.0007709868 -0.00022419813 -0.001525763 0.0033681192 0.0003478635 0.003492313
-0.0007856552 0.0015762903 -0.0020716013 0.0003075934 -0.00041926265 0.00029336967 -0.0013123882 -0.0018091743
0.00038681042 0.001933623 0.0002456135 0.0017534724 0.0011266837 -0.0003154787 -0.0016965489 0.0009176765
-0.001796557 2.3294202e-05 0.00091839343 0.00093487656 0.00028654272 -0.0039982316 -0.0006348155 -0.0006767596
-0.0016081969 -0.00119175 -0.0009465502 -0.00012919476 -0.00030241036 6.973369e-05 -0.00013474577 -0.0008027576
0.0024027464 -0.0011334553 0.00052047207 -0.0010809981 0.0005353605 -0.006820905 -0.0012263898 -0.0011032468
0.00012862148 0.0005955803 0.0015923334 0.000983453 0.0005535668 -0.001599266 -0.0021396212 -0.0011154306
0.00080515735 0.0010050257 0.001190582 -0.00020645298 0.0007615165 0.0015662513 0.0006033808 0.0015894746
0.002007496 0.0017771985 0.0028899196 -0.0033016922 0.00047050303 -0.0011100605 -0.0005692628 0.000523727
-0.00044166791 -0.0020362348 0.00022840165 -0.00082092034 -0.0007434128 -0.00018290088 0.0012847149 -0.0025163013
-0.0019402859 0.0019926347 -0.0003124779 0.0007541123 -0.00048629157 0.0006374218 -0.00088008563 -0.0010912314
-0.0007105282 0.0012171204 0.00077213015 -0.00024220298 0.0005781105 -0.0006902647 4.525497e-05 -0.001554574
0.00044483694 -0.003361732 0.0020504554 -0.00042565243 0.00095221866 -0.0022178357 -0.0009878204 0.0004698864
0.0024084437 -0.0012247781 0.00055688736 0.00095640507 0.0002682693 -0.0018062111 -0.0023676672 -0.005558924
-0.00059449836 1.7023727e-05 -0.0013087991 0.001829371 -0.0019537557 -0.0034300785 0.0021172576 0.0005189743
-0.0010117657 -0.00015015443 0.0019501012 -0.00045345514 -0.0006155696 0.0022624077 0.00131766 -0.0022004866
0.00014202832 -0.00074268243 0.0015458688 0.00037038387 0.0029435358 0.0020856827 0.0023917507 0.00029687487
0.00087476213 0.0006220947 0.0007479749 -0.0032097178 -0.0023378565 -0.0018704078 0.0005898591 0.001811166
0.0018788719 -8.5307714e-05 0.0011452009 0.00018158068 0.00030170727 -0.0020531407 0.0016649014 0.0017807594
0.0006391162 0.0019750341 -0.00023052216 0.0013992031 -0.001963434 -0.002368338 -0.00021875858 0.003713813
0.000507569 0.00022621467 -0.0026607949 9.21588e-06 0.00096356455 -0.0019357679 -3.1813284e-05 -0.0015754742
-0.00072300056 0.0048419083 0.0005483441 0.0012418712 -0.0015803542 -0.0021647753 -0.0010283326 -0.0014644725
0.0006173668 0.0018610886 -0.002634349 -0.0005998949 0.0025409358 0.00025236706 -0.001232481 -0.0020042383
-0.00013272003 -0.0025011157 -0.0022417703 0.0018162624 -0.0013471228 0.00028873023 0.00067426526 0.0014940692
0.0007428602 -0.0022152741 0.00052539806 -0.0019590212 -0.0007351651 -0.0012173674 0.001083135 -0.002031417
0.0022368275 -0.0021223335 0.0014048505 -0.00083800365 -0.0012395516 -0.0012577375 -0.00023283133 -0.0012442596
00000000: 4783 2d3a 78f8 1cbb a33d 0b3a 5b59 8539
00000010: 0b60 e4ba 78be e4b9 44d0 adba 3f86 a13a
00000020: 3bd6 51b7 a485 d0ba 152d 1f3b 635c a53a
00000030: e01d b0ba 1c27 0b3b 929d 22b8 9c02 b4ba
00000040: 3930 e7ba 97ed 17ba dfa7 2aba 0650 23ba
00000050: d7eb 0fbb 9469 6db8 f7a8 65b8 6ae8 a43a
00000060: 368a 95ba de04 a939 ec38 b03a 2818 5239
00000070: d256 aaba 881a 2aba 8756 9bb8 5bdb a639
00000080: f576 08bb 512b 5dba 4b9e 093b b325 5d3a
00000090: 853e 943a e0e3 daba 52df 07bb 3a88 36ba
000000a0: c5f1 37b9 7bb2 ceb9 12f6 f53a 48a9 4d3b
000000b0: 8a81 7bba fde8 043b bbe6 2f3b 1b2d b739
000000c0: 7e76 4cba 7443 d93a 0c1c 4aba ba16 6bb9
000000d0: 1cfc c7ba aabb 5c3b 7361 b639 4adf 643b
000000e0: 6ef4 4dba 879b ce3a b4c3 07bb 7d44 a139
000000f0: 7bd0 dbb9 69cf 9939 7104 acba d121 edba
00000100: d1cc ca39 9f71 fd3a b0c5 8039 c5d4 e53a
00000110: 3bad 933a d666 a5b9 bc5e deba 3a90 703a
00000120: 737a ebba eb67 c337 57c0 703a 8112 753a
00000130: 1d3b 9639 9903 83bb bf69 26ba 9168 31ba
00000140: 22ca d2ba 7f34 9cba e921 78ba 7478 07b9
00000150: d58c 9eb9 fd3d 9238 8b4a 0db9 2770 52ba
00000160: 6577 1d3b 7390 94ba 4a70 083a 47b0 8dba
00000170: 6f57 0c3a e681 dfbb d0be a0ba d29a 90ba
00000180: 91de 0639 b820 1c3a d8b5 d03a 35e7 803a
00000190: 3d1d 113a 769e d1ba e338 0cbb a433 92ba
000001a0: 3211 533a 11bb 833a 4e0d 9c3a 4d7b 58b9
000001b0: 82a0 473a ac4a cd3a 332c 1e3a eb55 d03a
000001c0: 3290 033b e3f0 e83a ce64 3d3b 3461 58bb
000001d0: d9ad f639 737f 91ba 943a 15ba b94a 093a
000001e0: aa8f e7b9 5a72 05bb 1a7f 6f39 0833 57ba
000001f0: 97e1 42ba 15c9 3fb9 e163 a83a 88e8 24bb
00000200: 3151 feba dd96 023b 13d4 a3b9 9faf 453a
00000210: f3f4 feb9 a718 273a 8cb5 66ba a607 8fba
00000220: be42 3aba c987 9f3a c768 4a3a def7 7db9
00000230: 578c 173a e1f2 34ba 27d0 3d38 d9c2 cbba
00000240: 0139 e939 8150 5cbb ef60 063b 1a2a dfb9
00000250: 509e 793a 1c59 11bb c179 81ba 165b f639
00000260: fbd6 1d3b bc88 a0ba 14fc 113a 42b7 7a3a
00000270: 7fa6 8c39 63be ecba dd2a 1bbb a227 b6bb
00000280: 1cd8 1bba 2dce 8e37 038c abba 81c7 ef3a
00000290: 950a 00bb 2bcb 60bb b0c1 0a3b c70b 083a
000002a0: 399d 84ba c672 1db9 8a9a ff3a b8bd edb9
000002b0: 2d5e 21ba e744 143b 55b5 ac3a 0a36 10bb
000002c0: 70ed 1439 93b0 42ba c09e ca3a 1530 c239
000002d0: 56e8 403b f3af 083b ebbe 1c3b dfa5 9b39
000002e0: 4b50 653a 1214 233a bf13 443a 215a 52bb
000002f0: b936 19bb 7928 f5ba c6a0 1a3a a564 ed3a
00000300: 7b44 f63a 3be7 b2b8 911a 963a b166 3e39
00000310: 772e 9e39 fc8d 06bb d238 da3a 5f68 e93a
00000320: 5d8a 273a 936f 013b 52b8 71b9 7765 b73a
00000330: f5ac 00bb 1e36 1bbb 8f62 65b9 7163 733b
00000340: 610e 053a 0a34 6d39 bb60 2ebb e79d 1a37
00000350: b997 7c3a 98b9 fdba 416f 05b8 2480 ceba
00000360: bf87 3dba dfa8 9e3b c0be 0f3a 48c6 a23a
00000370: e323 cfba e7de 0dbb 1ec9 86ba 8bf3 bfba
00000380: c9d6 213a c5ef f33a 0ba5 2cbb 4442 1dba
00000390: d485 263b 2250 8439 338b a1ba 8a59 03bb
000003a0: c32a 0bb9 c2e9 23bb aaea 12bb a70f ee3a
000003b0: f191 b0ba b760 9739 2dc1 303a a5d4 c33a
000003c0: 81bc 423a 222e 11bb deba 093a ec62 00bb
000003d0: 18b8 40ba 1290 9fba fbf7 8d3a 8621 05bb
000003e0: bd97 123b d916 0bbb f622 b83a 79ad 5bba
000003f0: 7378 a2ba abda a4ba 2f24 74b9 6d16 a3ba

model.1.running_var f4 [320]
1.0848929 2.4059262 2.408987 1.4290831 2.638973 1.1334991 1.7621431 0.26717624
1.105825 1.4512625 1.3175633 1.5367036 1.8488977 1.5005709 2.0082357 2.273777
4.149071 1.1738768 1.3336338 1.6978167 2.0851464 2.850621 1.1825129 1.0877635
0.96266526 1.0427274 1.4187845 1.2665603 3.9690704 2.0505443 1.8462749 1.1789225
1.1240797 2.8953745 1.614911 0.32906154 0.9793068 1.4612138 1.2334006 1.6916968
1.859367 1.1510221 2.8993185 1.542872 1.3560177 1.4412489 1.889661 1.6391168
2.3803039 1.7202986 2.327895 1.5655491 2.7218866 1.8294828 2.125951 2.9259503
1.4755567 2.845797 1.4024336 1.1344854 1.9956787 2.9736602 1.4150567 1.6288307
0.94410384 1.6632301 1.3470553 2.720305 3.553988 2.4307117 1.1436296 1.5892936
2.0666203 1.8586673 1.1650152 1.6203808 3.276382 7.258206 1.299607 1.2737719
2.8631718 4.6677184 0.45391104 1.3249974 2.7309866 4.001365 1.629806 1.6069436
1.389211 1.4174228 1.5899324 1.5040501 4.114105 6.640463 1.0640416 1.7777371
1.0234312 1.3739133 1.404281 2.140784 0.3257472 2.1367872 1.7522135 2.62236
1.8685617 1.2970103 0.954399 4.5296702 1.016279 1.0470929 1.0679688 4.2151885
1.8924477 1.3115058 3.4511697 1.5611916 1.3373075 2.0894446 1.7074175 1.9090312
1.9614638 1.0816901 1.3211334 1.614094 1.8542342 1.2298316 2.587362 1.2038527
2.1113446 2.8489928 1.0236773 1.0450006 1.3956317 0.46924195 1.7831031 0.5154414
0.9975716 0.8350581 0.8564098 4.412619 2.9671798 1.3334999 1.5775269 1.1239334
1.4554248 1.3183097 2.0136445 1.7207544 1.5274137 2.1778417 1.7146045 3.9106908
0.9879753 0.91864836 0.71605843 0.54501927 3.2776384 1.7948127 1.3754032 6.300916
1.578416 1.3542601 1.6814833 2.9068744 1.0789086 1.2701527 2.2201653 1.0694561
1.4247571 0.6208188 1.2688891 1.1099092 1.0519346 3.1551943 1.3144426 2.285245
1.4221905 2.1345303 1.0163163 1.400084 1.9525723 1.1150625 1.6614839 0.8074845
0.5772268 2.3902152 0.9259188 2.196907 5.0656686 1.3881972 2.3578455 2.892125
1.3810085 1.881085 0.49869716 1.8201689 0.2939628 1.8037876 0.93265045 1.4896426
2.6012042 1.4913884 0.9267768 2.4845712 2.4023387 2.5550041 2.2892034 1.9395802
2.6599982 1.3589556 2.0108938 0.9162501 0.4886746 1.6364448 1.1764346 1.4346323
1.0991087 2.8283951 2.2070343 1.2319499 4.4786053 1.8402325 1.0589714 2.4253645
2.255846 0.98596317 1.2041475 0.88094604 1.457689 1.8264174 1.4730452 0.9669227
0.82034326 2.1061099 2.1964664 1.4929371 0.6632464 0.8333866 2.420618 2.0873108
1.11535 2.1702638 1.3791567 4.4886966 2.2544959 1.1024827 0.33524135 1.3728718
1.202448 1.0564232 1.5988872 5.8351626 2.4044013 1.4522009 2.4950893 1.4293537
00000000: c5dd 8a3f b2fa 1940 d82c 1a40 32ec b63f
00000010: efe4 2840 8016 913f e88d e13f 53cb 883e
00000020: ac8b 8d3f f8c2 b93f eaa5 a83f b4b2 c43f
00000030: aea8 ec3f b512 c03f ef86 0040 9085 1140
00000040: 31c5 8440 9841 963f 83b4 aa3f 0f52 d93f
00000050: 0a73 0540 9370 3640 955c 973f d63b 8b3f
00000060: 3b71 763f 1778 853f bb9a b53f a61e a23f
00000070: 4005 7e40 1e3c 0340 bc52 ec3f efe6 963f
00000080: d8e1 8f3f d14d 3940 67b5 ce3f c17a a83e
00000090: dab3 7a3f 0e09 bb3f 12e0 9d3f 8589 d83f
000000a0: bdff ed3f b154 933f 6f8e 3940 d47c c53f
000000b0: fd91 ad3f d87a b83f 69e0 f13f 94ce d13f
000000c0: e656 1840 bf32 dc3f 3bfc 1440 ea63 c83f
000000d0: 6433 2e40 7e2c ea3f 950f 0840 c542 3b40
000000e0: 0bdf bc3f 8a21 3640 f282 b33f d136 913f
000000f0: 6672 ff3f 7350 3e40 9420 b53f 867d d03f
00000100: cab0 713f b9e4 d43f 4f6c ac3f 7a19 2e40
00000110: 8a74 6340 c890 1b40 7462 923f f96d cb3f
00000120: 8243 0440 cfe8 ed3f 381f 953f a368 cf3f
00000130: 3eb0 5140 3943 e840 8659 a63f f50a a33f
00000140: 353e 3740 f35d 9540 0767 e83e 8499 a93f
00000150: 7cc8 2e40 2f0b 8040 7c9d d03f 54b0 cd3f
00000160: abd1 b13f 1c6e b53f e882 cb3f b784 c03f
00000170: c0a6 8340 ac7e d440 8432 883f e48c e33f
00000180: cbff 823f 64dc af3f 7bbf b33f 9b02 0940
00000190: 56c8 a63e 1fc1 0840 8848 e03f bfd4 2740
000001a0: 082d ef3f 6f04 a63f 7e53 743f 0ff3 9040
000001b0: 6e15 823f 2407 863f 34b3 883f d3e2 8640
000001c0: ba3b f23f 6cdf a73f f7df 5c40 20d5 c73f
000001d0: e42c ab3f 76b9 0540 a88c da3f 225b f43f
000001e0: 3f11 fb3f d274 8a3f e61a a93f a29a ce3f
000001f0: 8c57 ed3f 1f6b 9d3f 5797 2540 d817 9a3f
00000200: 4520 0740 e655 3640 dc07 833f 94c2 853f
00000210: 0fa4 b23f 7b40 f03e b93c e43f f8f3 033f
00000220: da60 7f3f 5ec6 553f ac3d 5b3f 2d34 8d40
00000230: 46e6 3d40 20b0 aa3f 67ec c93f 0ddd 8f3f
00000240: 5c4b ba3f 5fbe a83f 8ddf 0040 ae41 dc3f
00000250: 4b82 c33f c261 0b40 2978 db3f c248 7a40
00000260: f3eb 7c3f 8a2c 6b3f 9b4f 373f 6286 0b3f
00000270: d4c4 5140 6cbc e53f 360d b03f 1ba1 c940
00000280: 8909 ca3f 6558 ad3f d83a d73f 3b0a 3a40
00000290: ad19 8a3f 5d94 a23f 3017 0e40 f0e3 883f
000002a0: 715e b63f fbed 1e3f f56a a23f 8111 8e3f
000002b0: cba5 863f b4ee 4940 a83f a83f 7441 1240
000002c0: 570a b63f 259c 0840 a716 823f f435 b33f
000002d0: e4ed f93f 5eba 8e3f 81ab d43f 4eb7 4e3f
000002e0: 23c5 133f 49f9 1840 0409 6d3f 209a 0c40
000002f0: f519 a240 72b0 b13f f1e6 1640 9318 3940
00000300: e3c4 b03f 65c7 f03f 3c55 ff3e 4bfb e83f
00000310: 4b82 963e 83e2 e63f 2ec2 6e3f 9cac be3f
00000320: 217a 2640 d1e5 be3f 3f41 6d3f 3703 1f40
00000330: ebbf 1940 3085 2340 4f82 1240 2a44 f83f
00000340: 693d 2a40 42f2 ad3f 7cb2 0040 5e8f 6a3f
00000350: 8f33 fa3e 0677 d13f 6995 963f 08a2 b73f
00000360: 98af 8c3f 6d04 3540 0d40 0d40 89b0 9d3f
00000370: bc50 8f40 bd8c eb3f 608c 873f 2c39 1b40
00000380: c85f 1040 1568 7c3f 8121 9a3f ae85 613f
00000390: 8e95 ba3f 0cc8 e93f bf8c bc3f 3f88 773f
000003a0: 0402 523f 81ca 0640 e892 0c40 9018 bf3f
000003b0: 84ca 293f d358 553f 68eb 1a40 8096 0540
000003c0: cac3 8e3f 9ae5 0a40 3588 b03f 67a3 8f40
000003d0: a949 1040 271e 8d3f c1a4 ab3e 43ba af3f
000003e0: d1e9 993f e038 873f 56a8 cc3f a7b9 ba40
000003f0: b6e1 1940 b8e1 b93f 8baf 1f40 10f5 b63f

model.4.weight f4 [32, 320]
0.020774812 -0.3466558 0.0070862365 -0.08328447 -0.111794956 -0.2906864 -0.09586179 -0.29735142
0.13601163 0.16386184 0.146978 0.009279676 -0.11816523 -0.36528096 -0.17896517 0.02827092
-0.49537975 -0.07381308 0.69006795 0.21316959 -0.081890404 -0.33411297 0.08226029 0.122333124
0.0033346387 -0.16733626 0.034747742 0.03432625 0.079646885 -0.14007823 -0.6388374 -0.24855904
-0.033494156 0.10536315 -0.578818 0.15356982 0.067701764 0.3122619 0.17799148 0.013189832
0.053609192 0.09618077 -0.53776157 0.08880267 -0.052924376 0.11275959 0.013105401 0.08854549
0.2249706 -0.23673178 0.07349784 0.099816054 0.03555118 0.11722365 0.042573895 -0.14798108
0.00312056 -0.055493888 0.08826801 -0.2816408 -0.19278954 -0.028493242 -0.02577586 0.10002963
0.12760559 0.048978627 0.14667769 0.14939569 0.12149046 -0.58367366 -0.08481609 -0.12050322
0.12853794 -0.12319496 0.20633067 0.51035374 0.15285864 1.9974729 -0.11643613 0.23096126
0.5122436 -0.4529155 0.062223498 0.045158286 0.018016718 0.13196418 -0.3817203 0.28206936
-0.053661294 0.09172703 0.06034846 0.065579616 0.0701801 2.6681588 0.02145572 -0.15630747
-0.28049755 -0.19977912 0.33003923 -0.0347587 0.044029478 0.0033742152 -0.05759731 -0.4668328
0.01766027 0.19619566 0.051191445 0.016652102 -0.5813396 0.012214262 0.093685605 0.20720364
0.14379214 0.014670759 0.27377188 0.011401756 -0.3009448 -0.55613554 0.20784596 -0.094844036
0.068886936 -0.26811802 0.11223282 -0.59761107 -0.08119898 -0.031004407 0.17590904 0.07194472
-0.22404955 0.17938308 -0.36741728 1.0125697 -0.2912508 0.59622705 -0.1338168 0.026957078
-0.17939073 -0.040527567 1.4566965 -0.073055446 0.2647492 -0.052598424 0.2713073 -0.066372186
0.011296204 0.055834718 0.007811198 -0.06442711 0.06270865 0.0089641865 -0.009064367 -0.67189217
0.11314395 -0.13370393 0.15266503 0.06255703 -0.027929472 0.058144208 0.044228707 2.6354675
0.13201123 0.11137819 -0.19275936 0.30070776 -0.17671467 -0.20373097 -0.10514111 -0.025842022
-0.7576734 0.2386572 0.08657752 -0.19939862 0.081881896 0.18824649 -0.029373184 -0.4001497
-0.21963695 0.14913855 0.14778787 -0.105220206 0.12067063 0.029190015 0.1959981 0.28588125
0.2869881 0.039402626 -0.0006807544 -0.10622189 -0.47647095 0.08879883 0.0254684 0.34128413
0.28490886 -0.42453915 -0.19385739 -0.3366562 0.3153104 0.15554465 0.013498937 0.1443504
0.010936837 0.20790942 -0.02337348 -0.09076517 -0.12304968 0.06455635 0.047471393 0.12185313
0.08209271 -0.15668252 -0.16745932 -0.0055505633 -0.03185818 -0.66788924 0.02302373 0.002301136
-0.028810384 -0.006383882 -0.14207716 -0.07797283 -0.17214687 -0.28052852 0.037275307 -0.31410104
0.09292013 0.039099433 -0.1964725 0.048462268 -0.087749295 0.05766949 -0.07967064 0.048652213
-0.13356383 0.000715112 0.03868705 0.14204726 -0.0691414 0.17025642 -0.058750816 0.4756081
-0.026871163 -0.43697456 -0.029775778 0.38875484 -0.4460508 -0.2364436 0.050934482 0.08160277
0.00980729 0.046582825 0.11787398 -0.08200744 0.037223455 -0.12141095 -0.12982975 -0.36869964
00000000: f02f aa3c de7c b1be a933 e83b 0c91 aabd
00000010: c1f4 e4bd d9d4 94be 3053 c4bd 723e 98be
00000020: a246 0b3e 66cb 273e 6781 163e c809 183c
00000030: 9d00 f2bd 1b06 bbbe a542 37be 6b98 e73c
00000040: 6aa2 fdbe 502b 97bd 4ba8 303f 2149 5a3e
00000050: 28b6 a7bd db10 abbe 1578 a83d ca89 fa3d
00000060: f489 5a3b 325a 2bbe a653 0e3d af99 0c3d
00000070: e81d a33d ab70 0fbe d98a 23bf 4386 7ebe
00000080: 2b31 09bd a3c8 d73d 6b2d 14bf 6841 1d3e
00000090: 39a7 8a3d cbe0 9f3e 6643 363e 2a1a 583c
000000a0: 5095 5b3d 6cfa c43d beaa 09bf 2dde b53d
000000b0: 3bc7 58bd 80ee e63d 09b8 563c 5657 b53d
000000c0: b15e 663e d169 72be 0986 963d 5c6c cc3d
000000d0: 1d9e 113d f412 f03d f761 2e3d 5a88 17be
000000e0: 4f82 4c3b 8f4d 63bd dcc5 b43d 3933 90be
000000f0: 9f6a 45be a96a e9bc e527 d3bc 56dc cc3d
00000100: 0aab 023e d09d 483d ad32 163e 2ffb 183e
00000110: fecf f83d a36b 15bf 0fb4 adbd 64ca f6bd
00000120: 739f 033e a44d fcbd 5948 533e 8ba6 023f
00000130: fa86 1c3e 31ad ff3f 1176 eebd 1c81 6c3e
00000140: 6622 033f 8ae4 e7be 11de 7e3d e5f7 383d
00000150: cc97 933c 9e21 073e d870 c3be 656b 903e
00000160: f2cb 5bbd 62db bb3d f22f 773d 9b4e 863d
00000170: 96ba 8f3d 1dc3 2a40 e8c3 af3c 110f 20be
00000180: 609d 8fbe e692 4cbe e7fa a83e 235f 0ebd
00000190: 4158 343d f021 5d3b 28eb 6bbd b504 efbe
000001a0: 45ac 903c 84e7 483e 1fae 513d fd69 883c
000001b0: acd2 14bf 541e 483c 3dde bf3d 312d 543e
000001c0: 3f3e 133e a05d 703c d42b 8c3e 6ece 3a3c
000001d0: 7015 9abe e65e 0ebf 92d5 543e 973d c2bd
000001e0: 9814 8d3d c446 89be 52da e53d 0afd 18bf
000001f0: a74b a6bd f4fc fdbc 8021 343e c157 933d
00000200: 3f6d 65be 33b0 373e 1e1e bcbe e29b 813f
00000210: d31e 95be 56a2 183f 4507 09be 17d5 dc3c
00000220: 34b2 37be 3c00 26bd 0875 ba3f 189e 95bd
00000230: 358d 873e 7271 57bd cae8 8a3e 24ee 87bd
00000240: b713 393c f2b2 643d 14f5 ff3b 5cf2 83bd
00000250: 656d 803d 86de 123c b682 14bc 2001 2cbf
00000260: 04b8 e73d afe9 08be 3954 1c3e e61d 803d
00000270: 59cc e4bc 9f28 6e3d 2929 353d 80ab 2840
00000280: f42d 073e 401a e43d b662 45be 5ef6 993e
00000290: b1f4 34be da9e 50be 3954 d7bd a6b2 d3bc
000002a0: e2f6 41bf 8e62 743e 8e4f b13d 272f 4cbe
000002b0: b2b1 a73d b0c3 403e 08a0 f0bc 6ce0 ccbe
000002c0: 82e8 60be c7b7 183e b455 173e b17d d7bd
000002d0: 2a22 f73d e61f ef3c bab3 483e 075f 923e
000002e0: 1bf0 923e a664 213d a874 32ba dd8a d9bd
000002f0: 00f4 f3be 29dc b53d 1ba3 d03c cbbc ae3e
00000300: 93df 913e 325d d9be 8d82 46be 345e acbe
00000310: 5d70 a13e 1947 1f3e a52a 5d3c 97d0 133e
00000320: 6b30 333c 35e6 543e be79 bfbc 17e3 b9bd
00000330: 7801 fcbd 1f36 843d 5d71 423d 228e f93d
00000340: 3920 a83d 6271 20be 757a 2bbe 80e1 b5bb
00000350: b97d 02bd cafa 2abf 439c bc3c a8ce 163b
00000360: c103 ecbc e22f d1bb ad7c 11be 38b0 9fbd
00000370: 4547 30be 6fa1 8fbe fead 183d dad1 a0be
00000380: e94c be3d ba26 203d 1630 49be 5f80 463d
00000390: e7b5 b3bd d836 6c3d 5c2a a3bd 8b47 473d
000003a0: f5c4 08be 5b76 3b3a 5076 1e3d d674 113e
000003b0: 029a 8dbd b357 2e3e b2a4 70bd e882 f33e
000003c0: ea20 dcbc 21bb dfbe 55ec f3bc e00a c73e
000003d0: c560 e4be 451e 72be ada0 503d 5a1f a73d
000003e0: c1ae 203c a2cd 3e3d ea67 f13d 84f3 a7bd
000003f0: 9f77 183d 4ea6 f8bd 17f2 04be 33c6 bcbe

model.4.bias f4 [32]
0.0023814817 -0.00054398685 0.0026392485 -0.00026517303 0.00079858466 0.0007634891 0.0010238418 0.0017497013
7.027868e-05 -0.0019549793 0.003861396 0.0016423969 -0.001418593 -0.0006342634 0.00069302385 -0.00087800954
-0.0008165932 -0.0004149568 0.0015357421 0.0013594874 -0.0019390928 0.00010276034 -0.00086458283 -0.00035366378
0.0032110454 0.0011238888 0.0010306669 0.002554475 -0.00053624413 0.0022748176 0.0016733767 0.00032530082
00000000: a212 1c3b 579a 0eba 3ef7 2c3b ec06 8bb9
00000010: 1c58 513a e324 483a 6e32 863a 3c56 e53a
00000020: 9462 9338 1c1f 00bb 7a0f 7d3b b245 d73a
00000030: 15f0 b9ba b244 26ba 0bac 353a 392a 66ba
00000040: a410 56ba 8f8e d9b9 f44a c93a d430 b23a
00000050: 2829 feba 0a81 d738 2ca5 62ba f36b b9b9
00000060: 6770 523b 734f 933a 7117 873a fb68 273b
00000070: bc92 0cba 1b15 153b 3455 db3a 238d aa39

model.5.weight f4 [32]
1.6203564 1.8137985 1.9646086 1.8623016 1.879924 1.5665832 1.5511521 1.728813
1.5523412 1.6739018 1.8508912 1.5282687 1.7664037 1.6985483 1.6436573 1.7364383
1.9162292 1.6330837 1.8745427 1.693256 1.915058 1.6849974 1.4413158 1.696363
1.7088151 1.7355406 1.6903844 1.7186836 1.9471252 1.9979707 1.5944614 1.8082438
00000000: d767 cf3f 8d2a e83f 4b78 fb3f e65f ee3f
00000010: 5aa1 f03f cc85 c83f 278c c63f bf49 dd3f
00000020: 1eb3 c63f 6a42 d63f 01ea ec3f 4f9e c33f
00000030: 8419 e23f 086a d93f 5d63 d23f 9c43 de3f
00000040: 0047 f53f e308 d13f 04f1 ef3f 9dbc d83f
00000050: 9f20 f53f ffad d73f 097d b83f 6c22 d93f
00000060: 74ba da3f 3226 de3f 845e d83f d3fd db3f
00000070: 663b f93f 81bd ff3f 5017 cc3f 8874 e73f

model.5.bias f4 [32]
-0.045416422 -0.41650343 -0.57451236 -0.41402552 -0.8484979 -1.5404862 -0.2204743 -0.5247215
-0.28379366 -0.74765927 -0.7946566 -0.26381585 -0.41413835 -0.7889482 -0.17102638 -0.5408602
-0.54467225 -0.22727548 -0.41344023 -0.9887365 -1.9032612 -0.47239637 -1.1360526 -0.33794454
-0.124211214 -0.06348505 -1.5436145 -0.5410013 -2.1517847 -1.0737089 -0.19404137 -0.20017894
00000000: 9206 3abd f03f d5be 3e13 13bf 27fb d3be
00000010: 2937 59bf a72e c5bf 04c4 61be 2654 06bf
00000020: 674d 91be 9966 3fbf 9d6e 4bbf df12 87be
00000030: f109 d4be 82f8 49bf 8a21 2fbe d075 0abf
00000040: a46f 0bbf e7ba 68be 70ae d3be d61d 7dbf
00000050: 109e f3bf f0dd f1be 2c6a 91bf 1107 adbe
00000060: 7362 febd 7304 82bd 2995 c5bf 107f 0abf
00000070: d7b6 09c0 4b6f 89bf c8b2 46be b5fb 4cbe

model.5.running_mean f4 [32]
-0.26985356 -0.81440055 -0.5600981 -0.97415733 -1.5155107 0.03185891 -1.0761628 -1.0237176
-1.0092484 -1.0501151 -0.5196668 -0.23826724 -0.85267127 -0.9659915 -0.9762054 -1.0076567
-0.6923417 -1.1032702 -0.9404937 -0.8339571 -1.1048313 -1.3519038 -0.31999657 -0.65057164
-1.225531 -1.1436703 -0.68786836 -0.9870866 -1.1527009 -0.996769 -0.6529157 -0.71086603
00000000: 3f2a 8abe 8e7c 50bf 9762 0fbf 6062 79bf
00000010: 41fc c1bf 7d7e 023d b4bf 89bf 2e09 83bf
00000020: 0d2f 81bf 2c6a 86bf e208 05bf 54fc 73be
00000030: aa48 5abf 384b 77bf 99e8 79bf e5fa 80bf
00000040: 4e3d 31bf f537 8dbf 32c4 70bf 367e 55bf
00000050: 1d6b 8dbf 2f0b adbf 97d6 a3be dd8b 26bf
00000060: 33de 9cbf ca63 92bf 2418 30bf b5b1 7cbf
00000070: b48b 93bf 412c 7fbf 7c25 27bf 51fb 35bf

model.5.running_var f4 [32]
1.8963351 2.358329 1.9020323 2.9365222 3.8504145 1.8272191 2.5627854 2.061484
2.2204049 1.650661 1.3740886 2.1035862 2.6731029 2.3755455 3.4709456 2.064364
2.280647 3.7692993 2.416707 2.188524 2.4566922 2.8605373 1.7711775 1.84548
3.687042 4.05508 2.203505 2.2766006 2.0758154 3.7392492 1.9514908 2.1635067
00000000: 1cbb f23f ddee 1640 cb75 f33f fbef 3b40
00000010: 316d 7640 51e2 e93f ad04 2440 5bef 0340
00000020: 1d1b 0e40 dc48 d33f 23e2 af3f 28a1 0640
00000030: 1e14 2b40 f008 1840 f923 5e40 8a1e 0440
00000040: 1ff6 1140 333c 7140 54ab 1a40 c710 0c40
00000050: 723a 1d40 0b13 3740 f2b5 e23f b038 ec3f
00000060: 7ff8 6b40 37c3 8140 3a06 0d40 d3b3 1140
00000070: 29da 0440 dc4f 6f40 73ca f93f e576 0a40

model.8.weight f4 [1, 32]
0.53434086 0.62366563 0.7249351 0.6519124 -1.0571557 -1.0226926 0.63369304 0.6852814
0.62897426 0.86925864 0.84482515 -0.510418 0.7289022 -0.91247433 0.6165962 0.7050894
0.81503624 0.6071962 0.62393695 -0.94230056 -1.6862601 0.6878566 -0.95432806 0.53752977
0.5284593 0.4960135 -1.2185599 0.6533912 -1.8414717 -1.3906528 0.5472036 0.5465272
00000000: 90ca 083f 8da8 1f3f 5995 393f bbe3 263f
00000010: e150 87bf 97e7 82bf b539 223f 9a6e 2f3f
00000020: 7504 213f bc87 5e3f 7646 583f c1aa 02bf
00000030: 5699 3a3f eb97 69bf 40d9 1d3f bd80 343f
00000040: 37a6 503f 3671 1b3f 55ba 1f3f 9c3a 71bf
00000050: 5fd7 d7bf 5f17 303f d84e 74bf 8d9b 093f
00000060: 1c49 073f 7bf5 fd3e c5f9 9bbf a544 273f
00000070: 58b5 ebbf e900 b2bf 8915 0c3f 35e9 0b3f
