models/squat_model.pth (torch, 192630 bytes, 13 tensors)

model.0.weight f4 [832, 19]
00000000: ba40 08c0 4a30 00c0 9cbd 363e 9bbf 093f
00000010: 3b8c 2e3f f536 4b3f bc34 043e a82b d7bd
00000020: 0014 a53f c393 42be 284b 78be cd6f 87be
00000030: a19a 1cbf de27 bc3e a7c5 0dbe 32f5 633f
00000040: b105 c5be d433 e23f dca7 1340 95b4 be3f
00000050: 8684 cbbe 8bee 98bf feca 38be 207a 523f
00000060: a304 9a3f 97e1 fb3e 7e83 493f 52a6 d8bf
00000070: 055c 0240 610f 9bbe 3776 bdbe c24c b43f
00000080: 59fb 5ebe 8a53 44bf bea0 9a3e 25d4 21c0
00000090: 340f f4bf 66b4 ca3f 9bf0 2dbf 8340 ad3f
000000a0: 0400 febe c7c4 0140 8201 2040 e762 a13e
000000b0: 71f9 853f 17d6 aabd e68e f93d 7e96 ac3e
000000c0: bb13 38bf 40f3 93bf 3371 a0bf 68db 5ebd
000000d0: ae73 5c3e b1e3 843e 957f 28bf 08b3 473f
000000e0: ffdd c8be 7888 c9be 5bad 43bf 74b3 913e
000000f0: c885 8d3f 7be0 893f 5c44 a1be a567 8dbe
00000100: e2f5 9fbc e39e 863e d001 bb3e d04a 9e3f
00000110: bc6b ac3f a24d 613d deec 80be 71bb afbe
00000120: c733 a4be 060d 083f fa3e 473f 7657 99bf
00000130: f19f e8bd 9a33 13bf df25 12be 89fd 9c3f
00000140: aa04 d23f b639 653f e853 673e ddd5 b9be
00000150: f113 a43d b8e6 d23f 9ac6 3d3f 65ee e43f
00000160: 015a e73e 62cd a0bf 4ebd f03f 486e 0d3f
00000170: 275a 7fbf 12fa 68be df3f 473d d111 343f
00000180: f14f 423e 72ec 8a3d c186 e7be 2024 f13b
00000190: 6205 d13d ae59 35bf f710 0c3e 3d7b 8cbf
000001a0: 366d 16be 4be3 e83e bc7d 093e d259 a83f
000001b0: d201 d33e 871d 2dbf 9abc 713f 0032 d13e
000001c0: 2738 413e 6efa e63f d731 03c0 6d27 5d3f
000001d0: 6fe0 62bd cddc 233f 36ac b33f a62a 80bf
000001e0: 2c68 46be 2173 49be 6cb6 383f 8556 62bf
000001f0: 886a 5a3f 52d4 2040 4e03 dc3e 1ab8 103f
00000200: f597 95be d950 87bf cdfd 8abf 3487 bb3e
00000210: 89ab 5a3f 6aec 38bb d396 20bc 2d9f 0bbc
00000220: 0d28 a23b c5f4 003a 2a97 8bbb c0d8 863b
00000230: 5967 5abb a137 15bc da29 89b9 6cbb 08bb
00000240: f6b6 9e3b 3d63 0bbc 22ca 2bbb b263 87bb
00000250: 45b2 b8b8 ffb9 00bc 4be7 bdbb c910 04bb
00000260: 1c92 ea21 ff12 70ad f0e5 3728 0012 4ab3
00000270: ceb4 20ad 1cbc ac30 17c2 bc30 a538 0e32
00000280: 1e23 0c28 eb86 7b2f 89c2 4730 45e4 fcb0
00000290: e7db 0628 484a 0f2f 9dac 7331 ed9e acaf
000002a0: 36e4 4a29 c602 e92a be24 0a33 5c2c d3bf
000002b0: 793a 3f3e c115 c9bd 2684 afbf 8dc8 0e3f
000002c0: 5f52 23bf 0b0f 2d3f 5e0a 873f 268d ad3f
000002d0: 6593 e13f 0606 953f 23d1 92bf 3603 85be
000002e0: 3d94 2f3f 2d40 81bf 973e 30bf 852f b1bf
000002f0: 16c6 283f 0d60 423f 8de6 ba3c 0bce 93bf
00000300: b648 13bf a79d 9dbf 8319 053e 8cf9 d5be
00000310: dc59 363f 2393 9bbf b20f 2abf a439 b3be
00000320: c21b e33f 5fc3 0cbf 4fa3 e9be ed52 153d
00000330: 9e55 093f a113 e2be a8d9 10bf d7fb 523d
00000340: 7f38 abbe aadb 623c 2835 debb a841 a03a
00000350: db5a 13ba 867c 513a c96c b53c c294 333c
00000360: 6589 a73b a05b 1c3c ad7d bf3c ea3e 833c
00000370: 06b1 433c 3543 b13a 783e 1abd 6adb d13a
00000380: c879 613c 0477 91bb e7be bbbb aa90 efbb
00000390: 5e81 31bf 13ec 27bf e637 b4be c97b 1ac0
000003a0: 4df9 c8bc 5106 073f ab78 73bd 1e19 1d3f
000003b0: 2db9 123f 3cbc 43bc f152 19bf 274e c1be
000003c0: 9216 bdbe 821f 3b40 3f52 d33d 1b95 653d
000003d0: d074 92bf 1672 28bf 9dd0 b83d f354 453e
000003e0: a0eb 673f 746e ef3c 4775 eabf e314 00c0
000003f0: 435e 5ebe bea6 0140 4dce 2f3f 5f0b ae3d
-2.1289506 -2.0029473 0.17845768 0.5380799 0.68182725 0.7938073 0.12910742 -0.10506374
1.2896729 -0.19001679 -0.2424742 -0.26452485 -0.61173445 0.36749166 -0.1384493 0.89046013
-0.38480905 1.7672067 2.3071203 1.4898859 -0.39749545 -1.1947798 -0.18046185 0.822176
1.2032665 0.4919555 0.78716266 -1.6925757 2.0368664 -0.3028517 -0.37004253 1.4085925
-0.21775569 -0.7668997 0.30200762 -2.5285733 -1.906714 1.5836303 -0.6794526 1.3535312
-0.49609387 2.0276353 2.500092 0.3152077 1.0466748 -0.08341616 0.12185459 0.33708566
-0.71905106 -1.1558609 -1.2534546 -0.05440846 0.21528503 0.25954965 -0.65819675 0.78007555
-0.3923187 -0.3936193 -0.76436394 0.28457224 1.1056452 1.0771631 -0.31497467 -0.27618137
-0.019526426 0.26293096 0.3652482 1.2366581 1.3470378 0.055005677 -0.25180715 -0.34322694
-0.32070753 0.5314487 0.7783047 -1.1979816 -0.113586314 -0.5750061 -0.14272259 1.2264873
1.6407673 0.89541185 0.22590601 -0.36295977 0.08011616 1.647666 0.74131167 1.7885252
0.45185855 -1.2562678 1.8807771 0.552464 -0.99746937 -0.22751644 0.048644897 0.70339686
0.18975808 0.067833796 -0.45219997 0.0073590428 0.10206105 -0.70839965 0.13678347 -1.0975109
-0.14690098 0.4548591 0.1342687 1.3152411 0.41212326 -0.6762318 0.9442841 0.4085846
0.18869077 1.8045175 -2.049917 0.86388284 -0.055389818 0.6400879 1.403693 -1.0013015
-0.19375676 -0.19672824 0.72153354 -0.8841327 0.85318804 2.512959 0.4297127 0.56530917
-0.29217497 -1.0571548 -1.0858704 0.3662659 0.8541799 -0.0028217086 -0.009801584 -0.008521837
0.004948622 0.0004919286 -0.0042599635 0.004115194 -0.003332576 -0.009107501 -0.00026161858 -0.0020863665
0.004843588 -0.008507547 -0.002621301 -0.0041317577 -8.807009e-05 -0.007856845 -0.0057953945 -0.0020151606
1.5895132e-18 -1.36466385e-11 1.02084e-14 -4.704816e-08 -9.135094e-12 1.2568111e-09 1.3733964e-09 8.278367e-09
7.779176e-15 2.287625e-10 7.267223e-10 -1.8400291e-09 7.486178e-15 1.3032164e-10 3.5459273e-09 -3.139954e-10
4.505095e-14 4.139104e-13 3.2164046e-08 -1.6497912 0.1867465 -0.09818602 -1.3712204 0.55774766
-0.63797563 0.6760108 1.0550039 1.35587 1.7623106 1.1642463 -1.1470073 -0.25979012
0.6858557 -1.009771 -0.68845505 -1.3842627 0.65927255 0.7592781 0.022815013 -1.1547254
-0.57532823 -1.2313737 0.12998013 -0.41791952 0.71230865 -1.2154278 -0.664302 -0.35004914
1.7742846 -0.5498561 -0.45632407 0.036456037 0.53646266 -0.441556 -0.5658212 0.051509704
-0.3344154 0.013846317 -0.006781239 0.0012226598 -0.00056211435 0.0007991273 0.0221466 0.01096076
0.0051128143 0.0095433295 0.023375357 0.01602121 0.011944061 0.0013524058 -0.03765723 0.0016010825
0.013761945 -0.0044392366 -0.0057295444 -0.0073109465 -0.69338024 -0.65594596 -0.35198897 -2.4138052
-0.024532938 0.52744013 -0.05944125 0.6136645 0.57313806 -0.011946734 -0.59892184 -0.37754938
-0.36931282 2.923798 0.103184216 0.0560504 -1.1441898 -0.6579908 0.09024165 0.19270687
0.9059391 0.029227473 -1.831704 -2.0012748 -0.21715645 2.0258021 0.68674165 0.084982626

model.0.bias f4 [832]
00000000: 581c da37 7c2c dab6 7a32 94b7 f2d9 32b7
00000010: 78a8 b436 1ab0 7437 f0b6 cab6 ecf7 feb0
00000020: d42a d781 7495 d0b7 0c5e 30b8 964e fa01
00000030: 36ef 34b9 6079 8738 e494 4db1 9049 3ab6
00000040: d8dd 14b6 ca5d 1939 4136 9838 f5f2 7138
00000050: fce3 0639 e846 5a37 5182 0a32 4c9e cf38
00000060: f23f a3b8 b669 6638 00ee 23b5 b4fb 2539
00000070: e799 05b9 908e 6938 bcac cdb6 edb7 c137
00000080: e259 7cb9 abb3 07b9 96af 0238 faf9 71b9
00000090: a8e0 c1b6 ee4e 3237 90bb 2bb7 1689 90b8
000000a0: 8bd7 bfb7 fb4f b201 a135 b337 2ad1 8238
000000b0: c0bd 95b8 065d 28b9 20e1 45b7 9b51 19b7
000000c0: 2b55 c7b8 021e c59b ecf1 1938 f628 d301
000000d0: 207b 76b6 c046 e8b6 7b46 bd9e 806f 9e37
000000e0: 2d3c 2035 e01b 6c38 8a5c 35b8 2993 cd36
000000f0: 3ce6 26b7 00a8 8239 125a ad38 a876 05a0
00000100: d3ce 35b8 48fc 1e38 544e 3238 9e36 e337
00000110: 84cb b9b8 483c 7fb8 00a2 8838 4a0c ad38
00000120: d84e a5b7 98cc 3737 6558 02b9 cc9c 8836
00000130: 6eb3 99b7 40a9 96b0 7b0c 9338 1864 2401
00000140: 3611 fe37 5cd7 8bb8 e0b6 d3b7 7242 89b8
00000150: f026 b7b7 9666 01b0 991e b6b7 dc17 3f01
00000160: 8016 7fb5 719f 27b8 02d3 ceb7 403d 34b8
00000170: 4842 c4b8 2e20 33b8 7874 f2b7 e080 1ab7
00000180: 42f1 dd38 485c 0ab8 8285 9935 6e9c c2b7
00000190: 64ed 8db7 84f1 e538 4051 9eb5 b09b bd36
000001a0: c417 0639 7e2a fd38 9cb9 6a38 a3e7 5038
000001b0: 1c07 1839 298a b436 68db bd38 af8f 0839
000001c0: b874 6639 ec5e b238 891a 1cb9 f3df f1b7
000001d0: ca62 a937 4339 bb38 57c7 85b8 d6f3 8f37
000001e0: 1385 8432 8046 81b5 9072 fe37 607f 2839
000001f0: c68a bb37 00f0 58b8 4ca3 82b1 e038 0ab9
00000200: 5db9 8039 3bfb 0bb6 2026 0e39 905d 0838
00000210: 926d 54b8 d265 83b6 fef7 0db9 7962 d7b7
00000220: 677a ce31 06e3 8537 396d 0f38 ebcb a3b7
00000230: c2a7 2a39 f45c cc37 f95d 61b8 951b d592
00000240: 7c82 d438 e0d6 2138 1c4c 3bb8 ae4b 6a3a
00000250: 53e7 d138 96b5 a4b6 0cc2 4038 d856 6ab8
00000260: 594e 1538 0a36 1138 88e5 ed36 ea2b 96b7
00000270: 53fe b038 75f8 cd38 43a2 70b9 eacd 4637
00000280: 6a89 63b8 25ad 3db8 70c7 5cb7 c4b4 d037
00000290: 2b5b d737 c96f 51a9 562b 0db9 0f8c a738
000002a0: cebf 0139 daec d3b8 fec7 7f81 76d6 ce38
000002b0: 5ab6 bab5 db3a 0ab9 86b1 1930 f474 3339
000002c0: 455d 541d 3065 8935 854a dab7 4252 53b8
000002d0: 7eb6 f237 72d3 81b8 5ae0 96b7 c886 5138
000002e0: 2224 2139 4cfb db37 529b 8426 5930 e139
000002f0: 06ce 85b9 7bab ae1d 0c12 a181 21bd 16b9
00000300: fe82 06b8 c68c b438 483d 1339 a5af d338
00000310: d83c a436 1f54 1bb5 ce97 c734 80e9 7fb5
00000320: 1885 7b38 8ee9 f6b8 86b7 15b8 5771 62b8
00000330: b7db b2b9 fa2c 6cb8 a23b 0b35 485e 6eb6
00000340: aa00 5137 5de1 8439 4f34 e697 3083 bab7
00000350: ce19 1138 281a f2b7 a929 2891 0fab 0639
00000360: 48da 67b6 3384 3239 90d2 1ab7 44d8 6fb8
00000370: c05b 65b5 83a2 1138 f23c 9338 094f 7ab8
00000380: cb33 6db9 ae96 f0b8 8d20 77b8 3855 e1b6
00000390: 2606 7f37 20a3 ad37 f060 6db7 5c2c a0b6
000003a0: 10f6 81b6 6278 9137 4c5f e1a4 e09b df36
000003b0: a955 8138 ce25 7ab7 cca6 4638 e846 ce31
000003c0: 9481 8d37 96bb fe38 359a 3337 c963 c937
000003d0: 2d03 6582 0c15 9cb8 69d9 82b4 96a7 48ba
000003e0: 5c4f 9738 b7e4 a982 96d2 c637 1b42 6fb8
000003f0: 106b 0eb6 400f e136 e9b3 f6b4 20ce 5538
2.6000824e-05 -6.502085e-06 -1.766648e-05 -1.0660371e-05 5.3840304e-06 1.4584535e-05 -6.041366e-06 -1.8551396e-09
-7.903998e-38 -2.4865127e-05 -4.2049258e-05 9.194826e-38 -0.0001725525 6.4599095e-05 -2.991606e-09 -2.7758979e-06
-2.2182849e-06 0.00014626156 7.2580304e-05 5.768515e-05 0.00012864167 1.3010322e-05 8.062288e-09 9.900014e-05
-7.7843564e-05 5.4934724e-05 -6.106857e-07 0.00015829393 -0.00012741201 5.56843e-05 -6.129585e-06 2.309304e-05
-0.00024066077 -0.00012941535 3.1157942e-05 -0.00023076675 -5.7780017e-06 1.0628004e-05 -1.0236065e-05 -6.891989e-05
-2.2869344e-05 6.550164e-38 2.1363436e-05 6.237843e-05 -7.140217e-05 -0.00016056382 -1.1794531e-05 -9.138511e-06
-9.504923e-05 -3.2610308e-22 3.670335e-05 7.7567935e-38 -3.6728525e-06 -6.922375e-06 -2.0040303e-20 1.8886989e-05
5.969221e-07 5.6292745e-05 -4.3239947e-05 6.126608e-06 -9.947977e-06 0.00024920702 8.26606e-05 -1.1304798e-19
-4.3346383e-05 3.790509e-05 4.2511456e-05 2.7085942e-05 -8.859395e-05 -6.085288e-05 6.51516e-05 8.251572e-05
-1.9706247e-05 1.0955286e-05 -0.00012430696 4.0713694e-06 -1.8322575e-05 -1.096204e-09 7.011831e-05 3.0193856e-38
3.0287174e-05 -6.66815e-05 -2.5238318e-05 -6.5450455e-05 -2.1833432e-05 -4.707571e-10 -2.1710339e-05 3.5098278e-38
-9.5027644e-07 -3.9964394e-05 -2.4655372e-05 -4.2972388e-05 -9.358354e-05 -4.2706895e-05 -2.8902883e-05 -9.209121e-06
0.00010583039 -3.2987708e-05 1.1438244e-06 -2.3199445e-05 -1.6919053e-05 0.00010964557 -1.1795564e-06 5.6507633e-06
0.00012788089 0.00012071895 5.596281e-05 4.9806793e-05 0.00014498498 5.380502e-06 9.05309e-05 0.00013023497
0.0002197799 8.505382e-05 -0.00014887204 -2.8833723e-05 2.0192372e-05 8.927521e-05 -6.379064e-05 1.7160473e-05
1.5427338e-08 -9.631767e-07 3.0332507e-05 0.0001606918 2.2356759e-05 -5.172193e-05 -3.8020627e-09 -0.00013181893
0.0002455217 -2.085885e-06 0.00013556378 3.2512064e-05 -5.0646784e-05 -3.9159577e-06 -0.00013539192 -2.5675852e-05
6.0093046e-09 1.5960552e-05 3.419558e-05 -1.952607e-05 0.00016274958 2.436198e-05 -5.37317e-05 -1.3448989e-27
0.00010133252 3.858551e-05 -4.4655157e-05 0.0008937669 0.00010008984 -4.9087203e-06 4.5957087e-05 -5.5870827e-05
3.5597335e-05 3.462102e-05 7.0898714e-06 -1.7901843e-05 8.4397056e-05 9.8214405e-05 -0.00022948631 1.1849663e-05
-5.4248994e-05 -4.5222365e-05 -1.3159457e-05 2.4879708e-05 2.567245e-05 -4.650428e-14 -0.00013462952 7.9892685e-05
0.00012373851 -0.00010105381 -4.697959e-38 9.862792e-05 -1.3911151e-06 -0.00013182631 5.591335e-10 0.00017114339
2.8106186e-21 1.0236745e-06 -2.6022326e-05 -5.038293e-05 2.8933628e-05 -6.190584e-05 -1.7985865e-05 4.9955008e-05
0.00015367617 2.6223854e-05 9.20144e-16 0.00042951366 -0.00025521236 4.6234723e-21 -5.9167956e-38 -0.00014375571
-3.2070086e-05 8.60929e-05 0.00014041841 0.000100939804 4.894664e-06 -5.786441e-07 3.717709e-07 -9.533469e-07
5.9967017e-05 -0.00011773697 -3.5695288e-05 -5.3988155e-05 -0.00034114506 -5.6308672e-05 5.186831e-07 -3.5519643e-06
1.2457525e-05 0.0002534491 -1.4876606e-24 -2.2234017e-05 3.4594726e-05 -2.8860828e-05 -1.3265701e-28 0.0001284296
-3.4548739e-06 0.00017024651 -9.228141e-06 -5.7183453e-05 -8.544266e-07 3.4722045e-05 7.020858e-05 -5.9678252e-05
-0.00022621376 -0.00011472158 -5.8919704e-05 -6.7154433e-06 1.5200616e-05 2.0699168e-05 -1.4148871e-05 -4.7735357e-06
-3.873145e-06 1.7341405e-05 -9.7739635e-17 6.664064e-06 6.167155e-05 -1.4909963e-05 4.736222e-05 6.00345e-09
1.686885e-05 0.000121466044 1.07051355e-05 2.4007533e-05 -1.6825174e-37 -7.44258e-05 -2.4372574e-07 -0.0007654367
7.215023e-05 -2.4963594e-37 2.3701501e-05 -5.7043606e-05 -2.1221967e-06 6.707298e-06 -4.5951973e-07 5.0975126e-05

model.1.weight f4 [832]
00000000: dac8 0940 186e d63f 403a af3f ac11 5e3f
00000010: 35b1 c03f 8134 c83e 84b0 d73f 35a1 a03c
00000020: d747 793a 6dad b33f 6d1f 873f bf99 a23b
00000030: 4342 543f 7f2f 9d3f 3d2f 5f3c 9c57 a83f
00000040: ebb9 d03f cc17 1c3f 3437 a83f 116b 103f
00000050: 6cc6 df3f 6dd5 e93f 3e02 133d f749 473f
00000060: c580 a03f d9af c93f 2516 883f e568 c93f
00000070: 45d9 913f 2655 0440 b45f af3e 7e9e d73f
00000080: bb0c d93e 8620 1740 18fd 603f 5dc5 5a3f
00000090: 8a6b 9e3f 9dba db3d f603 e13f 4024 bb3f
000000a0: ea98 a73f ffa0 1b3a c348 903e 262b 0040
000000b0: c0ac 003f b8fe 1e40 b909 163f e237 183f
000000c0: 393d 153f 1b47 6f3d bbc2 493f 8631 1a39
000000d0: 997d 013f f25d 0b40 0fab 023c 34d4 c83f
000000e0: 7b01 013e 406d cc3f 8c0f bb3f 9e05 143f
000000f0: 2b1d bb3f a867 333f e1c0 833f fd4c 153d
00000100: 9048 453f 2f6b ac3f 2e2d 853f 28a1 f53f
00000110: 5bbf f13f 1370 4d3f 9906 9f3f 8b76 c93f
00000120: f09b 973f f5f9 0440 d7c6 ca3f b96f 223f
00000130: 8245 b33f 119e 503c 9e51 993f 7922 9039
00000140: 1183 d23f afd1 e13f 44ae 5e3f fdf8 ac3f
00000150: 6967 ea3f 1343 b4bc ef88 a83f a177 8b3a
00000160: c54f a03e 960f bd3f f77b b33f dbcf 893f
00000170: ce4f fe3f 4904 af3f 70f2 bb3f 3a96 463f
00000180: a35f 8a3f 6d7b 8a3f 71d4 373f 39d9 683f
00000190: 259b 233f 3640 423f 8785 2d3f 6bb9 443f
000001a0: d8a7 433f 16b2 b63e bb10 b23f 2bb6 803f
000001b0: 9dba 1f3f 6d9f 183f 6843 d43f 7ffb ca3e
000001c0: 617c 6e3f cf8d 8b3f 5451 6e3f fede a73f
000001d0: 7ed3 8b3f 4285 933f 51e5 1040 0cc5 913f
000001e0: 5ba9 8a3d 1b2a 0440 5245 9e3f 8a84 e63f
000001f0: b2d8 003f a673 9c3f 8b5b 283e 495b 593f
00000200: 1bc5 1a40 316b 2d3f 6e0a fa3e 0ba8 bd3f
00000210: 5329 b33f cd78 bb3f b3d2 c13f 5e8b 163f
00000220: c142 4e3d 27e5 3a3f 3250 e73f b78b 483f
00000230: 3a9b bb3f 3816 ce3f a6bf 673f 1354 053a
00000240: fc10 d43f 2c32 323f 72e2 e13f ee8a 3440
00000250: 9f8d e83e 0a52 663f 7bcc c23f f48f b03f
00000260: 1966 fe3f 454b 833f 6692 cc3f 42d1 7a3f
00000270: 5348 683f 3ece 2240 3c9a b03f b2c8 3a3f
00000280: 9b4a 5d3f 8837 be3f 9c01 173f 293f 1a3f
00000290: 6c09 b73f c143 173e f233 813f acb2 0040
000002a0: 4769 c43f 1b59 ad3f 53de e938 65e3 2e3f
000002b0: 44a8 f53e 2d7f 113f bd69 663c 90e1 ce3e
000002c0: 947d 123c d51b ad3e e8b7 e23f ddd9 a73f
000002d0: b49e 513f 6e6c fc3f 3016 623f 9cac 913f
000002e0: 0e32 1640 ae53 ca3f b1a7 0b3e 3dd0 0240
000002f0: 971c b93f bfe1 653c 9f1f e038 9761 8b3f
00000300: 7147 5f3f 1dff f33f fae7 143f 922c 653f
00000310: 84df aa3d 1568 043e 5c81 183e ab44 203f
00000320: 8436 313f 0253 c03f 28f0 f43e 2df3 f23e
00000330: cbe7 2d3f bcda f33f 6f48 9e3c 0d74 9d3f
00000340: d411 ab3f 9004 a83f 167e 823c 9b66 8c3f
00000350: 93b5 c33f ace1 d33f d2b6 9f3c 84cd 023f
00000360: a06f 0b40 0a83 a93f 721f 973f fe4f ab3f
00000370: ac6f d43e 957d 0640 3ed7 c63f 328f e33e
00000380: 7d76 133f cf00 e33e 1a03 633f c88b b33f
00000390: e63e 243f dd29 013f 6a2e 9f3e 1e5b 643f
000003a0: 2a8d 883e 50e9 ef3f ce5f d93c aa4b 0340
000003b0: 8d31 a33f 9171 a83f 0545 843f 6736 d13c
000003c0: 4c85 8a3f 1aa1 f73f d726 b93e c1e6 1b3f
000003d0: 222e c83b 1f72 a23f afdf e53d 4a93 2940
000003e0: 1cd1 c33f 4217 fb3a 97b9 9d3f fb9f 8c3f
000003f0: e851 803e 3fb6 2f3f 95f9 123e d6ef 443f
2.152884 1.6752348 1.3689651 0.86745715 1.5054079 0.39102557 1.6850743 0.01960812
0.0009509301 1.40373 1.0556465 0.0049621756 0.8291361 1.228012 0.013622102 1.3151736
1.6306738 0.6097381 1.3141847 0.5641337 1.7482429 1.8268257 0.03589081 0.77847236
1.2539297 1.575679 1.0631758 1.5735136 1.139443 2.067697 0.34252703 1.6845243
0.42392525 2.36136 0.8788619 0.854574 1.2376568 0.10728953 1.7579334 1.4620438
1.3093541 0.0005936771 0.28180513 2.0026336 0.50263596 2.4842968 0.58608586 0.5946027
0.58296543 0.05841742 0.7881276 0.00014705033 0.5058227 2.177609 0.007975354 1.5689759
0.12598221 1.597084 1.461412 0.5782107 1.4618276 0.7008004 1.0293237 0.036450375
0.77063847 1.347021 1.0404413 1.9189806 1.8886522 0.80249137 1.2423888 1.5739301
1.1844463 2.0777562 1.5841931 0.63451725 1.4005587 0.0127329985 1.1978033 0.00027491504
1.6446248 1.7642115 0.8698466 1.3513485 1.8312808 -0.02200464 1.3166789 0.0010640511
0.3131086 1.4770381 1.4022206 1.0766557 1.9868104 1.3673183 1.4683361 0.7757298
1.0810436 1.0818917 0.71808535 0.90956455 0.63908607 0.7587923 0.6778187 0.76845425
0.76427984 0.35682744 1.3911356 1.0055593 0.62394124 0.59618264 1.6583071 0.39645
0.9315854 1.0902652 0.93092847 1.3114927 1.0923917 1.1525042 2.2639964 1.1388259
0.06770583 2.06507 1.2364905 1.8009198 0.5033065 1.2222793 0.16441171 0.84904915
2.4182804 0.67741686 0.48836082 1.4816908 1.3996986 1.464624 1.5142425 0.5880641
0.05035663 0.7300591 1.8071349 0.7833819 1.4656746 1.6100531 0.9052681 0.00050860754
1.6567683 0.69607806 1.7647231 2.8209796 0.45420548 0.8996893 1.5218652 1.3793931
1.9874908 1.0257345 1.5982177 0.9797555 0.9073536 2.543838 1.3797069 0.72962487
0.86441964 1.4860697 0.5898683 0.60252625 1.429975 0.1477194 1.0093977 2.0109053
1.5344628 1.3542818 0.00011151717 0.68315727 0.4797994 0.5683468 0.014063296 0.40406466
0.008941073 0.33810297 1.7712374 1.3113362 0.81882787 1.972059 0.88315105 1.1380801
2.346805 1.5806787 0.13638188 2.0439599 1.446185 0.014030873 0.00010687042 1.0889157
0.87218386 1.9062229 0.5816647 0.89521134 0.083434135 0.12930329 0.14893097 0.6260478
0.6922381 1.5025332 0.47839475 0.47451153 0.67931813 1.9051127 0.019321648 1.2301041
1.3364816 1.3126392 0.015929263 1.0968813 1.5289787 1.6553245 0.019496355 0.5109484
2.178688 1.3243115 1.1806471 1.3383787 0.4149145 2.101415 1.5534437 0.44445187
0.57602674 0.44336554 0.8867661 1.4027033 0.64158475 0.50454503 0.310901 0.89201534
0.266702 1.8743076 0.026534941 2.0514932 1.2749497 1.3159658 1.0333563 0.025538636
1.0821929 1.9346039 0.36162445 0.6089898 0.006109015 1.2691077 0.11224305 2.6496148
1.529819 0.0019156712 1.2322263 1.0986322 0.2506249 0.6863746 0.1435302 0.7692846

model.1.bias f4 [832]
00000000: 3fca 92c0 9b6a 73c0 1264 bfbf a76d ccbf
00000010: 824e 48c0 292a 2bbe 8d8b 3dc0 eff3 a1bd
00000020: 7bd0 1fba e0e3 94bf 3537 5cbf f895 94bd
00000030: fcc4 e1bc c001 9bbf 46d6 09be 40a6 89c0
00000040: 3fcd 29c0 3f14 e8bd 3663 0ac0 9624 c83d
00000050: ee22 20c0 8eee 38c0 146f ccbe 3505 25bf
00000060: 4292 d8bf 1e4c 39c0 2927 adbe 7372 01c0
00000070: 1d33 bdbf dacb e1bf 68d5 90be 19d2 69c0
00000080: 2616 153d 8791 39c0 f88b 2dbf 817b 943e
00000090: 8278 a0bf 694b 13bd af85 7bc0 747b 23be
000000a0: 0160 9fbf 1da9 8ebb d728 7ebd 4e9a 46c0
000000b0: 24e7 3ebb 0552 48c0 ffb1 b7bf 593d 32bf
000000c0: 0d12 4dbd 61ac d2be 0271 80be 9d48 6db9
000000d0: 3a63 e3bf e1ed 72c0 12d9 febd 6411 60c0
000000e0: 308d c3be e8a5 1ec0 58aa fcbf bf49 8ebf
000000f0: 2096 b8bf 8797 4d3d 4b5a eabc 4f02 e3bd
00000100: d602 17bf 4292 babf b364 76bf c282 99bf
00000110: 725b 07c0 0450 63be db72 95bf dda9 04bf
00000120: 9ffc 82bf 4d85 26c0 2e83 b4bf 391b d2be
00000130: c36e 19c0 7ac7 65bd f711 6bbf abc5 b3ba
00000140: 4fb2 c9bf ae3a 0cc0 77f2 eabf 4ea5 03c0
00000150: 02c2 17c0 3285 48be 7806 f5bf 2948 30bc
00000160: 10e6 88bf 61d5 a7bf 5bbc f7bf a179 e4bf
00000170: 16fd 74c0 ac80 03c0 3da5 ddbf 6df7 dabe
00000180: 86f6 75bf a39f 8bbf 9c50 eabf aa31 c0bf
00000190: a3dd c7be 546c 74be 33c4 973c b918 06bf
000001a0: 9166 30bf ce19 193e e26a 88be b07d 9dbf
000001b0: 535f 4abe 18a6 25bf 5f41 19c0 6de4 46be
000001c0: 1c69 87be 3c0d 22bf 140f 0fbe fe29 dcbf
000001d0: d212 62bf 9ef2 2cbf ea2c 4ac0 b89b acbf
000001e0: 9540 77be 1281 f5bf 5723 67bf fe5b 40c0
000001f0: 9e81 66bf 7615 1bbf f12e dabe 49fd 74bf
00000200: 9759 c5c0 2e4f bcbf f601 073d 54ac 1ec0
00000210: d577 b1bf f7a1 6cbf facc d4bf 4c2c 4fbf
00000220: 04f7 f3be 7e95 8ebf dbfc 38c0 5ba7 99bf
00000230: daa3 abbf b6d7 c2bf b2d6 6ebf aed0 6ebb
00000240: e7c2 ebbf 2f03 61bb cae0 85c0 0df2 2fbf
00000250: 9120 293e 20fa ffbf 3c8a abbf e58c fabf
00000260: d845 90c0 5eee e3be 4681 08c0 9fed 92bf
00000270: 6c54 67bf 0413 81c0 bd24 80bf 4dd0 aebf
00000280: 5094 c5bd 640f 0cc0 1e72 91bf 1925 45be
00000290: d4e0 20c0 b148 8cbf 92d2 02bf 1fc0 a4c0
000002a0: d7b9 a4bf 5217 15c0 12f7 d2b7 7b97 953d
000002b0: d142 74bf 6561 6b3d 1d98 3cbe 1208 203e
000002c0: 5aee 16bd f974 3cbf 5836 ebbf 18a1 e3bf
000002d0: 359f 08bf d2e8 03c0 cf54 9abf 8b70 64be
000002e0: 50af 60c0 550c 1fc0 1dec e8be 61d9 ddbe
000002f0: 0407 88bf 0f2e 8cbe 21e1 63bb 2fc0 afbe
00000300: cd7a 6dbf c81b 1cc0 2463 5ebd 90d4 82be
00000310: b945 723e b765 ddbe 801b e1be 5236 d7be
00000320: 24b9 58be fd52 1fbf e940 27be 0ef2 3abe
00000330: b012 393e 7099 8dc0 a266 54be bb82 fbbf
00000340: 19b7 debf 7beb 82bf 14a7 48be e667 27be
00000350: 36a0 33c0 2005 ccbf b86e e1be 8213 6a3e
00000360: 568f a4c0 9aa1 a3bf 1fa5 fdbe be2c dabf
00000370: eb6b 69be 3e54 53c0 8c61 e3bf e579 473d
00000380: 9a06 f93d ee5b 693d 1196 56be 6d2c 13c0
00000390: f0de 1ebf 01a1 8a3e 1beb 5abe 86ec e9bf
000003a0: a705 2bbf 246f 81c0 a7ed a1be 8f66 0cc0
000003b0: eb68 9bbf b617 76bf 1d4d aabf 6f8b 7cbe
000003c0: e230 61bf 975d 60c0 740a b5bd 9220 cbbe
000003d0: 6456 bbbd c7f6 fabf 64f9 d7be 4a30 66bf
000003e0: 1f79 32bf beaa 00bd 001f afbf 2fca 06c0
000003f0: caee 92be 6a80 8dbf ee2b e2be 2ef3 253e
-4.5871882 -3.8033817 -1.4952414 -1.5970963 -3.1297917 -0.16715302 -2.9616425 -0.07907855
-0.00060964347 -1.1632042 -0.8602174 -0.07255167 -0.02755975 -1.2109909 -0.13460645 -4.301544
-2.6531522 -0.11331987 -2.1623054 0.09772603 -2.502132 -2.8895602 -0.39928496 -0.6446107
-1.6919634 -2.8952708 -0.3381894 -2.0226104 -1.4781224 -1.7640336 -0.28287816 -3.6534483
0.036398076 -2.8995073 -0.677917 0.29000476 -1.2536776 -0.03596059 -3.9300344 -0.15965062
-1.2451173 -0.004353656 -0.062050667 -3.103168 -0.002912947 -3.130006 -1.4351195 -0.6962486
-0.050066043 -0.4114714 -0.25086218 -0.00022629132 -1.7764657 -3.795769 -0.124437466 -3.5010614
-0.38193655 -2.478876 -1.9739485 -1.1116256 -1.4420815 0.050193336 -0.028607508 -0.11084425
-0.589887 -1.4575884 -0.96247405 -1.1993029 -2.1149564 -0.22198492 -1.1675676 -0.5182169
-1.0233344 -2.601886 -1.4102533 -0.41036394 -2.3973854 -0.05609844 -0.9182429 -0.0013715526
-1.575754 -2.1910815 -1.8355244 -2.0569644 -2.3712163 -0.1958206 -1.9142599 -0.010759392
-1.069521 -1.3111993 -1.9354357 -1.7849618 -3.8279471 -2.0547285 -1.7316052 -0.42766896
-0.9607929 -1.0908092 -1.830585 -1.5015156 -0.39036283 -0.23869449 0.018526172 -0.52381474
-0.68906504 0.1495125 -0.26644045 -1.2303982 -0.19762926 -0.64706564 -2.394615 -0.19423075
-0.2644738 -0.63301444 -0.13970596 -1.7200315 -0.8830997 -0.67557704 -3.1589913 -1.3485022
-0.2414573 -1.9180014 -0.902883 -3.0056148 -0.9004153 -0.6057962 -0.42613938 -0.9569898
-6.1671863 -1.4711664 0.032960854 -2.479268 -1.3864695 -0.9243464 -1.6625054 -0.80926967
-0.47649395 -1.1139371 -2.890433 -1.2004198 -1.3409379 -1.522208 -0.9329635 -0.00364403
-1.8418854 -0.0034334173 -4.18369 -0.68728715 0.1651633 -1.9998207 -1.3401561 -1.9574248
-4.508526 -0.44517797 -2.1328902 -1.1478766 -0.9036319 -4.0335712 -1.0011212 -1.3657318
-0.09647429 -2.1884394 -1.1362951 -0.19252433 -2.5137224 -1.0959684 -0.51102555 -5.1484523
-1.2869214 -2.3295484 -2.5149002e-05 0.07304283 -0.95414454 0.05746593 -0.18417402 0.15628079
-0.036848404 -0.73615986 -1.8375959 -1.7783537 -0.5336793 -2.0610852 -1.2057132 -0.22308557
-3.5107002 -2.4851277 -0.4549264 -0.4332991 -1.0627141 -0.2737889 -0.0034771638 -0.34326312
-0.92765504 -2.4391956 -0.054293767 -0.25552797 0.2365941 -0.43241665 -0.43966293 -0.4203363
-0.21164376 -0.62236005 -0.16333355 -0.18256399 0.18073535 -4.42498 -0.20742276 -1.9649271
-1.7399627 -1.0228113 -0.19594985 -0.16348228 -2.8066535 -1.5939064 -0.44029784 0.22859004
-5.142497 -1.2783692 -0.4954004 -1.7044904 -0.22795074 -3.3020167 -1.7764144 0.048700232
0.12159462 0.056972437 -0.20955683 -2.2995865 -0.62058926 0.2707596 -0.21378748 -1.8275306
-0.668055 -4.044817 -0.31626627 -2.1937597 -1.2141393 -0.9612993 -1.3304783 -0.24662565
-0.87965214 -3.5057123 -0.088398844 -0.39673287 -0.09147337 -1.960656 -0.42182457 -0.89917433
-0.69716066 -0.031412832 -1.3681335 -2.1060903 -0.28697807 -1.1054814 -0.4417414 0.16206047

model.1.running_mean f4 [832]
00000000: f9c7 343c fddf 013c 4e58 2d3a dfcd 96bb
00000010: caf1 d03b 81b7 4f3b f8d0 b93c 3baa f838
00000020: b557 632e 085a 9c37 d830 bd3a b17b 6bb9
00000030: f29c d5ba 55f3 4bbc 64da cf38 455f 1cbc
00000040: 9e34 2cbc f0b7 323c f3cb 0b3c 1af6 cc3b
00000050: bb31 f4ba ca78 953c 9894 73bb f14d 8bbc
00000060: bdc5 4fbc e335 963c fb5e 53bc dbc5 27bb
00000070: 4166 35bc 856c d93a 9754 7c3c 0d5f 97bc
00000080: 8084 503c 0bce 30bc 6539 543b 6464 8abb
00000090: 40a8 7dbb 4195 ccbb 8b0d 373b bb98 d7ba
000000a0: c5e6 08bc ef3d 0333 57d9 813c a40a 773c
000000b0: 073e 383c 90b2 c6bc 64e6 3d3c 26d3 b83c
000000c0: 58b2 fdbb eb55 093c 2fd2 a3bb 172e d1af
000000d0: ccd8 33bc c133 75bc 237a 1d39 42e9 dd3a
000000e0: b210 703c 53b6 19bc 3e61 4e3b 5e3f 113c
000000f0: 21d3 d43b 8cd9 113b 3b16 50bb 16fb e236
00000100: 94fb 6939 0152 27bc 35cb 73ba 2182 c5bc
00000110: 379e 09bc 77f7 08bc 3bed ecbc 1586 57bc
00000120: cdf5 46bc befa b43b 3fb7 57bc d348 82bc
00000130: 2bbe 28bb afd3 f9b8 5355 8bbb 629c ae33
00000140: 3768 143c 49b4 a7bb 86af feba 6348 c3ba
00000150: e3a0 593c 22db a739 60b3 c23b 4b55 1738
00000160: b37b 45ba 67de f5ba 882c ecbb 07a9 c13b
00000170: ff90 adbc 80dd d93b 9642 843c 0730 49bc
00000180: c58e a2bc 7c6b b53c e1e9 833a 0d29 873b
00000190: 66c7 fcbb d4a2 b53b 6119 f7bb 28f6 ea3b
000001a0: 5339 223c 4708 c23a 7044 ccbc 3d34 32ba
000001b0: cf5b 683c 8aa6 ae3b 8436 5bbb 40db 863c
000001c0: 9850 c0bc a327 33bc e685 a7bc 64d4 76bb
000001d0: a09e 3c3b 696d aa3b 30b2 643c a679 a23b
000001e0: 5723 5c39 44b6 05bc ce11 05bb de05 22bc
000001f0: 3fb1 833c 90e2 21bc efde d739 bad8 163c
00000200: 6d05 9dbc 01f5 493b 82d8 333c 30bb fabb
00000210: 6074 ccb9 0415 78bc 09bc 04bc e9a2 8abc
00000220: 1016 f43b 2b7f db3b 70f6 f73b 1cce bb3a
00000230: 2f99 9b3a a4a6 57bc cd5e 0fbc 9073 6c35
00000240: 7519 2fbc 7b7c 953b 249b 91bb 982b 123c
00000250: 233a 63bc 83a2 3d3b 2371 783b 5134 20bb
00000260: 9ba3 843b 776f 86bc 182c 93bb 5853 efbb
00000270: d9c2 aabc b1f2 70bc b3ff 653b 8413 d63a
00000280: dd4d b739 a0ab edbb 1605 b93b f1d4 fa3b
00000290: 6e1a 32bc 2d5c 56bb c9d7 443b abcf 8dbb
000002a0: a573 c93b fbd0 70b9 5505 7ba8 a039 993c
000002b0: cd3d ff3b 177f 363c cce3 603a fbf5 77bc
000002c0: 5af8 5836 21aa 9fbb 7a80 00bc e79d d23b
000002d0: d112 a13c 2471 8a3b 957a 5f3b 00fa d0bb
000002e0: 0a34 71bc 4ec0 cf3c 3806 8a3a 5554 2a3c
000002f0: 572f 743b b7d2 c53a 309b e630 6f7a 9abb
00000300: 4452 d0bb b232 4fbb 0319 b53a 71ec ccbb
00000310: b22e 61bc 1a85 4539 5974 303b 747c 8f3b
00000320: cc2a 39bb 26ab a5bc ee1b 2abc 4421 e1bb
00000330: d5a3 a3bc 4d23 1cbc d57f 08bb b78c df3b
00000340: ca77 433c ce53 713a 218b b3bb b617 21bc
00000350: d321 3c3b 5af4 ff3b 544c a03b 5c4b d8bc
00000360: 7ec4 81bc 9177 6fbb ea2b 80bc f045 aabc
00000370: 96a9 f1bb e4d2 663c d195 a8b9 ae57 febb
00000380: 925c 48bc 7406 a13c 2517 373c 5b8a 113c
00000390: 48e7 e9bb 0e68 8f3c 315a 7b3c c507 37ba
000003a0: f73e 2239 9668 c63b 062a 2e3c 3b53 33bb
000003b0: 9e10 ec3b 8d07 86bc 6d10 073a 208a db39
000003c0: 42e5 c8bb 88f5 b9bc 9ff9 39bc 28f9 663c
000003d0: 3182 a0b8 1bbe ed3b a132 6d3b 6e7d 763c
000003e0: 6d02 423c b3e4 7c3a ae4f 013b 00b6 803b
000003f0: fff1 563c d823 83bb 972b c33b 9906 d4bb
0.011034005 0.007926938 0.00066125847 -0.0046021785 0.0063764798 0.003169507 0.022682652 0.000118572694
5.1691724e-11 1.8638573e-05 0.0014434112 -0.00022457425 -0.0016297384 -0.012448152 9.9112076e-05 -0.009544198
-0.010510592 0.010908112 0.008532512 0.0062549235 -0.0018630543 0.018246073 -0.0037167426 -0.017004939
-0.012681422 0.018336242 -0.012901063 -0.0025600109 -0.0110717425 0.0016588127 0.015401027 -0.018477941
0.012726903 -0.010791312 0.0032382843 -0.0042233933 -0.003870502 -0.0062433784 0.0027931656 -0.0016448715
-0.008355801 3.0557143e-08 0.015850706 0.0150782205 0.011245257 -0.024255067 0.011590574 0.02256162
-0.0077422075 0.008382301 -0.004999421 -3.8049627e-10 -0.010976981 -0.014965952 0.00015018186 0.0016930478
0.014652418 -0.009381848 0.0031491066 0.008865206 0.006494895 0.0022254912 -0.0031751532 6.764555e-06
0.00022314332 -0.010212422 -0.00092999946 -0.024109902 -0.008399538 -0.0083597815 -0.028921714 -0.013154526
-0.012143564 0.005523055 -0.013166248 -0.015903866 -0.0025748115 -0.000119126744 -0.004252115 8.130952e-08
0.00905805 -0.005117927 -0.0019430972 -0.0014898892 0.013282987 0.0003201599 0.0059417933 3.608064e-05
-0.0007533386 -0.0018758298 -0.007207457 0.005910042 -0.021187304 0.0066487193 0.016145032 -0.012279517
-0.019843468 0.02214598 0.0010064208 0.0041247667 -0.0077142 0.0055430923 -0.007540867 0.0071704574
0.0099013625 0.0014803492 -0.024934977 -0.0006797945 0.014182045 0.0053299116 -0.0033449242 0.016461968
-0.02347593 -0.010934743 -0.02044959 -0.0037663216 0.0028781071 0.005201031 0.013958499 0.0049583493
0.00020994 -0.008161131 -0.0020304802 -0.009889094 0.016075728 -0.009880677 0.00041174094 0.009206945
-0.019167626 0.00308162 0.010976912 -0.007651709 -0.00038996618 -0.015141729 -0.008101472 -0.016923385
0.007448919 0.006698509 0.0075672194 0.0014328393 0.0011871214 -0.013162289 -0.00875063 8.8085017e-07
-0.010687222 0.0045619584 -0.004443543 0.008921526 -0.013868841 0.0028935976 0.0037909232 -0.0024445246
0.0040478236 -0.016410572 -0.0044913404 -0.0073036365 -0.020844864 -0.0147063 0.0035095036 0.001633272
0.00034962493 -0.0072531253 0.0056463582 0.007654779 -0.010870559 -0.003270875 0.0030035845 -0.0043277345
0.006147819 -0.00022966035 -1.3934455e-14 0.018704236 0.0077893496 0.011138699 0.0008578866 -0.01513433
3.2331068e-06 -0.004872576 -0.007843131 0.006427515 0.019662293 0.004224913 0.0034100164 -0.0063774586
-0.01472188 0.025360253 0.0010530418 0.010396083 0.0037259662 0.0015092705 1.677881e-09 -0.0047143023
-0.006357463 -0.003161591 0.0013816658 -0.006253772 -0.013744043 0.00018836968 0.0026924817 0.0043788496
-0.0028254269 -0.020223211 -0.0103826355 -0.0068704206 -0.019975582 -0.009529901 -0.0020828147 0.0068221944
0.011930415 0.0009205908 -0.005479232 -0.009832313 0.0028706684 0.0078111114 0.0048919115 -0.026403122
-0.015840765 -0.0036539773 -0.01564594 -0.020785302 -0.0073749525 0.014088366 -0.0003215508 -0.007761917
-0.012229102 0.019656397 0.011174952 0.008883084 -0.0071381666 0.017505672 0.0153413275 -0.0006982054
0.0001547298 0.006054948 0.010630136 -0.0027362842 0.0072041294 -0.016361022 0.0005152289 0.00041873846
-0.0061308453 -0.022700086 -0.011351018 0.014097489 -7.6536446e-05 0.0072553284 0.0036193507 0.015044553
0.011841399 0.0009647116 0.001973133 0.003927946 0.01311922 -0.0040020756 0.005956124 -0.006470513

model.1.running_var f4 [832]
00000000: de51 9441 c33e c141 1a6a 8641 30be 2341
00000010: 7ef0 8541 aa4c f540 9f1c 8641 7a94 1f3b
00000020: 74f8 8127 d3f7 5841 f6a1 6a41 cb44 683b
00000030: 239f 6441 df06 6d41 939e 143a cb77 5341
00000040: 8b93 9341 6d75 1a41 e3f6 da41 b4cd 9441
00000050: 3752 9141 0750 c141 c055 823e 33b9 5c41
00000060: cd47 8941 4439 ac41 f8ff 5941 24b3 6241
00000070: 1c26 0741 33fe ab41 a91c 0741 205b 6b41
00000080: 02db 4541 a624 9041 8c29 5241 42f7 5841
00000090: b65b 5f41 5dc4 7d40 c67e 8641 e001 ab41
000000a0: 6929 6641 89af bb2f 2fcd 0441 3dca ac41
000000b0: 0241 4841 235d cf41 9576 f040 ac91 8341
000000c0: 0971 4741 8129 3640 622b 6141 1080 b827
000000d0: 8ad5 c140 b326 6c41 4c3e 3e3d 4612 7441
000000e0: f65a 3441 204e 8141 34ab 8941 e08a 3341
000000f0: 633d 5041 9d2a 5641 16e4 9c41 f516 b936
00000100: d77e 8041 7758 a841 1c0e 8141 1472 c741
00000110: 6998 7b41 c4be 6041 921c 9f41 e866 d341
00000120: fcb9 7641 bddb a741 4f05 8041 aa87 4241
00000130: 26f4 3541 0221 1a3a 8c4a 6741 ec6c 462f
00000140: c559 ca41 6204 8541 c67d 4441 bc2d 5b41
00000150: 9f1b c041 b0fe f73b d308 7d41 8dac 8438
00000160: f06f 9d40 d11c 9941 2121 7641 8d7a 4741
00000170: 4602 3d41 419c 5d41 3fc2 5341 65f4 1841
00000180: 0fd2 7941 651d 3b41 6f77 0b41 de43 0441
00000190: ede3 0341 f935 3641 be19 3741 afc6 6441
000001a0: 219a 8141 dbaf d440 7597 d041 4acd 4241
000001b0: ea20 7f41 f1f8 1141 3088 7b41 0c3e 2541
000001c0: 1ed4 4941 8b1d 4341 4ebb 4241 3638 5041
000001d0: d5b3 6041 f072 a841 56ec dc41 91ae 4f41
000001e0: 54d2 a03c 7955 a541 27b2 ae41 e786 5341
000001f0: 7db4 6041 4280 8241 80a0 963c cce8 3f41
00000200: ac68 8b41 c48a 0c41 4add 4c41 8884 4d41
00000210: e618 8841 cfe6 8341 7c60 5741 74ec 1341
00000220: f9ec 1740 2123 2041 134c c741 5d92 1341
00000230: f14c 0042 3d45 8241 a204 0941 2f47 db32
00000240: 7b53 4241 1736 e640 150b a841 cdb4 d841
00000250: 90e0 4c41 44d2 4a41 6a22 cc41 6ede 9941
00000260: 33b8 9141 dcbc 4d41 d2b3 8341 4bd8 5541
00000270: 3f58 8f41 1070 7f41 9160 b541 fa8e d140
00000280: 7a36 8841 432e 4d41 ee93 d240 2058 3c41
00000290: c107 5d41 9e23 793f 7e4e 9541 ad7d ac41
000002a0: 4fe5 a041 0b85 8241 2b11 d219 4b7d 4241
000002b0: 9753 2f40 5e08 3141 d496 a43c a569 0c41
000002c0: 697b 1d37 0f9b a440 a19e fd41 43ca 6c41
000002d0: fa27 9a41 b820 8e41 263c 0841 2006 7b41
000002e0: 334f 7241 ba41 4b41 0a34 613e 5552 9b41
000002f0: 543b c041 7aab d53d cdae 542b 7567 8041
00000300: f11b 1541 9670 5141 963b 2a41 2946 1541
00000310: c96c 1841 9406 263e 2a39 6f3e 8dd8 4e41
00000320: 7e6b 5741 4256 9041 0e2d 0141 7d93 dd40
00000330: 0c46 2941 eab9 fb40 4893 aa3e a1a9 9941
00000340: 907a 7441 bef7 4e41 2419 b63f 0fcd 8441
00000350: 4800 e841 ef21 9041 640f a03f 73e8 7541
00000360: 413c 8741 4a1b 0441 6207 7741 42bf 9741
00000370: 7f55 a240 024d ef41 7369 9841 77fe 0541
00000380: 1597 5541 10d5 8e41 0757 1841 53f9 9e41
00000390: 7419 5141 4c4b 8d41 f44d 1841 3abf 2141
000003a0: dc07 aa3f ec04 9241 d0d0 8c40 faef be41
000003b0: 5cc9 9d41 730a 8a41 8432 6f41 002b b83b
000003c0: b297 c441 5478 d040 e3fa cc40 dd4e 7541
000003d0: 17ec 5f39 3f66 7641 2cb9 043f f68d e041
000003e0: 1b0d a341 2104 9f3d 9779 4f41 52c7 8441
000003f0: fbec 5a41 ea5b d340 15bb 6d3f cb44 3041
18.539974 24.155645 16.801807 10.2339325 16.742428 7.6656084 16.763975 0.0024349974
3.6074066e-15 13.560504 14.664541 0.0035441394 14.288852 14.8141775 0.00056693814 13.216746
18.447042 9.653668 27.37055 18.600441 18.165144 24.164076 0.25456047 13.795215
17.160059 21.527962 13.624992 14.1687355 8.446804 21.49912 8.444497 14.709747
12.365969 18.017895 13.135143 13.560366 13.95989 3.96511 16.811901 21.375916
14.38511 3.4139827e-10 8.300094 21.59875 12.515871 25.920477 7.5144753 16.446129
12.465096 2.8462832 14.0730915 5.1209105e-15 6.057317 14.759448 0.04644613 15.254461
11.272207 16.163147 17.208595 11.221405 13.014987 13.385404 19.61137 5.516102e-06
16.061934 21.043196 16.13189 24.930702 15.7247095 14.046574 19.88895 26.425247
15.420406 20.982294 16.002592 12.158121 11.372107 0.00058795523 14.4557 1.8046692e-10
25.293833 16.62714 12.280706 13.698666 24.013487 0.007568203 15.814654 6.3263906e-05
4.9199142 19.13907 15.383088 12.46742 11.813055 13.850648 13.234923 9.559667
15.613784 11.694676 8.716659 8.266569 8.243146 11.388177 11.443785 14.298507
16.200258 6.6464667 26.073954 12.175119 15.945536 9.123277 15.720749 10.327648
12.614286 12.194713 12.170729 13.013723 14.043904 21.056122 27.615398 12.980119
0.019631542 20.666735 21.836988 13.220435 14.0440645 16.312626 0.01838708 11.994335
17.42611 8.783878 12.804026 12.844856 17.012157 16.4877 13.461056 9.245228
2.3738387 10.008576 24.912146 9.223233 32.075138 16.283808 8.563631 2.5527326e-08
12.145381 7.194103 21.005411 27.088282 12.804825 12.676334 25.516804 19.233608
18.214941 12.858608 16.462803 13.365306 17.918089 15.964859 22.672152 6.548703
17.0266 12.823794 6.580558 11.771515 13.814393 0.9731997 18.663326 21.561365
20.111967 16.314962 2.1720425e-23 12.155589 2.739477 11.064543 0.020091452 8.775792
9.386663e-06 5.143928 31.702456 14.79938 19.26952 17.765976 8.514685 15.688995
15.144336 12.703547 0.21992508 19.415201 24.028969 0.10433097 7.5560115e-13 16.050516
9.319322 13.089987 10.639547 9.329629 9.526559 0.16213447 0.2336165 12.927869
13.463743 18.042118 8.0735 6.924254 10.579601 7.8664446 0.33315492 19.207827
15.2799225 12.935484 1.4226422 16.600126 29.000137 18.01657 1.2504697 15.36925
16.90442 8.256662 15.439302 18.968388 5.0729365 29.912601 19.051489 8.374625
13.349385 17.854034 9.521247 19.87174 13.068714 17.661766 9.519032 10.109186
1.3283648 18.252403 4.40049 23.867176 19.72332 17.255102 14.949833 0.0056203604
24.57407 6.5146885 6.405626 15.331754 0.00021354888 15.399962 0.5184505 28.069317
20.3814 0.077644594 12.967185 16.597324 13.682857 6.60497 0.9286359 11.016795

model.4.weight f4 [32, 832]
00000000: 178b a3bf 1a01 39be e81d 23be cc49 c53d
00000010: 3da4 2fbf f525 7c3d e6f9 2abf a9b2 06ba
00000020: c6ab ed0d d851 86be 0017 273d 6870 7b38
00000030: c375 853c 52b1 c2be 2a88 49ba be22 003f
00000040: f732 0d3e f310 b63d acbc 4a3f e8db 913e
00000050: 27d5 d5be a3b6 8bbe 21ec 2c3b f93b d6bd
00000060: 34a3 77be f3fc f5be bcb1 9fbd 71c8 143e
00000070: 3f2d 0ebe da9c 24bf 247f 393e dc62 a63e
00000080: 50e7 9c3e 7f87 f9be ba4c 46be b271 a13d
00000090: e30b 37be 9a05 c0bd da75 07bd 602d 2f3e
000000a0: 8b6f 8d3e 04ea 26a8 6dd1 053e e73f 03bf
000000b0: 485e d93d f24b 743f 83df 993d 5647 c3bc
000000c0: 0f45 c8be 4f71 173d 160f 61be ebcc ea9c
000000d0: a2af 95bc f6ec b33e 46e9 8a3a 6092 79bf
000000e0: 6ad8 393e 7af6 4fbf 1662 53be 2a54 ddbd
000000f0: 690e 9abb 3ec4 14bd e3a1 5dbe 3649 06b6
00000100: 14cb 0b3e 1877 00bf cbb6 2f3f eb0c 32be
00000110: d3b7 e33e 8415 413d 4d76 60be 1714 46bf
00000120: 658a 09bc 0d4a debe a72c bdbe a440 a7be
00000130: ea45 d8be 4a78 2f3b 4bce 33bf 9dfb a523
00000140: 60b9 c63c 822e 9e3c 7c07 2ebe a7cf abbd
00000150: fd1a 673f d9f0 c1b6 f291 bbbd 245e b52e
00000160: 908d 83bd 8ed5 6e3e 8056 c83e 2fad 213e
00000170: e519 343f 11e0 e1be 26fc 61bf c664 5abe
00000180: 422a e8be d717 21be 1981 98bb 5302 a13e
00000190: 96fd 80be 0944 983e 14e8 513d ad8d 94be
000001a0: 3fbb b43e e530 673e 3c48 bcbe 355e 7a3e
000001b0: 698d fb3e 8f2b 1fbe e8c5 d9bd 3b9b 133f
000001c0: 9d5b 98bc 26e6 0abf 0f14 12bd ae21 ebbe
000001d0: d949 273f c3cd 0ebe 4cd9 88be 828d 99be
000001e0: aa63 f0bb db00 033f 4d0e fb3e be54 023c
000001f0: 1926 0d3e ae91 8fbe 32dc 06bb a0ae 1b3e
00000200: 5bd2 053f 9a2e 09bd 1fe2 273f aacf 01be
00000210: 329e 56bd 68d9 19be 6fc8 babd 1e51 2b3e
00000220: 2ca7 8b3d 03b5 18bd 0d62 54bf 3046 80be
00000230: c284 983e 53c0 2c3e 4c46 c33e 01d6 74a1
00000240: ed58 e8be 54f0 e83e 82c1 d5be bada 04be
00000250: 6cb8 c13e 49f9 a53e 9b2d 9c3e 78c9 3c3f
00000260: 8f1f bf3e b9aa b2be 40db c9be 214b 08bf
00000270: ef5b 95be ef69 5b3e 0ece 8d3e 6b4a d5bd
00000280: 530b 8f3e 61bf 17bf b8a9 ba3c 8bb8 af3e
00000290: 7b80 38bc 7235 983b f512 e53e b52a 553f
000002a0: 5357 08bf fac0 013f 2b0b e623 693a 503f
000002b0: 22aa c2ba e994 03bf a098 4bb9 656b b13e
000002c0: 1472 c1b2 bb01 efbd 96f2 533e 00b7 82be
000002d0: 5088 bc3e fc39 ffbe d938 653e 81c4 b7be
000002e0: 23d6 983d f400 9bbe 0d20 fab9 8e1e d0be
000002f0: cd87 1cbe e927 6d3a d716 b924 389d 2dbc
00000300: c96f 77be c42f 1bbe f359 033d b0cc 33be
00000310: 8bd2 1c3e be1c 9dbd 2ea2 b13c 80d4 3c3e
00000320: fffa 0e3e b5be 7fbd 815d 6bbe 6686 babd
00000330: e7a6 cebe b6c5 003f bc14 ddbc 0043 33be
00000340: 98a8 adbe 250f b1be 9554 633c 54a3 703e
00000350: ec95 563f 8123 e9bc 4776 bbbb 394d b2be
00000360: b798 7dbe 13f2 2b3e ac7d 96be 6d6e 00be
00000370: f873 23be 27da 50bf cd77 a73e 69e8 85bd
00000380: 555b a13e a219 3e3f 9b77 97be 9e47 5b3f
00000390: f200 7f3e dcd3 b33e 7b05 c13e dbff 21bd
000003a0: 81d0 233d c271 2cbf fde3 d73d b1c1 5fbf
000003b0: b568 7a3e fdd6 3ebf f091 b33e 8c81 04bb
000003c0: 74dd 193e e6bf 643f 2077 81bd 4346 923e
000003d0: 8082 95b0 1328 06bf 4c3b 8b3b af31 39be
000003e0: 91a5 81be 46d2 9738 aa2c 66bd 2e61 35be
000003f0: a94e 813d d247 bbbe 8f2f 0a3b 87ad 773d
-1.2776822 -0.18066826 -0.15929377 0.09633216 -0.6860998 0.061559636 -0.66787565 -0.0005138317
1.4647606e-30 -0.26234317 0.04079342 5.994775e-05 0.016291505 -0.3802591 -0.00076878315 0.5005301
0.13788973 0.088899516 0.7919414 0.28488088 -0.41764185 -0.27287778 0.002638586 -0.104606576
-0.24183351 -0.48044547 -0.07797572 0.14529587 -0.13884448 -0.64301836 0.18114907 0.324973
0.30645227 -0.48736188 -0.19365206 0.07883014 -0.17875628 -0.093760684 -0.033071376 0.17107153
0.27624163 -9.265595e-15 0.13068171 -0.5126938 0.10613686 0.95428383 0.075133346 -0.023837727
-0.39115188 0.036973294 -0.21978411 -1.5537791e-21 -0.018272225 0.35141724 0.0010598085 -0.97488976
0.18148962 -0.8123547 -0.20642886 -0.10807069 -0.004701425 -0.036319964 -0.21643786 -2.001017e-06
0.13651687 -0.5018172 0.68638295 -0.1738774 0.44476184 0.04713966 -0.21920128 -0.77374405
-0.008394812 -0.4341587 -0.3694813 -0.32666504 -0.4224084 0.0026774579 -0.70236653 1.7995898e-17
0.024258316 0.019309286 -0.16995043 -0.08389216 0.90275556 -5.7798866e-06 -0.09158696 8.24765e-11
-0.06423485 0.23323652 0.39128494 0.1578872 0.7035201 -0.44116262 -0.88275373 -0.21327505
-0.4534474 -0.1573175 -0.0046540615 0.31447086 -0.2519347 0.29739407 0.051246718 -0.2901434
0.35299107 0.22577246 -0.3677386 0.2445 0.49131325 -0.1554396 -0.10633451 0.5765874
-0.018598372 -0.5425743 -0.03566366 -0.45924133 0.6534706 -0.1394568 -0.26728284 -0.29990774
-0.0073360996 0.5117318 0.49034348 0.007954774 0.13784064 -0.28040832 -0.0020578024 0.15203333
0.522741 -0.03349171 0.6557941 -0.12676874 -0.05239696 -0.1502434 -0.09120261 0.16730163
0.06818995 -0.037282 -0.82962114 -0.2505355 0.29788786 0.16870241 0.3813957 -8.295365e-19
-0.45380345 0.45495856 -0.41749197 -0.12974063 0.37836015 0.32416752 0.30503544 0.73744917
0.37328765 -0.34895876 -0.39425087 -0.5323964 -0.29171702 0.21427129 0.2769627 -0.10414585
0.27938327 -0.59276396 0.022786006 0.34320483 -0.011261101 0.004645043 0.44741026 0.8326829
-0.53258246 0.50685084 2.494138e-17 0.81339127 -0.0014851729 -0.51399094 -0.00019416446 0.34652248
-2.2520034e-08 -0.11670252 0.20698008 -0.25530243 0.36822748 -0.49848926 0.22384967 -0.35892108
0.07462718 -0.30274165 -0.00047707596 -0.4064831 -0.15286179 0.00090467796 8.026965e-17 -0.010596566
-0.24163736 -0.1515494 0.032068204 -0.17558551 0.15314691 -0.07671498 0.021683779 0.18440437
0.13962935 -0.06243773 -0.22984888 -0.09107666 -0.4036171 0.5030168 -0.026987426 -0.17506027
-0.3391769 -0.34581867 0.013875146 0.23499805 0.8382251 -0.028459312 -0.005720887 -0.3482454
-0.24765287 0.16791563 -0.29392755 -0.12542124 -0.15962207 -0.81582874 0.32708588 -0.06538469
0.31514993 0.7425786 -0.2958344 0.85656154 0.24902704 0.35122573 0.37699494 -0.039550643
0.039993767 -0.6736108 0.10541532 -0.87404925 0.24454005 -0.74546796 0.3507228 -0.0020218818
0.15025884 0.89355314 -0.063215494 0.2856923 -1.0878267e-09 -0.524049 0.004249012 -0.18085359
-0.2532163 7.2394076e-05 -0.05619494 -0.17712852 0.06313831 -0.36578232 0.0021085476 0.060468223

model.4.bias f4 [32]
00000000: b1c7 96b8 90e6 8739 2265 8d38 e8c2 0c39
00000010: ed55 d5b8 5c0f 4239 aa37 6d39 7053 0839
00000020: 7cc1 6339 9a35 19b8 c00a 69b7 69ee 033a
00000030: b4de 1f39 acf5 1439 ac8b 8c37 3651 0639
00000040: 37cb b638 afdb 4e39 d078 13b8 2a31 5439
00000050: ecc8 adb8 6bf9 0139 3992 7eb9 ea64 a8b9
00000060: 4403 003a dd4f dc38 3109 87b9 b19e 87b8
00000070: 7295 3238 0721 f039 d5da 64b9 20e5 0039
-7.189753e-05 0.0002592099 6.7422414e-05 0.00013424049 -0.000101726364 0.00018507004 0.00022622818 0.00013001054
0.00021720486 -3.6527963e-05 -1.3890385e-05 0.00050327793 0.00015246385 0.000142059 1.675434e-05 0.00012809489
8.716288e-05 0.0001972753 -3.5160047e-05 0.0002023621 -8.2867075e-05 0.00012395314 -0.000242778 -0.00032118644
0.0004883299 0.00010505293 -0.00025756055 -6.46686e-05 4.257769e-05 0.00045800974 -0.00021825296 0.00012292387

model.5.weight f4 [32]
00000000: 3d58 463f 74bb e53f 54ab 7b3f 7998 c73f
00000010: 23a4 f93f 71ed 503f b10d 6c3f 281a d13f
00000020: a5cd a63f 0f6b 0d40 c36e 633f 7b33 e13f
00000030: 6a06 0a40 cfe8 a13f 1d6e ae3f 3614 7a3f
00000040: 54f6 af3f ddf8 d73f 5c2e af3f b197 5b3f
00000050: 99ac a43f 32ce 893f 8f60 a33f fac1 d03f
00000060: 067b e73f a537 793f ee8f 703f 14b0 593f
00000070: 73f4 833f 32a6 aa3f 2847 823f 9d11 d43f
0.7747839 1.7947831 0.983083 1.5593406 1.9503216 0.81612307 0.9220839 1.6336107
1.3031508 2.2096593 0.88840884 1.7593836 2.1566415 1.2649173 1.3627354 0.9768709
1.3747048 1.6872822 1.3686023 0.8577834 1.2865173 1.0766051 1.2763842 1.6309197
1.8084419 0.9735053 0.9396962 0.850343 1.0308975 1.3331969 1.0177965 1.6567875

model.5.bias f4 [32]
00000000: cb09 c53e ef4e 6dbf 0e57 693e 8aa2 69bf
00000010: 5817 01c0 2077 8c3e 7781 513e 060e 47bf
00000020: 64df 91be bea1 25c0 bd8b 8b3e 0e0b 8bbf
00000030: c423 27c0 4060 e2be 64e1 bdbe 0daa 273e
00000040: 7eec 0abf a61a ecbe 2f20 f0be 0ee6 9b3e
00000050: 8bb4 3abe 0bc8 0b3d e320 37be 89df f7be
00000060: 6319 a5bf 14e4 353e 15cc ac3e 9c19 8e3e
00000070: f18d 093d 7969 98be 1973 1f3e 29df 0dbf
0.38484034 -0.9269857 0.22787115 -0.9126364 -2.0170498 0.27434635 0.20459543 -0.77755773
-0.28490746 -2.587997 0.2725505 -1.0862749 -2.611558 -0.44214058 -0.37086022 0.16373463
-0.5426711 -0.4611408 -0.46899554 0.30448955 -0.18232934 0.034126323 -0.17883639 -0.4841273
-1.2898372 0.17762786 0.33749452 0.27753913 0.03358263 -0.2976797 0.1557125 -0.5541864

model.5.running_mean f4 [32]
00000000: b65a 25c0 d2c2 02c1 49ac aac0 6b83 5fc1
00000010: c69e 4bc1 4e5e 35c0 1eed 9bc0 7865 76c1
00000020: 3c68 3fc1 2e82 e4c1 8147 35c0 7087 20c1
00000030: c369 eec1 adf5 3bc1 46e0 31c1 556a fac0
00000040: b04d f9c0 4714 1cc0 bc34 4ac1 c3e9 3cc0
00000050: 067d 1cc1 dc03 25c1 6156 c9c0 48d8 85bf
00000060: 9816 90c1 10ef d0c0 d56c 1bc0 5602 bcc0
00000070: 98fd e3c0 4399 dac0 eaa1 b0c0 a8bf b7bf
-2.5836616 -8.172564 -5.333531 -13.969584 -12.726263 -2.833881 -4.872695 -15.399773
-11.962948 -28.563564 -2.8324893 -10.033066 -29.801641 -11.747479 -11.117254 -7.82548
-7.7907333 -2.4387376 -12.637875 -2.9517677 -9.780523 -10.313442 -6.2917943 -1.0456629
-18.011032 -6.5291824 -2.4285176 -5.875285 -7.1247063 -6.8312087 -5.519765 -1.4355364

model.5.running_var f4 [32]
00000000: d6cf 2043 2b56 9b43 33fa 4443 0a21 1243
00000010: 411a 7a43 20b2 4443 f054 7b43 1fa2 8543
00000020: e760 2a43 253e b643 bce8 3a43 6fb7 8e43
00000030: 981c bd43 b107 2343 f0e9 3243 b9df 5a43
00000040: 3aa8 e942 75fe bd43 d96e 6743 f0ae 4c43
00000050: e21c 2a43 315d 5e43 88fc 0f43 d9d8 be43
00000060: a4b0 5943 d298 6643 b98c 2c43 30c1 4f43
00000070: c933 1943 96b6 1e43 f1c5 3f43 282b c843
160.81186 310.6732 196.97734 146.12906 250.10255 196.6958 251.33179 267.26657
170.37852 364.4855 186.90912 285.43307 378.2234 163.03004 178.91382 218.87392
116.82857 379.98795 231.433 204.68335 170.11282 222.36403 143.98645 381.69412
217.69 230.59695 172.5497 207.75464 153.20229 158.71323 191.77321 400.33716

model.8.weight f4 [1, 32]
00000000: e42a e63e b447 52bf fd20 f13e ebed 573f
00000010: e1e8 acbf 3625 d93e dcf7 fe3e b0ee 3b3f
00000020: d566 113f 12f8 1b40 a4a4 e33e 7789 6dbf
00000030: b05a 0f40 9bb0 0f3f bda3 043f 2b5f ed3e
00000040: 214e 163f f094 39bf 130f 163f 2226 d83e
00000050: 0db8 083f 8e6c e93e a9ec 053f 6c07 3bbf
00000060: 0ee8 913f 4100 e53e cc7d fe3e ff38 e63e
00000070: 50bd e53e de84 0b3f a82f 043f 1f2f 38bf
0.44954598 -0.8214066 0.4709548 0.8434741 -1.3508569 0.42411202 0.49798477 0.73411083
0.56797534 2.437016 0.44461548 -0.9278788 2.2399101 0.56128854 0.51812345 0.4636167
0.58712965 -0.72492886 0.5861675 0.42216593 0.5340584 0.45590633 0.5231424 -0.730582
1.1398942 0.44726756 0.4970535 0.4496536 0.44870996 0.54499614 0.5163522 -0.719469
