models/squat_model.pth (torch, 143933 bytes, 19 tensors)

model.0.weight f4 [192, 19]
00000000: 0b34 1d3d 5b34 9bbc 950b e13c e810 0c3e
00000010: 4e02 04bf 60f2 a2bd 6042 08be 4b1e 15bd
00000020: 1025 37bd 469b 513d 4d39 07be 4096 f5bd
00000030: 3034 00be 2768 85bd a4b9 9ebd f5f5 97bd
00000040: 3509 343e 1feb eabd 8c4a 903e 653d 2e3d
00000050: 7fa1 2f3e 3388 b2bb ddc2 d13c 6302 45be
00000060: f6b7 40bd 22de ddbb 2b72 03be b0ff cdbe
00000070: d70f ebbc 4902 bf3a 0780 4e3e 200c bebd
00000080: 502a d23b e5fd 99bb 5ce2 8b3b c75b 583e
00000090: 9b3e 3cbe cc7c c9bc b8cb e93c 6887 453e
000000a0: 9f70 f83d 7e12 333e 1d54 9fbe 76e5 20be
000000b0: f915 1a3d 65e3 b4bd d8bd 83be 2199 803d
000000c0: 1b48 d03c 0d3b 683e 65f6 333e 7ea6 e3bd
000000d0: b429 d0bd 31a9 763e 6799 2fbe 9f57 c6bd
000000e0: 65a6 583e d1b3 ba3d 2589 813c 70bc 14be
000000f0: 791c b5bc 3c7a d53d df8a c53d 05b3 a1bc
00000100: 7129 073e 13f8 743d 76dc bbbc 1f57 b2bd
00000110: d5e6 82bd c1a5 e0bc 40c6 ac3e d3d6 c4bd
00000120: 9b4e 1b3d a04e 7ebd 84fc 023e 2bdf bfbe
00000130: c96e 163e eea5 033c 5f37 57be ade2 abbe
00000140: 5bde 463d 2403 c83d 77c5 3e3e c438 e03d
00000150: afd8 553e e374 80bd 1547 6b3c d746 3ebe
00000160: c51b 95be 0d4b 543c b5e1 e4bc a4a0 efbd
00000170: 4f23 483e 7dfd 74be 5987 9abd 06e1 6e3e
00000180: a5db 5dbd 24bf fc3d 1a21 16bf edf9 a2bb
00000190: 5282 2a3b 28e2 e73d 6ba6 b73c 8844 0f3c
000001a0: e0b8 d43d c381 babd 74ff 83bd 91ef dabb
000001b0: 37db 05bd 7ba9 e43d 7579 ff3c 0f20 87be
000001c0: 09e0 d43d 8624 0dbe f5ad 5bbc 5f86 1cbd
000001d0: 1362 c7bc 41a2 dfbe e8a2 45bc d054 eabb
000001e0: 8f94 d43b 70a4 4f3c 36cc de3d c2f7 4b3c
000001f0: 2ffe 65bc 821e 98bc 3783 60bd 1e90 e83e
00000200: 7eb9 30bc 9150 033d ac68 5bbe 956e 3dbd
00000210: ccd6 2fbd e023 c53d 7642 fb3a f69e e8bd
00000220: 9424 303d ea46 433e c4d3 0b3e 8de5 a03e
00000230: 522d b13d c864 183d ed0a c8ba cd63 743a
00000240: 5b46 b8bc dc45 01be 800b 693e e1dc 70bc
00000250: 3d93 c5bd a44e 35be e146 463e f191 92be
00000260: 0850 c1bd a716 ee3d 78e7 01be 8f50 16be
00000270: 10b6 a83d c0e1 5bbe 08a1 2dbe e3b8 b23e
00000280: dc30 783d ee7e abbd 5e7f adbd 9102 67be
00000290: 5809 6cbe 282f 39be 8790 efbd 1f4a 9f3d
000002a0: 216d 09be d1e9 e0bc 121b dfbd cf67 443e
000002b0: 5c45 7e3c 069d 623e 6505 233e 42fc 313e
000002c0: 1da8 bbbc 0e2e 8b3c 5dbf 15be 6c4f b73e
000002d0: 6f06 27bd 2cf8 f53d c2e9 373d b688 70be
000002e0: 311e a53c ecc6 c03d 2cad 063e 3ede 61bd
000002f0: 2bb8 5f3d b403 31be 08c9 2fbe 125a 233e
00000300: 54d2 1d3e 5de3 673d 8054 05be a575 adbc
00000310: 0bbf 95bd d936 0abe f3d1 d0be fcef 8dbd
00000320: 08e4 a83c 1077 8abd eb4e 9b3e 4199 a4bd
00000330: d6f4 4cbd 350f 073e b088 393d df16 f8bd
00000340: f370 2ebd 6222 40be 3c33 73be d563 c5bd
00000350: ef84 ef3d 9905 383e 4bd5 183e 7214 083e
00000360: 5090 a33c 6ef2 5b3e a7f0 6e3c 246e b03d
00000370: c9cf 52bd 1214 85bd 9691 edbd 791a 13be
00000380: 5b45 1c3e 716d 813e d019 9e3d c84c a6bd
00000390: 567f 483c 8ec7 c3be fa13 18bd aba7 9fbd
000003a0: 4486 b2bd cd13 cdbd eaf1 d43d 91ca 8a3d
000003b0: fdaa 3a3e 970f b0bd 8cc6 673c 9459 11bd
000003c0: c75f 62be d7d1 d23e 6b49 873d a280 9e3d
000003d0: f7c7 393d 1b5a 08be 4028 cebd eb10 783d
000003e0: 26b1 9cbc c734 30be 2e6d d7be cc51 efbc
000003f0: 9237 a33d 974c ed3c ea0c a93d c476 be3d
0.03837971 -0.018945863 0.027471343 0.13678324 -0.51566017 -0.079563856 -0.1330657 -0.036405843
-0.04471308 0.05117347 -0.13205452 -0.119915485 -0.12519908 -0.06514006 -0.07750252 -0.074199595
0.17581637 -0.11470627 0.28181875 0.04253902 0.1715145 -0.005448365 0.025605613 -0.19239192
-0.04705044 -0.006770865 -0.1283652 -0.40234137 -0.028694076 0.0014572825 0.20166026 -0.092796564
0.0064137354 -0.004699456 0.0042689275 0.2112876 -0.18383257 -0.02459564 0.028539523 0.19289935
0.12130856 0.17487523 -0.3111886 -0.15712532 0.03761861 -0.088324346 -0.25730777 0.06279207
0.025425008 0.22678776 0.17574461 -0.1111574 -0.10164204 0.24087979 -0.17148362 -0.09684681
0.21157224 0.091163285 0.015812466 -0.14525008 -0.022108303 0.10423705 0.09645628 -0.019738683
0.13199402 0.059806895 -0.022932272 -0.08708023 -0.06391684 -0.027422788 0.33745003 -0.09611287
0.03791676 -0.0620867 0.1279164 -0.3747495 0.14690699 0.008035166 -0.21017216 -0.33571377
0.0485519 0.09766224 0.18630014 0.10948327 0.2088344 -0.06272294 0.014360209 -0.18581711
-0.2912275 0.012957347 -0.027939657 -0.11700562 0.19544719 -0.23924823 -0.07545347 0.23328027
-0.054164547 0.12341145 -0.5864426 -0.004973641 0.0026017618 0.11322433 0.022418221 0.0087443665
0.103868246 -0.09106781 -0.06445208 -0.0066813906 -0.032679763 0.11165138 0.031185845 -0.26391646
0.10394294 -0.13783464 -0.013408174 -0.038214084 -0.024338758 -0.43678477 -0.012062766 -0.0071512237
0.006487436 0.012673482 0.10878794 0.012449207 -0.014037653 -0.018569235 -0.054812636 0.45422453
-0.010786412 0.032059256 -0.21426648 -0.046248037 -0.042929456 0.09625983 0.0019169587 -0.113584444
0.043003634 0.1907002 0.13655001 0.31425133 0.08651222 0.037205487 -0.0015262045 0.0009322733
-0.022494486 -0.12624305 0.22758293 -0.014701099 -0.09647224 -0.1770578 0.19362976 -0.2862697
-0.09439093 0.11625414 -0.12685955 -0.14679168 0.08237851 -0.21472836 -0.1695596 0.34906682
0.06059347 -0.08373819 -0.08471559 -0.22559573 -0.2305044 -0.18084395 -0.11697488 0.07777809
-0.13420536 -0.027455242 -0.10893835 0.19180225 0.015519466 0.22130212 0.15920027 0.17381385
-0.022907311 0.016989734 -0.1462378 0.35802782 -0.04077762 0.12010226 0.044900663 -0.23489651
0.020155998 0.09412941 0.13151997 -0.055143587 0.054618996 -0.17286569 -0.17166531 0.15952328
0.15412265 0.056613315 -0.13020515 -0.021174261 -0.07311829 -0.13497485 -0.4078518 -0.06930539
0.020616546 -0.067609906 0.30333647 -0.08037043 -0.05003818 0.13189395 0.04529637 -0.12113737
-0.042588186 -0.18763116 -0.23750013 -0.09638182 0.11695277 0.17970885 0.14925115 0.1328905
0.019966274 0.21479198 0.014583743 0.08614758 -0.05146769 -0.06497969 -0.11600034 -0.14365567
0.15260832 0.2527881 0.07719767 -0.081201136 0.0122373905 -0.38238186 -0.037128426 -0.07795652
-0.087170154 -0.10013542 0.10397704 0.06776918 0.1822929 -0.085967235 0.014146458 -0.03548582
-0.22106849 0.4117572 0.066058 0.077393785 0.045356717 -0.13315623 -0.10066271 0.06056301
-0.01912744 -0.17207633 -0.42075485 -0.029213808 0.079695836 0.028967185 0.08254416 0.092999965

model.0.bias f4 [192]
00000000: 1eaa 21b9 b81b d438 efda a7b8 5e9e 7539
00000010: f0c3 60b8 9cc7 acb9 a974 0c3a e64e 23b9
00000020: a992 cf38 b21f 6cb8 845e 4d39 9cb8 8539
00000030: f046 bcb7 4404 b339 a99b 3638 5144 2db8
00000040: 31fa a3b8 58a2 3239 fe17 f039 1b61 2338
00000050: 483c 20b9 1b5b d1b9 cfbc d639 12f8 d436
00000060: ab26 d938 eb31 75ba 9410 9a36 dc24 1a39
00000070: e279 d5b9 3f31 43b9 7016 e737 4193 aab9
00000080: d4ea 32b9 505f 2db7 5c16 8db9 7d60 b0b8
00000090: d319 b239 0e5a d5b8 51d7 0a39 719e abb8
000000a0: 831c c238 38d7 66b7 d14d 2439 b5c8 343a
000000b0: 53a5 d5b9 caa8 8f38 44d1 6738 93e5 98b9
000000c0: 6129 20b9 de04 6839 61cb 0fb9 dbe0 a3b6
000000d0: 3603 2b38 0d7b 9db8 c2bc 3ab8 b9e7 5838
000000e0: 189a 5239 3024 0c39 f4d9 7539 3462 dbb8
000000f0: 3dc4 1bb9 37fd 6e39 3037 5539 aa0e 1a39
00000100: 3b6f 9db9 0bb6 46b7 380a d337 5f26 0b39
00000110: 70df 3139 aac8 9e38 cf07 9539 e7f8 1039
00000120: f6e9 42b9 eba3 58b9 9019 c638 301e f636
00000130: 822b f7b8 cb21 1bba 38c2 c638 a40f c8b8
00000140: b0cf d8b8 f74f 1939 25f4 3db9 f7be 8138
00000150: 1180 c7b8 58bb fb38 0191 e639 738a e1b8
00000160: fe8c a839 cc30 1e39 3fb2 7739 38d8 35b7
00000170: 5478 8e38 00bd 9239 fa61 0439 0400 cfb7
00000180: ac23 9036 d4ca 2937 14a0 22b9 c376 7739
00000190: b33d 0639 fa7a 78b9 2ffc 78b9 8032 2339
000001a0: 481e c036 b63b 5cb8 2c03 48b8 3d6c 73b8
000001b0: acbc 9337 f89f a9b5 c4dd d638 682c 29b9
000001c0: 6b14 a838 56f8 a0b8 6aff 6939 62a4 31b8
000001d0: 4308 c738 3aff 20b8 33b6 60b9 3506 eab8
000001e0: eccd 5e39 3dd1 f7b8 5c05 2838 a997 1638
000001f0: 4100 1538 f8c6 0238 7e7e 2ab8 1050 dcb7
00000200: a281 9db9 d238 74b9 9e7e 9ab9 412c ad38
00000210: 2a26 4439 2837 c138 dfc7 4aba 7c2c 8438
00000220: 1d27 1837 12f7 2439 d33b 05b9 d7d2 48b9
00000230: c24a 05b8 4571 c8b8 78fb afb8 35ea 8137
00000240: b61e 85b9 1895 4c38 9250 ffb7 0951 50ba
00000250: 78f9 09b8 6a52 c9b8 3ded 47b8 1330 da38
00000260: 42ce 9b37 e75d 06b8 4d1f f7b8 07b6 2139
00000270: 14b7 8938 3fe2 f138 5802 4838 a079 2739
00000280: 32e2 9cb8 bee3 8bb9 aebd 9136 e60e 8238
00000290: 062b 8739 7a8c 67b7 b233 1339 add0 97b9
000002a0: aed7 9c39 04e5 5339 f882 a838 946c 6639
000002b0: b6c7 8039 19db 1839 9040 1339 187e 3239
000002c0: f696 5e39 08d2 a739 46b5 8b39 84cd 6e38
000002d0: 7234 54b9 a008 f637 ce61 b9b8 9264 0c39
000002e0: 6226 cd39 3957 2d39 5b2f 1939 7479 6639
000002f0: 72a3 1739 fe5f 7ab9 4840 23b9 7b28 d5b7
-0.0001541753 0.00010114111 -8.00396e-05 0.00023424017 -5.3588243e-05 -0.00032955117 0.000535796 -0.00015574283
9.897847e-05 -5.6296303e-05 0.00019585533 0.00025505282 -2.244438e-05 0.0003414472 4.353715e-05 -4.131004e-05
-7.8190475e-05 0.0001703588 0.00045794243 3.8952665e-05 -0.00015281246 -0.00039931465 0.00040957934 6.3469715e-06
0.00010354569 -0.00093534467 4.5914876e-06 0.00014700316 -0.00040717336 -0.00018614995 2.7547794e-05 -0.0003253464
-0.00017062883 -1.0333795e-05 -0.00026910275 -8.410306e-05 0.00033970046 -0.000101734055 0.00013240917 -8.1834274e-05
9.2559516e-05 -1.3759178e-05 0.00015669248 0.0006896363 -0.00040749702 6.850211e-05 5.5269586e-05 -0.00029162745
-0.00015274204 0.00022127057 -0.00013713307 -4.883955e-06 4.0772567e-05 -7.5092634e-05 -4.452165e-05 5.171422e-05
0.00020084565 0.00013364921 0.00023446215 -0.000104610255 -0.00014855056 0.00022791779 0.00020333822 0.00014692047
-0.00030028247 -1.1844105e-05 2.5157919e-05 0.00013270367 0.00016963272 7.571404e-05 0.00028425312 0.00013825634
-0.00018588439 -0.0002066043 9.446137e-05 7.3348856e-06 -0.00011785982 -0.00059178163 9.477552e-05 -9.5396565e-05
-0.000103383674 0.00014621006 -0.00018115396 6.186769e-05 -9.512914e-05 0.00012003508 0.00043977055 -0.00010754624
0.00032148504 0.00015086232 0.00023622157 -1.0838783e-05 6.7935005e-05 0.00027988106 0.00012625 -2.467633e-05
4.295687e-06 1.012041e-05 -0.00015509158 0.00023599998 0.0001280222 -0.00023696935 -0.00023745069 0.00015563704
5.725571e-06 -5.2507698e-05 -4.768667e-05 -5.803652e-05 1.7611623e-05 -1.2638038e-06 0.00010245622 -0.00016133639
8.0146674e-05 -7.675651e-05 0.0002231576 -4.2353182e-05 9.490598e-05 -3.838467e-05 -0.00021430179 -0.00011159146
0.00021248282 -0.000118168515 4.0059313e-05 3.590403e-05 3.5524605e-05 3.117972e-05 -4.0648963e-05 -2.6263326e-05
-0.00030041958 -0.0002329082 -0.00029467506 8.257526e-05 0.00018706234 9.213231e-05 -0.00077354716 6.302536e-05
9.069013e-06 0.000157323 -0.00012706155 -0.0001915203 -3.1779295e-05 -9.557841e-05 -8.39149e-05 1.548706e-05
-0.00025390618 4.8776245e-05 -3.0435887e-05 -0.00079466455 -3.289568e-05 -9.599778e-05 -4.7666243e-05 0.000104040046
1.8573486e-05 -3.2035543e-05 -0.00011783708 0.00015421967 6.56677e-05 0.00011533917 4.76859e-05 0.0001597167
-7.480792e-05 -0.00026681827 4.3434184e-06 6.201658e-05 0.00025781262 -1.380138e-05 0.0001403827 -0.0002895644
0.00029915333 0.00020207843 8.035259e-05 0.00021974958 0.0002456286 0.0001457747 0.00014043064 0.00017022376
0.00021227807 0.00032009208 0.00026647205 5.6935023e-05 -0.00020237433 2.9329502e-05 -8.839705e-05 0.00013388906
0.00039129244 0.00016531059 0.00014608858 0.00021979754 0.0001446137 -0.00023877618 -0.00015568838 -2.5410429e-05

model.1.weight f4 [192]
00000000: 1167 673f 5692 753f 5598 483f d42c 7c3f
00000010: 89b2 7a3f 4073 8a3f 9ca8 863f b38d 833f
00000020: 67cb 703f 784d 603f 7f23 6d3f b05c 763f
00000030: 81e7 753f cf5c 883f 1e48 693f d54e 753f
00000040: 4ab0 653f 9a54 683f 24b0 7b3f 9574 693f
00000050: 732b 593f d264 7e3f fb36 843f 29de 763f
00000060: 3357 713f 0282 863f 4698 553f 16a1 743f
00000070: 198f 593f a908 6f3f 20cc 623f dec2 873f
00000080: ee0f 8b3f ed5a 6f3f 9cd7 683f 75ce 653f
00000090: 9506 6c3f c423 603f 6ced 5c3f 2e60 623f
000000a0: 6ecf 5f3f 9522 843f f5f6 5f3f f5e7 813f
000000b0: 2070 793f 891a 623f cff2 653f 4c46 7d3f
000000c0: d94f 803f 6ee4 6e3f 5b6f 703f db12 7f3f
000000d0: 3a9a 6e3f 5c4d 623f ac44 753f 75cd 7f3f
000000e0: b848 673f 44e3 623f 9116 6b3f 9031 753f
000000f0: f280 753f 15db 703f 4613 783f cb2a 6a3f
00000100: a27f 7e3f f054 5e3f e8d3 843f dde2 723f
00000110: 6ac7 673f 6d97 5d3f 2ba6 833f d2b4 703f
00000120: 2e1a 793f a464 843f 65d5 753f 7a46 763f
00000130: 3411 693f c5be 993f e7cd 6c3f 3426 803f
00000140: 81fd 4f3f d30f 5a3f 3aa6 713f bacf 5c3f
00000150: 29c4 743f d47c 813f 871b 773f ea66 6f3f
00000160: e2d5 6c3f cf8c 803f 4d41 803f 3eb6 683f
00000170: 367a 753f 00ca 693f 4167 5a3f cd3f 763f
00000180: 9391 7c3f 0e85 613f c446 7c3f 6ca2 623f
00000190: 8689 843f 9603 6c3f 1ac5 5c3f 8016 813f
000001a0: 0ff3 6b3f 5fa0 803f a8e4 773f 2ca2 653f
000001b0: 2cb5 763f 203a 603f 1198 5d3f b5d3 6c3f
000001c0: 3723 813f a20a 733f 43b3 703f 9d64 683f
000001d0: 9283 6e3f 0697 5f3f e369 6a3f 10a9 723f
000001e0: 1eda 5c3f aae5 703f c0b1 5c3f 640c 723f
000001f0: 5304 773f a321 713f 22ba 5f3f 6054 783f
00000200: ee3c 743f 5cb7 673f 33fe 6d3f c128 723f
00000210: 9cde 723f 17a1 693f cb9c 683f 42f1 663f
00000220: b395 5d3f 1b16 663f fc01 6c3f a2b2 823f
00000230: 284b 773f 5b7d 6e3f 29cc 643f c386 7c3f
00000240: 0372 773f de22 773f 68d0 643f b219 893f
00000250: b745 663f 5704 723f e510 773f bc88 703f
00000260: ff1a 853f 77de 6e3f 3339 653f d717 863f
00000270: e604 583f 3e96 683f 146a 5e3f 4c0f 6d3f
00000280: d620 5d3f 58c7 843f 8c4d 6c3f c286 733f
00000290: a621 5c3f ce50 643f 2493 603f e842 683f
000002a0: 4abb 6d3f 2803 703f 3661 653f 4a2b 653f
000002b0: 3462 753f 14e0 743f d1e3 7e3f 957c 813f
000002c0: 3adb 693f 8d96 803f ff7b 583f ed1a 543f
000002d0: c8eb 743f dfd0 5e3f edd3 683f 18fa 703f
000002e0: 55ee 493f 48db 733f 66d1 753f 2d93 853f
000002f0: b9fc 803f 531a 743f 5ce3 723f 7084 693f
0.9039164 0.95926416 0.7835744 0.985059 0.97928673 1.0816422 1.0520205 1.0277618
0.9406037 0.8761821 0.9263229 0.9623518 0.9605637 1.0653323 0.9112567 0.95823413
0.8972212 0.9075409 0.98315644 0.91193515 0.84831923 0.9937259 1.0329279 0.9643274
0.9427368 1.0508425 0.83435476 0.955583 0.84983975 0.9337259 0.8859272 1.0606344
1.0864236 0.93498117 0.90953994 0.89768153 0.92197543 0.87554574 0.8629978 0.8842801
0.8742589 1.0323054 0.874862 1.0148913 0.97436714 0.8832174 0.8982362 0.9893539
1.0024368 0.93317306 0.93919915 0.99638146 0.9320408 0.8839929 0.9580791 0.9992288
0.90345335 0.8862803 0.9183131 0.9577875 0.9589988 0.9408429 0.9690441 0.91471547
0.994135 0.86848354 1.0377169 0.94877416 0.90538657 0.8655918 1.0285085 0.9402591
0.9730557 1.0343213 0.9602874 0.9620129 0.91041875 1.2011343 0.9250168 1.0011659
0.8124619 0.85180396 0.94394267 0.86254466 0.95611817 1.011622 0.9652638 0.9351641
0.9251386 1.0042971 1.0019928 0.9090308 0.95889604 0.9132385 0.853138 0.961911
0.9865963 0.8809365 0.9854548 0.88529086 1.0354469 0.9219297 0.86238253 1.0084991
0.92167753 1.0048941 0.96833277 0.8970058 0.96370196 0.8758869 0.8656016 0.9251054
1.0088872 0.949381 0.9402353 0.90778524 0.9316951 0.8733982 0.9156782 0.9478922
0.8627032 0.9410044 0.86208725 0.94550157 0.96490973 0.9419195 0.8739339 0.97003746
0.9540547 0.9051416 0.92966 0.94593436 0.94870925 0.9126143 0.9086425 0.9021188
0.8655655 0.8987748 0.9219053 1.0210764 0.96599054 0.9316003 0.89374024 0.9864313
0.96658343 0.9653758 0.893805 1.0710967 0.89950126 0.9453787 0.96510154 0.9395864
1.0398864 0.93308204 0.89540404 1.0476025 0.84382474 0.9085425 0.8688061 0.92601466
0.8637823 1.0373335 0.9230583 0.951275 0.85988843 0.891858 0.8772452 0.9072709
0.92863905 0.93754816 0.8960146 0.8951918 0.9585297 0.95654416 0.9956637 1.0116144
0.9135014 1.0045944 0.84564203 0.82853585 0.95672274 0.8703746 0.90948373 0.9413161
0.7887929 0.9525647 0.9602264 1.043554 1.0077125 0.9535267 0.9487817 0.9121771

model.1.bias f4 [192]
00000000: 39d9 85be 0d20 90be 3f3f d4bd 6547 cbbd
00000010: cdff 11bd c84f 6bbd aef7 b3be efa8 53be
00000020: 4ff3 55be 99f0 93be 304a eebe d82d 6abe
00000030: 5b14 82be bc23 14be 7825 f7be dada 5ebe
00000040: a3e9 13be d103 97be a045 2cbe 1552 6ebe
00000050: a4b6 fdbd 7580 92be 1a77 3bbe 2eda 6ebe
00000060: dd68 a6be 08d2 4abe 5124 2ebe 9403 a8be
00000070: a755 1fbf 3a3b 6cbe ab38 89be 86c6 d6bd
00000080: 6e6b a3be 3e9b d0be 98af 1ebe f995 bcbe
00000090: 2474 13bf efcc 30be 9223 d8be 1128 a5be
000000a0: 7f7f cebe 5526 48be 9fb0 0dbf 53bf bbbe
000000b0: 2302 a2be ab6a febe a758 7abe 2d97 1ebe
000000c0: cab8 89bd 110d 31be bde1 91be 39ae 27be
000000d0: 7803 b6be bce0 88be 895d 75be 395a a6bd
000000e0: c368 63be a609 27bf 386b b9be 02f7 9bbe
000000f0: 14bb 3bbe 199e 93be 8bed 8abe f73e 81be
00000100: 685c af3d d295 e3be c6cb 65be 5a43 79be
00000110: 4f14 11be 3c1c babe 2122 3bbe 2bb6 bfbe
00000120: 8b3d 50be 0c14 46bd 9670 a13a 8bae fbbd
00000130: 0af2 3dbe a413 54be b08a ccbe f4d6 41be
00000140: 7074 2ebe a679 2fbe 0240 78be defb 89be
00000150: c0d1 82be c022 ddbe 3bb1 15be ac30 8abe
00000160: 64d2 0abf fac3 d3bd aae1 08be d11e 6bbe
00000170: 71f0 bdbe fe29 eabe 8eab d1be 9eb7 34be
00000180: d5b8 83be 52e4 d7be e33e e2bd cf9f 2fbe
00000190: 034d 53be 0078 ecbd b91e 00be 7afb 6dbe
000001a0: 7dd2 60be 77af 08bf a08d 7ebe 5cc6 b7bd
000001b0: eb24 8ebe 6b65 edbe 9297 81be 490b ebbd
000001c0: 7e7c cbbe cb52 1fbe fc90 41be d833 acbe
000001d0: 6875 05be 437e 0fbf 84a9 96be 5dee 2bbe
000001e0: bc1d e2be be77 fcbe 701d 8ebe 0b79 aebe
000001f0: 8a11 c2be 5464 e7bd 8d11 37bd ee3a 0cbf
00000200: 62f9 00bf a07a a6be ad67 91be e2e6 c4be
00000210: a9df 98be 9ff4 92be ed84 a8be 5032 a9be
00000220: 9144 83be 3a62 8ebe 8e54 1dbf cfbb cebd
00000230: 00a1 94be 6ea7 d4bd 7b9d dabe 8d2c 16be
00000240: aab4 25be edf3 94be c0a3 d6be 989e a6be
00000250: f710 24bf 1d6d 61be 4dbb 4bbe 01cc adbe
00000260: 9bb3 0fbe f4ff 81be b930 fbbd f53f 7bbe
00000270: 9e2c 37be 1783 56be c715 03bf 7f6f cbbe
00000280: afdb c2be d836 56be a0cf 53be 0468 84be
00000290: d036 7abe 2eec cdbe 7fe5 b6be 4db6 17bf
000002a0: da64 86be 9166 07be e667 8ebd a535 f0be
000002b0: 6679 3fbf bb63 52be 95c1 cabe 60d9 92be
000002c0: b211 eabe 32e9 f0be 9791 14be e8ea 79be
000002d0: 0e09 ebbd 0232 1cbf 44ad bcbd 51e9 87be
000002e0: c1ae 20bf adab c2be 6c45 0dbf a97a 29be
000002f0: 19d0 92be 2b83 aebe 6aed 6bbd 5f98 cdbe
-0.2614229 -0.28149453 -0.10363626 -0.09925727 -0.03564434 -0.057449132 -0.35149902 -0.20669912
-0.20893596 -0.288945 -0.46540976 -0.2286905 -0.25406155 -0.14466757 -0.48270774 -0.21763173
-0.14444594 -0.294951 -0.16823435 -0.232735 -0.123883516 -0.2861363 -0.18307152 -0.23325416
-0.3250188 -0.19806683 -0.17006041 -0.3281523 -0.6224007 -0.23069468 -0.26801047 -0.10487084
-0.319179 -0.4074344 -0.15496671 -0.3683317 -0.5759909 -0.17265676 -0.42214638 -0.3225713
-0.40331647 -0.19545873 -0.5534763 -0.36669406 -0.31642255 -0.49690756 -0.2444788 -0.15487356
-0.06724699 -0.1729014 -0.28492537 -0.16375054 -0.3554952 -0.2673396 -0.23961462 -0.08122677
-0.22207932 -0.652491 -0.36214614 -0.3046189 -0.18333083 -0.28831556 -0.27134356 -0.2524335
0.08562547 -0.4445024 -0.22441015 -0.24342099 -0.14167903 -0.36349666 -0.18274738 -0.3744367
-0.20335977 -0.048358962 0.0012316878 -0.12289151 -0.18549362 -0.20710617 -0.3994956 -0.18929654
-0.17036605 -0.17136249 -0.24243167 -0.26949972 -0.25550652 -0.43190575 -0.1461839 -0.2699026
-0.5422728 -0.10340114 -0.13367334 -0.22960974 -0.37097505 -0.45735162 -0.40951198 -0.1764817
-0.25726953 -0.42166382 -0.11047151 -0.17150806 -0.20634846 -0.11546326 -0.1251172 -0.23240462
-0.21955295 -0.5339274 -0.24858713 -0.08973381 -0.2776254 -0.46366438 -0.2531095 -0.11476762
-0.39743418 -0.15558927 -0.18902963 -0.33633304 -0.13033068 -0.56052035 -0.29426205 -0.16790147
-0.4416331 -0.49310106 -0.27756834 -0.34076723 -0.37904006 -0.11298433 -0.044694472 -0.5477742
-0.5038053 -0.3251543 -0.2839941 -0.384574 -0.2985814 -0.28702256 -0.32913914 -0.33046198
-0.2563825 -0.27809316 -0.61457145 -0.100944154 -0.29029083 -0.10383497 -0.42698273 -0.14665432
-0.16182199 -0.2909235 -0.41921806 -0.32542872 -0.64088386 -0.2201428 -0.19895668 -0.33944705
-0.14033358 -0.2539059 -0.122651525 -0.24536116 -0.17888114 -0.20948444 -0.51205105 -0.39733502
-0.3805823 -0.20919359 -0.20684671 -0.25860608 -0.24434972 -0.40219253 -0.35721967 -0.59262544
-0.2624882 -0.1322272 -0.06953411 -0.46915928 -0.74794614 -0.20545857 -0.39600816 -0.2868147
-0.45716625 -0.47052914 -0.14508663 -0.24406016 -0.114763364 -0.61013806 -0.09212735 -0.26545194
-0.62766653 -0.38021603 -0.55184054 -0.16550697 -0.2867439 -0.34084448 -0.057599463 -0.40155312

model.1.running_mean f4 [192]
00000000: d5eb 20bb 8229 8f3b 9c27 0a3b 7928 8c3b
00000010: f190 aa3a 85e7 1dbb 479f 2e3b b412 6539
00000020: 9b62 393b 1466 2137 0fef 3a3b 4b14 3dbb
00000030: ed9a c03a 5c67 a83a 368d 15bb af5a 71bb
00000040: f40c a6b9 e606 c2ba 3353 9c38 cee8 0e3b
00000050: 234a 823b 220b 6d38 5a85 bfbb 040f 933a
00000060: 1302 9f3b 860c f63a 1fd8 52ba 2237 4cbb
00000070: 5d68 39ba 7d84 18bb 0289 0ebb 851c 64bb
00000080: 2f46 b9ba 86d6 503a ba84 db3a 3310 353b
00000090: 2227 c23b 9b8f a83a 0291 44ba fc38 fabb
000000a0: 0be7 f5ba 4e50 f739 a99c fc39 91f7 333b
000000b0: e279 643a 5e95 35bb 7633 063c 9da8 9239
000000c0: 73bd 883b 15e3 ed3a 249c bd3a 7da0 b9ba
000000d0: 6184 323a 84e1 d039 d217 a23a e164 9a3a
000000e0: 2cd5 8bba 9b05 57bb 5993 4a3a 2b59 0e39
000000f0: 0ef2 c8b8 e560 54bb bb8d 53b9 9ed0 eeba
00000100: 863c 4c3b 3571 90bb f60e 80bb 368e 02bc
00000110: c0d5 893b cead dcba 83fa c13b c823 713a
00000120: a682 b8bb 6014 d03a ffe4 ab39 59c3 8739
00000130: 3130 c338 555d 863b 5f31 3e3a 8d9a a1b9
00000140: 071f 99bb fa62 58bb 8a78 f1ba b1a2 7abb
00000150: caa0 3dba 62e4 0e39 e8e6 813b 7553 70b8
00000160: e63e 55ba d7c9 683b 6eef 43ba 6ffe c13b
00000170: 89be 03bb 220d 1a3b 2730 f33b 9c8b 0639
00000180: 5689 efbb 868c 833b f672 3b3b 7281 373a
00000190: 8bd4 84bb 42a9 9c3a 81dd d13b 4004 3dba
000001a0: a32e bfba 181a cd3b 7a18 f23b 40f5 8bbb
000001b0: 81c1 113b 1630 b8ba 71ad d6bb 6eb4 c8bb
000001c0: 25de 80bb 626f 6c3b 9def e3ba 6dd5 6e3a
000001d0: 5975 81bb 66de 65bb d209 3f39 4efe 89bb
000001e0: 5621 253b 0e88 613b 6256 caba 357b 3abb
000001f0: 1404 0fba 6fb3 1a3b 5fe8 53bb 8a8f 3abb
00000200: 6d20 c23b c13d 5d39 dc7e 1dbb 0154 9ebb
00000210: d491 dbbb b32b 9f3b 2abc 53bb 4e1d 9d3a
00000220: c782 1bbc fed9 ef3b 14b4 07bb b8a2 cfba
00000230: ad53 edbb c532 f239 8c04 533a 8d0c 8dbb
00000240: 0add 3cba 6489 82bb f8b9 253b 13f0 cdba
00000250: 4578 ac3b 5a34 42bb 1585 6dba 3a01 c13a
00000260: 6b0c 8cbb 5be7 0dbb 7cf5 3c39 2b79 f7ba
00000270: 815e 0dba d82a 533b d91f 32bb f08c babb
00000280: d57a 173b 2473 543a 0ccb 573a 6853 bb39
00000290: 6715 65bb 8666 4f3b 2870 933b cd4b 92b9
000002a0: dcf2 a6bb de09 92bb 361b a63a 03cc cebb
000002b0: be64 e53b 10ae 94ba 6b6b 79bb e611 09ba
000002c0: ff76 a439 b290 57bb e8fd 25bb 7b06 7bbb
000002d0: abb8 a93a 76b9 5bbb 45ef 383b 2e74 d539
000002e0: 8be7 c6ba dfd2 1b39 d610 883b ff97 9b3b
000002f0: 566f bebb 230b e6ba bd38 8ab9 3f89 513b
-0.002455463 0.004368962 0.0021080738 0.0042772857 0.0013013167 -0.0024094295 0.002664523 0.0002184611
0.0028287533 9.620115e-06 0.0028523838 -0.0028851207 0.0014694609 0.0012848186 -0.0022819764 -0.0036827733
-0.00031671638 -0.0014803081 7.454157e-05 0.0021806243 0.003976123 5.651557e-05 -0.005844754 0.0011219685
0.004852542 0.0018772043 -0.0008043069 -0.0031160791 -0.0007072741 -0.0023272329 -0.0021749143 -0.0034807038
-0.0014135296 0.0007966537 0.001674793 0.0027628064 0.005925075 0.001286018 -0.00074984145 -0.0076361876
-0.0018760873 0.00047171343 0.00048181906 0.0027460793 0.0008715672 -0.0027707438 0.00819098 0.00027972917
0.0041729747 0.0018149341 0.0014466089 -0.0014162209 0.0006809887 0.00039840874 0.0012366718 0.0011779332
-0.0010668389 -0.0032809738 0.0007727645 0.00013575393 -9.581829e-05 -0.0032406386 -0.00020175327 -0.0018220132
0.0031164004 -0.0044080266 -0.0039080335 -0.007968476 0.004206389 -0.0016836466 0.005919756 0.0009198752
-0.005630809 0.0015875213 0.00032786277 0.00025894752 9.307301e-05 0.0041004815 0.00072552817 -0.00030823462
-0.004672888 -0.003301798 -0.0018422764 -0.0038243944 -0.0007233737 0.00013627255 0.0039642937 -5.7298184e-05
-0.0008134678 0.0035520697 -0.00074743375 0.0059202234 -0.0020102581 0.0023506363 0.0074215117 0.00012831244
-0.007310073 0.0040145544 0.0028602458 0.0007000185 -0.0040536574 0.0011952298 0.006404579 -0.0007210411
-0.0014586042 0.006259214 0.0073881717 -0.0042711794 0.0022240581 -0.0014052417 -0.0065514375 -0.0061250245
-0.0039327317 0.0036077132 -0.0017390136 0.00091107824 -0.0039507565 -0.0035075187 0.00018218838 -0.0042112237
0.0025196872 0.003441337 -0.0015437121 -0.0028454785 -0.0005455625 0.0023605486 -0.003233455 -0.0028466904
0.0059242756 0.00021099208 -0.0024031913 -0.0048317914 -0.0067007337 0.0048575043 -0.00323082 0.0011986883
-0.009491629 0.007319688 -0.00207067 -0.0015841341 -0.007242641 0.00046195663 0.0008049689 -0.0043044747
-0.0007204568 -0.0039836634 0.0025287848 -0.0015711806 0.0052633607 -0.0029633255 -0.0009060663 0.0014725097
-0.0042739413 -0.0021652791 0.00018020527 -0.0018880715 -0.00053928053 0.0032221582 -0.0027179627 -0.0056930706
0.0023113985 0.00081043155 0.00082318555 0.00035729562 -0.0034955384 0.0031646802 0.004499454 -0.00027903766
-0.005094869 -0.0044567427 0.0012672904 -0.006310941 0.007000535 -0.0011343379 -0.003805841 -0.00052288023
0.00031369177 -0.0032892642 -0.0025328342 -0.0038303423 0.0012948712 -0.0033527291 0.0028218788 0.00040713086
-0.0015175206 0.00014860508 0.0041523976 0.004748344 -0.005811612 -0.0017550926 -0.00026363684 0.0031972674

model.1.running_var f4 [192]
00000000: 5920 083f a9a5 6c3e 8325 ca3e f8cf 9b3e
00000010: 343b 8f3e 0a32 e63e 5b99 a93e 24f2 a03e
00000020: dfb5 723f 9b2e d03e 40c1 0e3e c3c1 583e
00000030: 7468 8d3e ffd2 a13e c148 8f3e daae fc3e
00000040: c0fe 9e3e af2e 783e f889 d03e 4b2e 273f
00000050: 9d44 6d3e c30d 5c3e c947 063f 99f9 483e
00000060: 62be 353e d214 9b3e b309 fa3e df35 d13e
00000070: 1858 063f caab a23e 6800 463e 934e e43e
00000080: 4123 b43e 1932 833e cc22 1c3f e3fe 863f
00000090: 4cea 863e 25f2 cb3e 96b5 023f 7c2a 413f
000000a0: 35f0 183f 906e 913e 7d31 2f3d 914a 7b3e
000000b0: ff54 583e a909 773e 4439 063f e906 003e
000000c0: 77ff 4a3e a0a1 803e 9c29 8c3e 0d68 8b3e
000000d0: 1f4e 533e 8dbe 233f 13e9 4b3e 0c36 bc3e
000000e0: d028 823e 72af f23e 42fd 793e 7412 973e
000000f0: c322 523e 56e8 ca3e d948 843e e8fd a53e
00000100: 7679 2e3e aaa4 6e3f 6b0c ac3e 60c4 b63e
00000110: 3dcc a43e ddd6 783e 9333 573e e057 4a3e
00000120: 7562 893e 90fc 903e a616 d63e e41d 8a3e
00000130: 7849 b63e 7183 2b3e befa 5e3e 8205 c43e
00000140: 0ae8 823f 3ec2 a13e ba03 d53e af0d 7d3e
00000150: dc1a fa3e e4c5 e43d c0ed 833e a9f8 473e
00000160: 18b3 b13e 2059 053e 82dd 783e 5e82 3c3e
00000170: f001 e63d 23d2 943e d177 053f 5126 603e
00000180: 91d9 003f 9621 da3d 7016 f13d 0180 a73e
00000190: 5fd7 d03e 306b 983e f001 f13e f855 9e3e
000001a0: ce17 893e ca5f be3e 6c98 903e def0 383f
000001b0: d710 bb3e 134e e83e 9624 c43e 7d33 e53e
000001c0: 419a 123e a144 763f 92e4 0b3e 4269 c33e
000001d0: 133c 8b3e 0022 ee3e 5873 783e 7334 383e
000001e0: 9726 5a3e 99bd 083e 056d 373e cfca 953e
000001f0: 5a8c 503e 1137 f63e 3a28 b23e 1248 8c3e
00000200: 1617 4b3e 07d2 1d3e f474 613e e1ec 5d3e
00000210: c4a7 993e 535d 5b3e e4df a13e eaab c53e
00000220: 598e ab3e 7b88 693e b7fc 8a3e ab95 f73e
00000230: afe1 cf3e 30a2 f33e 76cf 863e a834 b93e
00000240: dee3 253e 8dd5 a63e 56f3 1b3e 4ffb 2d3e
00000250: 276c 3d3e 3cdf 7b3e 6385 8e3e f4de 523e
00000260: c7c2 813e 2134 be3e b54d 1d3e cab0 983e
00000270: c436 c03e 1758 ab3e b095 853e bcc5 d83e
00000280: c524 903e 0db0 113f 311f 5a3e 1167 b13e
00000290: 4586 533e d33d d63e 713f 9d3e ff08 8d3d
000002a0: ada0 813e 3591 013f dddb a33e 878a 023f
000002b0: 4f4a b23e 76ef 953e 772a da3e 251c 973e
000002c0: 80ff 1e3e 1090 ab3e 393e 993e 4a00 b13e
000002d0: 5cb8 773e 8e82 a13e 6cb0 5a3f 20c0 663e
000002e0: 37e3 0c3f 4153 8a3d a754 5c3e a515 763e
000002f0: dbd1 ae3e 2197 403e b8d5 a83e ca60 a93e
0.5317436 0.2311007 0.39481744 0.30432105 0.27974856 0.44960052 0.33124813 0.3143474
0.94808763 0.40660557 0.13940907 0.21167664 0.27618754 0.3160629 0.27985194 0.4935215
0.31053734 0.24236558 0.40730262 0.6530501 0.23170705 0.21489625 0.52453285 0.19626464
0.17748407 0.30289322 0.48835525 0.40861413 0.5247817 0.3177169 0.19336092 0.44591197
0.35183147 0.2562416 0.60990596 1.0546535 0.2635063 0.3983318 0.5105833 0.7545545
0.59741527 0.28404665 0.042771805 0.24540164 0.21126173 0.24124779 0.5243113 0.12502636
0.19824015 0.2512331 0.27375495 0.27227822 0.2063527 0.6396263 0.1991313 0.36759984
0.25421762 0.4739948 0.24413016 0.29506266 0.20521073 0.39630383 0.25836828 0.32420278
0.17038521 0.9322001 0.33603224 0.35696697 0.3218707 0.24300714 0.21015768 0.19760084
0.2683293 0.2831769 0.41814154 0.2697593 0.35602927 0.1674936 0.21775338 0.38285452
1.0227063 0.31593508 0.41604406 0.24712251 0.48848617 0.11170557 0.25767326 0.1952845
0.3470695 0.1302228 0.24303249 0.18409106 0.11230838 0.29066572 0.5213595 0.21889617
0.5033198 0.10650937 0.11771858 0.32714847 0.40789315 0.29769278 0.4707179 0.30924964
0.26775974 0.37182456 0.2824129 0.72242534 0.36536285 0.45372066 0.38309163 0.44765845
0.14316656 0.9619847 0.13661411 0.38166243 0.2719427 0.46510315 0.2426275 0.17988758
0.21303783 0.13353576 0.17912681 0.29256293 0.2036604 0.48088887 0.34796315 0.27398735
0.19833025 0.1541215 0.2201727 0.21672393 0.30010808 0.21422319 0.31616127 0.38607723
0.3350704 0.2280597 0.2714593 0.48356375 0.4060187 0.47584677 0.26330155 0.36172986
0.16200206 0.325848 0.15229544 0.16990398 0.18498288 0.24596876 0.2783614 0.20592862
0.25343916 0.37149146 0.15361674 0.2982238 0.37541783 0.33465645 0.26090765 0.4233836
0.28153053 0.5690926 0.21300961 0.34648946 0.20656689 0.41844043 0.30712464 0.068864815
0.25317898 0.50612193 0.3200368 0.50992626 0.34822318 0.29284257 0.42610523 0.2951366
0.15527153 0.33508348 0.29930285 0.34570533 0.24191421 0.31544918 0.8542545 0.22534227
0.550342 0.06754161 0.21516667 0.24031694 0.34144482 0.18807651 0.32975554 0.33081657

model.4.weight f4 [128, 192]
00000000: 029e 373d 043e 9bbc 43c5 aabb 39c2 2a3d
00000010: eaee 293d a606 1dbc ae44 75bd b8f4 a43c
00000020: 110b b8bd 6f6e 24bd 3578 223c d3bb ffbd
00000030: aa99 18bd 7bc1 453d 5926 35be a3e8 42be
00000040: b56b 2abb e54d 6ebd 08e9 333d 516a 813d
00000050: 837c 6cbc 50d3 6c3d 0b5f 00bd bb03 1abd
00000060: 0279 073d 9154 85bc 3a7c 043d e41d 40be
00000070: 48e0 a03d e6d2 48bd 816b 523d 6675 ba3c
00000080: 5aba 513e 3275 b6bc 3b37 46bd d6ed 97bd
00000090: de65 1e3d 92fe 4fbc 91f4 9d3d 3fd6 ec3d
000000a0: 6656 5cbc 58af 933d e4dc d43d 1d04 7f3c
000000b0: e7e2 ab3c e93a 49bd bc91 3c3d 04ca db3d
000000c0: 3ad7 0abe 8d36 0cbe 2527 46bd 4a53 1ebb
000000d0: 2c79 c93c 1924 783d 73b8 8a3b 205e c93d
000000e0: 26fd 093d 9ee0 0cb9 41c8 27bd 6cd2 88bc
000000f0: 8cdc a4bd 698f 8ebd 85a5 3c3d 16ae 2c3d
00000100: e6a0 7b3d b1f4 193d 9f76 313e 2199 15bd
00000110: 939b f93c e877 b63b 3d4e 02bb ba56 30bd
00000120: 8b34 41bd 9cc8 3bbe f1f2 10bd d9d2 9a3d
00000130: 031b 11bd ed88 a5be 8621 af3d 0578 84bc
00000140: e70d 42bd e9b6 353c cc74 71bd c404 643c
00000150: 7382 1cbe d939 b03b f892 9ebb 9bdf 893d
00000160: e5d3 d6bc 8d0b 3c3d 7e9c 003e 58b5 a93d
00000170: 65b5 a23d 8bd9 fbbb c811 5b3d 587c a0bb
00000180: 7664 39bd 395d cb3c b72c 83bd 157c 75bd
00000190: d890 e3ba a567 fe3c 5515 91bd 5321 933d
000001a0: cbb8 2b3d c735 5dbc 8dc4 e4bc 9733 94bd
000001b0: 1070 8fbd 219e 033d a557 7b3b f2bd a2bc
000001c0: 79be 01be 8113 1abe 5891 41bc ee3e c6bd
000001d0: cca4 86bb 1c0e cdbc 38dc 9c3d 0a8e a43c
000001e0: f4d9 863d 3933 90bb bf89 6d3d f5d3 293c
000001f0: fe95 ae3d 11b7 01be dec7 d63b bda9 073c
00000200: f2bb 54bd 36ff 463d 9a59 093d b907 9bbd
00000210: 5cc9 06be 880b 363d fb42 e2bb 1501 edbc
00000220: 615b 313c 75ed 40bc 90ee a4bd ffc2 2ebd
00000230: d395 ffbd 539c 3ebd 6c0b 783d c35a f3bc
00000240: 0690 523d 769b 2dbe 1a04 c73b 7f01 89bb
00000250: afb0 09bd 4f17 69bd ae2a 8b3d ad60 ac3d
00000260: f7e0 493b 67c1 edbd df10 d13d d1a8 433e
00000270: d679 a1bd 1041 eebc fdfb debd b6d4 0dbe
00000280: 4797 c3bc f1c1 363c 2154 153d 6806 47bd
00000290: b4a8 d8bc 3def b9bd 5362 ca3c 5e93 2c3c
000002a0: be87 fdbd 3e81 a4ba f974 5f3d ef9b 11bd
000002b0: 71d1 aebd d46f 88bd f4fe 1d3d 9dab 7abe
000002c0: 455a a53c 9cd5 a3bd 340e 8e3c abbf 98bc
000002d0: 5337 d5bb 4d1c 853d c899 09be 4a7f 2c3c
000002e0: 68b5 9c3d 017e b6bb a16d 52bc e2e7 83be
000002f0: ced7 a43d 2e94 de3d d2a7 733c c944 3d3d
00000300: 0624 54bd be10 2f3d 59ba 783b 275e 6a3d
00000310: 3712 a3bc 0cd5 9d3b 733a 04be ca39 d83c
00000320: c7b7 713d ab6a 0dbd c1bf aabc 0c87 aabd
00000330: 2685 26bd 032b f5bd a81f 58be b3ec b6ba
00000340: ff5f 113d b0c4 493c 4e8a a63c 3d71 123d
00000350: 1ed0 04bc 09a5 17bd 1ae0 d9bd 692c d5bd
00000360: 83f0 7f3c 500d b1bb 09f3 ce3c e86f 42be
00000370: 6c91 aa3c f0dd 6d3c a202 523d f177 013d
00000380: 52e7 0c3e 1fd6 5e3b 4650 f13d 8943 1fbb
00000390: 9b20 833c 0dc7 bf3c 267b b53d e452 623d
000003a0: b334 b4bc de79 523c 1cc6 643c a6ba afbb
000003b0: 5828 c8bd cae7 83ba 879a 2c3c 0077 cc3c
000003c0: 01f1 acbd f729 cfbc 3864 53bd ccc0 05bd
000003d0: f4d3 4cbe cf1b 26bd 3d52 c4bc 27af b5bd
000003e0: 85f9 303d 8857 42bc 9eae f23b 7c72 ff3b
000003f0: 56f0 ed3c 01c4 8bbd 4327 59bd d62e 783c
0.044828422 -0.01895047 -0.0052115037 0.04168913 0.04148761 -0.009584105 -0.05987995 0.020136222
-0.08986486 -0.04014438 0.009916355 -0.124869965 -0.03725592 0.04828022 -0.1769041 -0.19034056
-0.002600414 -0.058179755 0.043923408 0.06319106 -0.014433983 0.05781871 -0.03134064 -0.037601214
0.033074386 -0.016275676 0.032345034 -0.18761402 0.07855278 -0.049029253 0.051372055 0.022761058
0.20481244 -0.02227268 -0.048392516 -0.074184105 0.038671367 -0.012694972 0.07712663 0.11564302
-0.013448333 0.072111785 0.10393694 0.0155649455 0.020982219 -0.049128447 0.04603742 0.10731891
-0.13558665 -0.13692684 -0.048377175 -0.002415853 0.024593912 0.0605813 0.004233414 0.09832406
0.033688687 -0.00013435117 -0.04096246 -0.0167019 -0.080498785 -0.06960947 0.04605629 0.04215821
0.06143274 0.03758687 0.17330407 -0.03652299 0.030469691 0.005568493 -0.001988306 -0.04305146
-0.04716925 -0.18338245 -0.035387937 0.07559747 -0.03542615 -0.3233103 0.08551316 -0.016170511
-0.04737654 0.011090972 -0.058949277 0.013917152 -0.15284137 0.0053779897 -0.0048392974 0.067321025
-0.026224086 0.045909453 0.12559697 0.08286542 0.079447545 -0.0076858453 0.053483754 -0.0048976354
-0.045261823 0.024824725 -0.06405013 -0.059932787 -0.0017361892 0.031055281 -0.07084147 0.071840905
0.04192428 -0.013501591 -0.027925754 -0.072364025 -0.07003796 0.032133225 0.00383518 -0.019865964
-0.12670316 -0.15046503 -0.011814438 -0.09679972 -0.004109001 -0.025031142 0.07659191 0.02008726
0.0658454 -0.0044006375 0.057992693 0.010365476 0.085247025 -0.1266749 0.0065545877 0.008280215
-0.05193705 0.048583232 0.033532716 -0.07569832 -0.1316275 0.04444459 -0.0069049574 -0.02893118
0.010825009 -0.011775364 -0.08053315 -0.04266643 -0.124797486 -0.0465358 0.060557768 -0.029706364
0.051406883 -0.16953835 0.006073487 -0.0041810866 -0.033615764 -0.056906994 0.0679525 0.08416877
0.0030804256 -0.11609154 0.10208296 0.19107367 -0.078845665 -0.029083759 -0.10887907 -0.13850674
-0.023875846 0.011154638 0.036457185 -0.048590094 -0.026447631 -0.09078834 0.024705088 0.010533182
-0.123794064 -0.0012550724 0.054554913 -0.0355491 -0.085360415 -0.066619545 0.03857322 -0.24479528
0.020184645 -0.07999727 0.017340757 -0.018646082 -0.0065068393 0.064995386 -0.13437569 0.010528395
0.07651788 -0.00556922 -0.01284352 -0.2576285 0.08048974 0.10868107 0.014871554 0.046208177
-0.051792167 0.042740576 0.0037952869 0.057218697 -0.019906146 0.004816657 -0.12912922 0.026394743
0.059013154 -0.034525555 -0.020843389 -0.083265394 -0.040654324 -0.119710945 -0.21105826 -0.001395604
0.03549194 0.01231496 0.02032962 0.035752524 -0.00810626 -0.037022624 -0.10638447 -0.10408861
0.015621307 -0.0054031983 0.025262373 -0.18988001 0.020821296 0.014518246 0.051272042 0.031608526
0.13760117 0.0034002138 0.11782889 -0.0024301729 0.016006758 0.023410344 0.08861379 0.055254832
-0.021997785 0.012846438 0.013963249 -0.0053628264 -0.0977332 -0.0010063585 0.010534889 0.024959087
-0.08444405 -0.025288565 -0.051609248 -0.03265457 -0.20002729 -0.040553864 -0.023964996 -0.08871298
0.04320671 -0.011861689 0.00740607 0.00779563 0.029045265 -0.06824494 -0.05301596 0.015147885

model.4.bias f4 [128]
00000000: 46f5 c1b8 991c e2b8 8f31 dc38 8859 4339
00000010: f4bc 99b8 26bf 53b9 8f38 dbb8 59ee 7539
00000020: 0377 39b9 3c77 7538 88e2 6db7 3f4d 9339
00000030: 41c4 6839 b810 75b8 ff7d 9eb8 68fa 3735
00000040: 6481 f438 a79d 2fb8 1e6d e3b8 7610 87b7
00000050: f027 23b9 921b d0b6 929c 1eb9 1297 66b7
00000060: a67c 8338 6df7 8138 4bd0 75b9 5e43 ba37
00000070: a210 bf37 3f82 c937 2844 d3b8 44aa 2439
00000080: ba7a b939 65b2 5038 379a 9bb8 928a f3b8
00000090: 0b77 2a39 ef34 c2b8 6fcb 1839 1897 f738
000000a0: e5d3 0439 7a15 63b8 0721 7939 f07b 01b7
000000b0: 85d1 a038 2676 5037 84dc 10b9 2a17 fb37
000000c0: a781 8739 f16f 5f38 fefc 2738 d345 e037
000000d0: 1ae6 0739 1f08 fcb6 7030 5ab7 0500 ad38
000000e0: 5fcb ecb8 f17e 5c39 fd2c 8a39 34bf 5939
000000f0: 881c 9536 1b74 1c39 83c1 0739 de4b 9bb7
00000100: c0d7 c436 082d 2739 0166 2839 3fcb 53b8
00000110: c2c4 95b8 7be3 80b8 9cd5 42b8 ff94 19b9
00000120: edc6 59b8 3fb2 acb9 1d2e 43b9 3d5c 2a39
00000130: 6bda 0d39 860a f4b6 7f09 5eb8 a3cd 2cb8
00000140: 280e d738 71f1 ac37 ee2b 45b9 3b9c 93b7
00000150: 6d4e c7b8 b0a0 2539 5abf e6b8 7676 c3b8
00000160: 553a 8639 80aa 3bb9 4595 fd38 128e f1b8
00000170: b7eb 6c38 9937 68b8 57a9 a339 d618 fb38
00000180: 3a5e e537 98c7 cb38 a254 a236 cce0 9438
00000190: e1d5 3d39 6ffb 9139 6e26 6e38 7e0e c638
000001a0: 825b 8bb8 3557 0e39 14b8 3c38 a5e9 01b8
000001b0: 9f61 0a39 b312 87b8 ae4e 6939 02de 4d38
000001c0: 2f14 1bb9 b083 7db8 e88a 49b8 883a cdb7
000001d0: 4a6e 4ab8 e202 8938 1ed8 6eb9 ff7d 82b9
000001e0: d331 7d37 eef4 8d37 ac97 9cb8 a499 a439
000001f0: 39cf a638 57c3 73b9 0d2a 52b8 c434 a538
-9.248643e-05 -0.000107818465 0.000104996485 0.00018630002 -7.330804e-05 -0.00020193736 -0.000104532686 0.00023453812
-0.0001768731 5.8523598e-05 -1.4179044e-05 0.00028095578 0.00022198354 -5.8428122e-05 -7.557496e-05 6.85372e-07
0.000116589275 -4.1870077e-05 -0.00010844528 -1.610092e-05 -0.00015559769 -6.2020927e-06 -0.00015126381 -1.3744242e-05
6.269784e-05 6.197286e-05 -0.00023442616 2.2204298e-05 2.277672e-05 2.4021718e-05 -0.00010073959 0.00015703688
0.00035377388 4.9757207e-05 -7.419701e-05 -0.00011612954 0.0001625681 -9.2605005e-05 0.00014571635 0.00011806021
0.00012667438 -5.414102e-05 0.00023758794 -7.717856e-06 7.6684206e-05 1.2425275e-05 -0.00013815059 2.9932318e-05
0.00025845805 5.3271597e-05 4.005152e-05 2.6735395e-05 0.00012960323 -7.5111307e-06 -1.300509e-05 8.2492865e-05
-0.00011291238 0.00021028124 0.0002635493 0.00020765961 4.4438675e-06 0.00014920572 0.00012946692 -1.8512768e-05
5.866372e-06 0.00015943137 0.00016059728 -5.0495608e-05 -7.141523e-05 -6.145887e-05 -4.6452144e-05 -0.00014646722
-5.1922096e-05 -0.000329392 -0.00018613828 0.00016246825 0.00013528175 -7.2729918e-06 -5.293777e-05 -4.119951e-05
0.00010254636 2.0616428e-05 -0.00018803749 -1.7596516e-05 -9.5036674e-05 0.00015795487 -0.00011002897 -9.32039e-05
0.00025601932 -0.00017897226 0.00012091784 -0.00011518238 5.648631e-05 -5.536489e-05 0.0003121595 0.00011973239
2.7342805e-05 9.7169715e-05 4.837829e-06 7.0990616e-05 0.0001810412 0.00027843888 5.6779412e-05 9.444075e-05
-6.645081e-05 0.00013574662 4.499413e-05 -3.0973595e-05 0.00013197072 -6.440785e-05 0.00022249922 4.908257e-05
-0.00014789471 -6.0442544e-05 -4.80515e-05 -2.446516e-05 -4.8263268e-05 6.533206e-05 -0.00022777959 -0.00024889407
1.5091576e-05 1.6922564e-05 -7.466911e-05 0.0003139499 7.954095e-05 -0.00023247056 -5.0107064e-05 7.8776415e-05

model.5.weight f4 [128]
00000000: df51 5f3f 3522 653f 5f7a 663f da26 693f
00000010: be80 783f 253c 743f 0058 753f d428 793f
00000020: 2c95 7f3f 20de 643f 7eb0 6e3f 60e7 683f
00000030: 120d 803f 57e5 683f 848a 823f a12b 6a3f
00000040: 42ac 713f 78fe 763f 834a 773f facf 683f
00000050: 6c43 843f 5402 5b3f 1ffa 5d3f b5eb 713f
00000060: d5c7 833f 37ec 6f3f 4903 703f c704 833f
00000070: fca8 793f 5669 783f 1968 7e3f 4b9e 7a3f
00000080: e022 623f cb34 653f 73df 793f b96d 763f
00000090: 223d 763f 5d57 813f 6ec9 8f3f 2b77 743f
000000a0: d6d8 5c3f c795 603f 3f1c 7f3f 2762 703f
000000b0: fcae 713f 53af 6d3f 8177 6b3f 8839 853f
000000c0: 522d 723f 03f4 6f3f 3508 7f3f aaf7 6c3f
000000d0: c4c5 763f aa83 6e3f 730e 5a3f dff5 803f
000000e0: 62b9 593f bd32 883f 58bf 6b3f e6e8 6b3f
000000f0: 6515 713f 476e 6b3f 5fc6 763f 71f8 873f
00000100: 88c8 7f3f 0178 663f 9b43 663f 8b10 723f
00000110: 06ba 693f dafb 6e3f 0c88 563f 22ce 6e3f
00000120: e18d 6f3f 5f09 823f 4d29 653f e4e8 5f3f
00000130: 4fb2 563f 45ce 643f f4aa 833f c68a 5d3f
00000140: 270a 803f e92b 723f f8fa 783f 3574 6f3f
00000150: 7812 6f3f fd1a 6f3f 1df3 523f 1530 763f
00000160: 7e50 693f a76f 603f 254b 7b3f a046 743f
00000170: e730 693f 08ab 6f3f 9239 713f 4317 5f3f
00000180: 32e8 743f dd5b 7a3f 70dc 623f 7d14 5d3f
00000190: df79 803f d83a 643f 41ac 783f 42a4 693f
000001a0: c331 803f 432b 833f 2346 693f bc1f 693f
000001b0: b0ba 773f 140c 673f 2d1e 5c3f a262 783f
000001c0: 2453 6d3f b4d9 693f 3111 7c3f 577d 5b3f
000001d0: 6924 803f 0d8a 823f f4e0 723f 415e 553f
000001e0: cb18 563f 4a5f 6f3f 0ffb 6c3f f15a 7a3f
000001f0: 9ca2 5a3f ff2b 6b3f 9ad6 7e3f 97b0 763f
0.872343 0.8950532 0.90030473 0.9107491 0.97071445 0.95404273 0.958374 0.97327924
0.99836993 0.89401436 0.93238056 0.9097805 1.0003989 0.90974945 1.0198522 0.9147282
0.9440347 0.9648204 0.9659807 0.9094235 1.0333076 0.8555043 0.8670978 0.94500285
1.0295359 0.9371981 0.9375501 1.0235833 0.97523475 0.9703573 0.9937759 0.97897786
0.88334465 0.8953368 0.9760658 0.96261173 0.9618703 1.0104786 1.1233346 0.95494336
0.86268365 0.8772854 0.99652475 0.9389977 0.9440763 0.9284565 0.91979223 1.0408182
0.94600403 0.9373171 0.996219 0.92565405 0.96395516 0.93169653 0.851783 1.0075034
0.85048497 1.0640484 0.9208884 0.9215225 0.9417327 0.91965145 0.9639644 1.0622693
0.9991536 0.9002686 0.8994691 0.9455649 0.91299474 0.93353045 0.8380134 0.93283284
0.93575865 1.015911 0.89516145 0.8746474 0.8386583 0.8937724 1.0286546 0.86539876
1.0003098 0.9459825 0.9725795 0.9353669 0.93387556 0.93400556 0.8240221 0.9616712
0.91138446 0.8767037 0.98161536 0.95420265 0.91090244 0.9362035 0.9422847 0.8714487
0.956668 0.9779642 0.8861761 0.8635939 1.0037192 0.8915229 0.9713784 0.9126626
1.0015186 1.0247577 0.91122645 0.9106405 0.9676924 0.90252805 0.85983545 0.970255
0.9270499 0.91347814 0.9846373 0.8573813 1.0011111 1.019838 0.948745 0.83346945
0.8363158 0.93504775 0.92570585 0.97795016 0.8540437 0.9186401 0.99546206 0.96363205

model.5.bias f4 [128]
00000000: 505f 00bf ec46 dfbe ac46 98be b1e8 8dbe
00000010: ac93 13bd 5355 74be ee0f 53be 97d1 9fbd
00000020: 701c 05be c754 b5be 4615 39be d0f3 83be
00000030: 3769 63be ec0d 27bf 3095 5abd 7c1e 87be
00000040: 3a32 32be 1146 b7be 2b6b 75be eb58 5bbe
00000050: f1aa bdbd 93c4 01bf d4c5 cbbe 7dda 04be
00000060: 9b76 3fbe a037 85be 1cea 96be d5f5 e5bd
00000070: 8d46 14be 0b5b 0ebe daa7 2ebe 913f 8cbe
00000080: 70ab 23bf 110a 82be 8b41 adbe b5e2 25be
00000090: 41e7 bfbd 5ccf 25be c64e 6bbd c9b0 2bbe
000000a0: 540a 30bf aba7 31bf d2dc 17be 55ea 44be
000000b0: 51b1 5dbe d943 e9be cca3 4abe 152b 1cbe
000000c0: cc06 48bd 7a1c e1be 6e09 83be 633e 0bbf
000000d0: d6f5 f2bd 25d7 61be 42d4 f5be a3fe 8abe
000000e0: e4a6 edbe 2baf 06be fed8 27be ccc3 2cbe
000000f0: 1587 8fbe 3fd4 54be 4aab 07bf 413a 09be
00000100: 7134 bcbd 671a f1be fe48 9ebe 50c3 9bbe
00000110: b15f 88be a5d6 48bf 3e51 14bf ce3a a4be
00000120: fc2f bfbe 1db4 a0bd 06e9 efbe 5782 d4be
00000130: 59ef fbbe 16c0 05bf cd43 71be e9b2 debe
00000140: 94b0 73be 76c2 44be dc01 6fbe 15a0 72be
00000150: 472b 97be 5d1f a3be fb27 4bbf 012b 07bf
00000160: e6ef 21bf 2139 d9be 925d f8be 6c59 5cbe
00000170: 5070 47be aa9d 32be 4b83 cfbd d523 b8be
00000180: 1a9c b9bd ca6e 87be d351 53bf 8a97 a5be
00000190: a643 12be b73e e1be b42b 2abe 7092 9fbe
000001a0: cc32 a0bd 64ec 90bd 5790 21bf 29fd a3be
000001b0: 7e2a cabd e678 11bf 97fc fabe c62c 92bd
000001c0: c970 88be dca2 b1be 081a dabd c5f8 2bbf
000001d0: b64b 4cbe 5acf 41be 81d0 f8bd a9ca 55bf
000001e0: 171d f4be 4578 7abe 3ea8 03be e505 5bbd
000001f0: 880d e6be 33e0 f7be 8aa7 1abe 9bb2 d1bd
-0.50145435 -0.43608797 -0.29741418 -0.27716592 -0.036029503 -0.23860674 -0.20611545 -0.07803648
-0.1299913 -0.35416242 -0.18074521 -0.25771952 -0.22208105 -0.6525562 -0.053364933 -0.26390445
-0.17401972 -0.35795644 -0.23966663 -0.21420638 -0.0926112 -0.50690573 -0.39799368 -0.12973972
-0.18697588 -0.26019 -0.29475486 -0.11228529 -0.14480038 -0.13901918 -0.17056218 -0.27392247
-0.6393347 -0.25398305 -0.33839068 -0.16199763 -0.0937028 -0.16192383 -0.05744817 -0.16766657
-0.6876576 -0.69396466 -0.1483033 -0.19230016 -0.21649672 -0.45559576 -0.19789046 -0.1525081
-0.048834607 -0.43967038 -0.25593132 -0.5439207 -0.11863296 -0.22054727 -0.48013502 -0.27147397
-0.4641639 -0.13152759 -0.1639137 -0.16871566 -0.28032747 -0.2078409 -0.5299574 -0.13401128
-0.0918969 -0.47090456 -0.30915064 -0.3042245 -0.26635507 -0.7845252 -0.57936466 -0.32076114
-0.37341297 -0.07846854 -0.4685747 -0.4150569 -0.49206045 -0.52246225 -0.2356102 -0.43495873
-0.23797828 -0.19214806 -0.23340553 -0.23693879 -0.29525205 -0.31859866 -0.7935788 -0.52799994
-0.6325668 -0.42426398 -0.48508888 -0.21518487 -0.19476438 -0.17442957 -0.10132464 -0.35964838
-0.09062977 -0.26451713 -0.8254673 -0.32342178 -0.14283618 -0.4399316 -0.16618234 -0.3116641
-0.07822189 -0.07076338 -0.6311087 -0.32029083 -0.09871386 -0.568251 -0.49020836 -0.07137446
-0.26648548 -0.34694564 -0.10649496 -0.6717647 -0.19950756 -0.18926755 -0.12149144 -0.8351236
-0.47678444 -0.24459942 -0.12857148 -0.05347242 -0.449322 -0.48413238 -0.15102974 -0.102391444

model.5.running_mean f4 [128]
00000000: 4319 f0be 8b89 07bf d85b 6bbf 442a 81be
00000010: c768 1cbe bea4 52bf ec38 b4be 65e1 e5be
00000020: 0eee d7be d72b 08bf 9780 8cbf a69c efbe
00000030: 88bf 1cbf 4c79 a4be d503 67bf 9451 0fbf
00000040: 1018 0abf 4439 62be 4839 30bf 53f9 41be
00000050: b1bf bbbd a2a2 1abf 5b9d 7ebf 9469 62bf
00000060: 67de f8be 8818 c8be 69f1 41bf 124b dbbe
00000070: 0192 623d 6cc4 e4be f63b 46be 5610 24bf
00000080: d976 c4be 49ea a23c d77c 8f3f 2d5e 73bf
00000090: 371d d0bc 332b 503f a375 e63d bb8f d8bd
000000a0: 8b0b 8f3d eb0a 96be 5f8c 4abe bcdd 183e
000000b0: f6c5 79bf 03f0 31be 52ba 32bf a317 42be
000000c0: 7a3c 6abe 2d4a abbd c7e9 813f 82d1 cd3e
000000d0: 1863 e7be 64aa 58be 12c1 9bbe 6669 663f
000000e0: c192 34be 086b edbe 29d2 51bf 3b9f 27bf
000000f0: ca4f e6be 6ec4 81bf bf9f b13e 0fcf b8bf
00000100: 3786 1c3d 2996 b6be 2c87 7dbf 441c 6bbf
00000110: 6a38 babe 330f 07be 20a3 cfbe f7d1 22bf
00000120: af97 28bf 8c68 dcbe 2b7f 283e 030e babe
00000130: 81bd 3bbe d188 07bf a3b7 953f 1ab9 8cbe
00000140: 4e9c b63e ad09 24be 9278 31bf 6f2d 57be
00000150: a17e 49be 82c9 24bf 180a 4bbe ba82 b0be
00000160: 9401 09bf 3480 1ebf 1404 1c3f cbfe 14be
00000170: ed78 ccbe aee2 0f3e 0a07 7ebf 2106 79bf
00000180: 0403 0abf 813b d2be f7c0 f3be 808e 703f
00000190: 8a21 55bf 88ad a3be 0f30 15bf 9b06 6abf
000001a0: 5190 cf3c 687d 383e 7fbf 41bf a288 64be
000001b0: 76db bbbe 6c62 e3be cbeb 9bbe c09f a0be
000001c0: e79b 52bf a191 e1be 6d03 f1be fc1b 02bf
000001d0: e873 e9be 0e03 58bf 2e4a 00bd 47c6 adbe
000001e0: aecc 3f3e 9ccf 563e 5701 81bf 75f0 ce3d
000001f0: 8111 52be e05f 0abf 3438 38bf eb95 8bbf
-0.46894273 -0.5294425 -0.9193702 -0.2522756 -0.15274344 -0.82282627 -0.35199678 -0.44898525
-0.4217381 -0.53191894 -1.0976743 -0.467992 -0.61229753 -0.32123792 -0.9024022 -0.55983853
-0.53942966 -0.22092158 -0.68837404 -0.18942766 -0.091674216 -0.6040441 -0.99458855 -0.8844235
-0.4860718 -0.39081216 -0.7575899 -0.42830712 0.05531502 -0.44681108 -0.19358811 -0.64087427
-0.38371924 0.019887106 1.1209973 -0.95065576 -0.025404556 0.81315917 0.11252906 -0.105742894
0.069846235 -0.29305205 -0.1978011 0.14928335 -0.9756769 -0.17376713 -0.6981555 -0.18954329
-0.22874632 -0.08363757 1.0149468 0.40198904 -0.4519279 -0.21158749 -0.30420738 0.90004575
-0.17634107 -0.4637072 -0.81961304 -0.6547734 -0.4498275 -1.013807 0.3469219 -1.4438189
0.038213935 -0.35661438 -0.9903438 -0.91840005 -0.36371166 -0.13189392 -0.40554142 -0.6360163
-0.6585645 -0.43048513 0.1645476 -0.36338815 -0.18334009 -0.5294314 1.1696666 -0.2748497
0.35666126 -0.16019316 -0.693246 -0.21013425 -0.19677211 -0.64369977 -0.19828069 -0.34474736
-0.53518033 -0.6191437 0.6094372 -0.14550321 -0.3993601 0.14051315 -0.9922949 -0.97274977
-0.5391085 -0.41061023 -0.47608158 0.9396744 -0.832543 -0.3196833 -0.58276457 -0.9141633
0.02533737 0.18016589 -0.75682825 -0.22317746 -0.36690873 -0.44411027 -0.30453333 -0.3137188
-0.8226914 -0.4405642 -0.47072926 -0.5082395 -0.45596242 -0.8437966 -0.031320743 -0.33940336
0.18730423 0.20977634 -1.0078534 0.10104457 -0.2051449 -0.54052544 -0.7196076 -1.0905126
